main.pth (torch, 71951 bytes, 4 tensors)

i2h.weight f4 [128, 131]
00000000: 937c b2bd 8666 a63d bbf6 26bc f518 9a3a
00000010: eaeb 80bd 47b7 c2bd 08db 273d de77 0cbd
00000020: 1bc3 8ebd 158c 85bd 765b 50bd 58e7 a2bd
00000030: e995 27bc 54c9 753d 61bb 01bc abd8 90bd
00000040: 4a41 803c 9c52 16bd e57d 8b3d 551e 9e3d
00000050: 843b 02bd b40d a5bd a91f b33d e519 dcbb
00000060: 0751 f13c 7169 e7bc 3a90 6dbd 5e17 cb3b
00000070: 9c7b 543b 8888 4e3d dd1a f73a 5105 cf3c
00000080: c08b 853d fcea 94bd 65e1 473c 5b2e 85bd
00000090: c343 2abd 2c7b 2dbc 276e 64bd 8d89 c03d
000000a0: 546f ad3d b02e 4fbd 3cda e5ba 65e0 fbbb
000000b0: b4a1 823d 1226 1a3d 5c16 4ebd e68e 9abd
000000c0: 3065 88bd 608c 90bd 377e 1bbd 2298 84bd
000000d0: 9f58 a7bd 1158 faba 3edd 153d ccd5 1abc
000000e0: 6ac3 113d efcd a5bd 07b3 8f3d 03d9 babc
000000f0: 80e2 9a3c 9558 e5bb 49de 023d 8356 113d
00000100: 04ba 80bd 3188 b03d dd6f 0fbd 852f b13d
00000110: 702a 84bd 25fb 1fbc 499b 063c 6ae2 953d
00000120: 2340 0ebc 4766 b4bd 7cd5 a8bd 5c76 62bd
00000130: 977b 7bbd 3723 3bbd 0570 91bd e2b3 74bb
00000140: f0dc e1bc 1a7e 6dbd 6afe 683d 06ea ccbd
00000150: e8a8 3dbd e4d2 653d b029 17bd 8a8b babc
00000160: cd69 86bd db2f 923d c226 2b3d 7ed9 ec3c
00000170: 739d 9fba a22a 983d 960d d6bc a071 36bd
00000180: f103 703d 78cc 2b3b f854 7d3d 990b afbc
00000190: d0d7 60bd fd97 8dbd 6389 a03d 2507 14bc
000001a0: 41b4 ad3d 2ff6 07bb 5a1d e13c 7258 bbbd
000001b0: 47cb 783d 90e7 0f3d 6248 62bd c895 8bbd
000001c0: d7ea 68bd f074 ebbc a6fb b73c e873 823b
000001d0: e686 bcbd 2912 f1bc 828d 9a3d 5351 a43d
000001e0: 0fef 763d b397 133d 973f 86bc cdbc f1bc
000001f0: 3654 2bbc 0986 99bd f93c a3bd e884 3f3d
00000200: fb5e 59bd 5e8a 3abd 5e33 743d 3ce9 d4bb
00000210: dc42 e4bc b27a 243d bad7 9dbd 343b a53d
00000220: ea0c adbd f975 91bd 2279 9abc c918 983c
00000230: be7a a9bd 416e 41bb 21e8 72bd 2774 ed3c
00000240: c5d6 323d fefe 893d efbe 04bb 223f 51bd
00000250: 26b8 0ebd b468 523d 153e 0c3d eefa 2e3c
00000260: 003a 363d edbd d93c 509c cbbc 9cfa 843d
00000270: 335e 93bd f2c0 03bd 7d58 78bd 6bb1 60bd
00000280: 91e0 8f3d 0d79 933d 49b6 86bd f36d d4bc
00000290: 457c 13bd 282d ba3d 70c0 063d abcb 993d
000002a0: dba6 383b 5663 afbd b444 2c3b fc96 adbd
000002b0: 8746 433d f0e6 b43d 4ff0 69bd cd46 0b3c
000002c0: 5186 55bd f791 733c 2181 3e3d 8505 b03d
000002d0: d5d3 dd3c 136a a6bd 20d6 b1bd 895c 61bb
000002e0: 8dad 27bc 6bd7 76bd 3cb4 853d 2c98 7a3d
000002f0: b63a 67bd b10c 96bd 132b bb3c 0ae2 efbc
00000300: 5e74 f83b fce1 81bd 250d 63bc 6599 6f3c
00000310: d213 1c3d ef57 36bd bc9d 5c3d a265 97bd
00000320: d748 403d 02a0 743d 26bb 863a e540 353d
00000330: 33d4 0c3d 3de4 543c f3ff a4bd 6650 d1bb
00000340: e832 66bc 54bb cfbc bde4 0bbd dc66 3d3d
00000350: 9632 16bd efed 8b3d 0ef3 933d 9fb1 58bd
00000360: 824d 953c 3fba a7bc 0175 803d f920 60bd
00000370: 4c50 2d3d df09 46bd f07d b5bd 2d98 783d
00000380: c76f ee3c e4cc 323d 3612 8e3d 0f2c 2b3d
00000390: a136 8d3d 01ab 96bd d33b 92bd 270e 71bd
000003a0: c7b6 013d 6dcb 183b 7aca 43bd 809d c63c
000003b0: 3fc5 953d b145 88bd e2d1 acbd 24cb 183d
000003c0: 3c8a 8b3d 52b8 8cbd 2de8 8a3d 2899 7dbd
000003d0: eb04 873d e9fc bebc ce67 393d e031 8fbd
000003e0: 4277 933d 7668 d2bc 795e 833d e065 9bbd
000003f0: 5dc8 753c ff11 853c 420f 8e3c de53 94bd
-0.08715167 0.081250235 -0.010190661 0.0011756705 -0.06294997 -0.09507614 0.04098037 -0.034294
-0.06970807 -0.06520859 -0.050868474 -0.079542816 -0.010228612 0.060006455 -0.00791821 -0.07072576
0.015656132 -0.036699876 0.06811122 0.07720629 -0.03179504 -0.08059254 0.08746273 -0.006716954
0.029457582 -0.02824852 -0.057998873 0.006197854 0.003242231 0.050423175 0.001885261 0.02527109
0.06520796 -0.07271382 0.012199734 -0.06502982 -0.04156853 -0.0105884485 -0.055769112 0.09401236
0.084685 -0.050581634 -0.0017536352 -0.007686662 0.06378499 0.037633963 -0.050314292 -0.07546787
-0.06659925 -0.070580244 -0.037962165 -0.064743295 -0.081712 -0.0019099732 0.036587946 -0.009450387
0.035586752 -0.08095919 0.07016569 -0.022808557 0.018906832 -0.006999085 0.03195027 0.035482895
-0.0628548 0.086197264 -0.03501879 0.08651642 -0.06453407 -0.009764467 0.008215734 0.07318576
-0.008682284 -0.0880857 -0.08243844 -0.055288658 -0.06139716 -0.04568788 -0.07101444 -0.0037338664
-0.027571172 -0.057981588 0.056883253 -0.10005574 -0.04630366 0.056109324 -0.03690499 -0.022771616
-0.06563149 0.07138034 0.04178501 0.028912302 -0.0012177661 0.074300066 -0.026129525 -0.044541955
0.05859751 0.0026214402 0.06184861 -0.021367835 -0.054893315 -0.06913755 0.078387044 -0.0090349065
0.08481646 -0.0020746102 0.027479816 -0.09147729 0.060740735 0.035132945 -0.05524481 -0.06815678
-0.056864586 -0.028742284 0.022458863 0.0039811023 -0.09205417 -0.029427605 0.07546522 0.08023324
0.060286578 0.036033344 -0.016387744 -0.029508973 -0.010457089 -0.07496268 -0.07970614 0.04675761
-0.053069096 -0.045542113 0.0596193 -0.0064975303 -0.027863912 0.040156074 -0.07707162 0.08067933
-0.08449729 -0.071025796 -0.018856589 0.018566506 -0.08275364 -0.002951518 -0.059303407 0.02898605
0.04366185 0.06738089 -0.0020255407 -0.0510856 -0.034843586 0.051369384 0.034238894 0.0106799435
0.044488907 0.026579821 -0.024854809 0.064931124 -0.071957015 -0.03216643 -0.060631264 -0.0548567
0.070252545 0.07200823 -0.06577737 -0.025931334 -0.036007185 0.09090644 0.032898366 0.0750955
0.0028175625 -0.08563869 0.0026286067 -0.084760636 0.047674682 0.0883311 -0.05711394 0.008500767
-0.052130047 0.014866344 0.046509866 0.08594803 0.027078548 -0.08125701 -0.08683419 -0.003438743
-0.010234249 -0.060264032 0.065285176 0.06118028 -0.056452475 -0.073266394 0.022847688 -0.029282589
0.0075822314 -0.06341931 -0.013858114 0.014623974 0.03810484 -0.044517454 0.053861365 -0.07392432
0.046944465 0.059722908 0.0010279163 0.04425134 0.034382056 0.012993869 -0.08056631 -0.006387758
-0.014050223 -0.02535788 -0.03415369 0.046240672 -0.036669336 0.068324916 0.072240934 -0.052903768
0.018225435 -0.020474551 0.06272317 -0.054718945 0.042312905 -0.048349258 -0.08861911 0.060692
0.029106034 0.04365243 0.06937067 0.041790064 0.06895185 -0.07356835 -0.07140317 -0.058851387
0.03166845 0.002331461 -0.04780052 0.024245024 0.07313012 -0.066539176 -0.084384695 0.037303105
0.068134755 -0.06871094 0.06782565 -0.06191364 0.06592735 -0.023313956 0.04526501 -0.06991935
0.07200481 -0.025684576 0.064145036 -0.075877905 0.015001384 0.016243933 0.01734126 -0.07242559

i2h.bias f4 [128]
00000000: 2923 7bbb 7825 6a3d 5518 493d 21e6 133c
00000010: 884c 44bc 60ef d63d 7068 803c 6b31 b7bc
00000020: 7c6c 3e3d 9789 9dbc 8553 b53c 6c63 a2bc
00000030: 5ef8 363b de60 de3c 9e5e a8bd 8acf 233d
00000040: b8f7 37bd a8e1 a4bd cd04 ca3c b218 b33d
00000050: ac66 9f3d 269e acbb 6f88 983d f7d9 4e3d
00000060: 4b45 abbd 3792 77bd ee75 4abd 00fd 813d
00000070: 875d c2bc 88f8 713b defa 22bd 760d 7ebd
00000080: f6b7 383d 7d10 663d 0683 793d c532 a13c
00000090: 17b9 83bd a55c e0bd 2c77 6a3c 1857 96bc
000000a0: 9826 2c3d 780c cf3a f129 3e3c e8d5 26bb
000000b0: ea72 fd3b 65b0 25bd 950e 6bbd f9a9 4bbd
000000c0: 1e56 293d 2d79 273d c923 b8bc cfaf 2b3d
000000d0: 818e 87bc cb68 c13c 6e7c 923d 9d70 f83c
000000e0: 12d2 01bc a014 e53c bb56 b33d d0c4 abbd
000000f0: a3b1 f4bc f0d1 1bbd 29a2 77bd 3fd8 b7bd
00000100: c0e8 9fbc f07b aebd 8636 b3bc 2068 a4bd
00000110: fd52 99bd 4f37 743d 8782 71bd 8dcd ecbc
00000120: 588e 723d 768c 71bd 200b aebb 13c3 a23c
00000130: dda2 b4bc 527e 12bc 41bb 5d3d 6ba1 89bd
00000140: 28ea 273d 5d6a 103d 6f0e a93c 9c50 07bd
00000150: e0d1 bfbc 3b4a 5c3d b0ee 90bd 89c1 613c
00000160: ae6f cd3d a005 acbc 0562 94bd d611 d1bb
00000170: 91c6 81bd 5a0e a33d 62e9 4fbd 21e3 2bbd
00000180: 3537 573d e442 233a fb20 91bd 1f5b adbc
00000190: 41b1 843d abf9 5a3d fa59 b03c 1c4f 29bc
000001a0: b116 9ebd c87c 16bd 3062 5e3d 550a 6e3d
000001b0: 97d8 62bd 8456 843c ab88 c1bb f6d9 4b3d
000001c0: 24e8 723d b199 673d 1d9f 53bd c7e9 f6bb
000001d0: acd5 9abd cd31 8f3d 228e 663d 2123 b4bd
000001e0: 55aa f53c 6aa4 81bd a33e aa3b 1d65 723d
000001f0: 0e76 5cbd 8a9a 96bc a5fb 2dbd 6248 69bd
-0.0038320518 0.05716464 0.04909547 0.009027035 -0.011981137 0.10494876 0.0156748 -0.022362432
0.046490178 -0.019230647 0.022134552 -0.019822799 0.0027919034 0.0271458 -0.08221172 0.039992847
-0.044913977 -0.08050853 0.024660492 0.08744945 0.07783255 -0.005267876 0.07447898 0.050500836
-0.08362826 -0.060442176 -0.049428873 0.06347084 -0.023726238 0.0036921818 -0.039790027 -0.062024556
0.045097314 0.05616807 0.06091597 0.01967753 -0.064317875 -0.109551705 0.014310639 -0.018352076
0.042028993 0.0015796563 0.011606679 -0.0025457088 0.007734646 -0.040451426 -0.057386953 -0.049722645
0.041341893 0.040887047 -0.022478001 0.04191571 -0.016547443 0.02360954 0.07152639 0.030327136
-0.00792362 0.027963936 0.08756777 -0.083871484 -0.02986986 -0.03804201 -0.060457382 -0.089767925
-0.019520164 -0.08519733 -0.021876585 -0.08027673 -0.07486532 0.05962306 -0.05896237 -0.028906608
0.05921778 -0.058971845 -0.005311385 0.01986841 -0.022050316 -0.00894125 0.054133657 -0.06720241
0.040994793 0.035257686 0.020636765 -0.03303586 -0.023415506 0.05378173 -0.07076776 0.0137790525
0.10031067 -0.020998776 -0.07245258 -0.0063803 -0.06336702 0.07961722 -0.05075968 -0.041964654
0.052542884 0.0006227924 -0.07086369 -0.021161614 0.06479121 0.05346076 0.02152728 -0.010333803
-0.07719172 -0.036740094 0.054292858 0.058115322 -0.055382337 0.016154535 -0.0059061847 0.04976841
0.059303418 0.056543056 -0.051665414 -0.0075351926 -0.07560286 0.069919206 0.056287892 -0.08795763
0.029988447 -0.063301876 0.005195455 0.05917846 -0.053823523 -0.018384237 -0.042476315 -0.056953795

i2o.weight f4 [5, 131]
00000000: c863 b33b d5d6 263d f4af 983e aa9c d73c
00000010: 97ee 423c a0d9 5ebd c977 1dbd 2375 73bd
00000020: bc39 d23c fcbf 72bc 082f 61bd d6a6 70bd
00000030: b0e9 1cbd d275 c93d aa14 c9bc a1ec 503d
00000040: 2464 783d 5c35 503d b8de 9f3d fbd6 67bd
00000050: 614e 083d 6f88 95bd ea0a 9a3c 9b14 c83c
00000060: e609 4b3d 5c7a c53d fdde 3ebd a9b8 35bd
00000070: 9d3e 863c a0df 59bb bd1b f3bb b2b3 5fbd
00000080: b58c e9bc 2125 7cbc 9f74 a43d e2a9 6fbc
00000090: 3191 8ebc 350a d23d 72d1 e03c 3c0d 45bd
000000a0: 4138 ecbd 42ec 773d adc9 67bd 1704 3d3d
000000b0: 30f6 953c ce82 2cbd f35c e33c ecf2 283d
000000c0: cd2f 91bd a7c4 0cbd aa8b e63a 6da7 8abd
000000d0: 67f5 2b3d 42dc aebd e595 9b3d ed4e 6ebd
000000e0: 3994 26bd 6804 2e3d caa1 ec3d 5aea 1dbd
000000f0: 4b0c 41bd 6761 243d 39d1 e73c 8fa9 2ebd
00000100: 7b98 913d 190d ecbd e0ac d4bd 85db 613d
00000110: 2161 89bd bac2 c0bd 24ed a9bc d41e 38bd
00000120: 865c 363d 448b c1bd ab71 cfbd 57d0 52bd
00000130: 37c1 063d 3c58 4c3d 2803 a0bc d767 2abd
00000140: 305e 6dbd 4c36 85bc a198 943c 8e4d 983c
00000150: 3a81 b63c 7e66 a0bd 77bf 64bd 3ad0 35bd
00000160: 470b c23c a0dc 4bbc 702d e53d cf20 853d
00000170: b667 403d 9305 b4bd 126a 4a3d e814 013d
00000180: 8de0 8bbb 7bc1 d0bd 5298 bd3c 2ca2 c23c
00000190: 050f b1bd 44d2 e43c aa3f b13c 444f 01bc
000001a0: 2888 8cbd 8f75 ad3c e4b3 053c c98c 733d
000001b0: 752d 90bd 5702 87bd 2a81 053d 577a 813c
000001c0: b5e4 913a 84f8 b53a b152 a9bd 06de 21bd
000001d0: 3f28 653c 32f9 2ebd b56f 3ebd d303 14bc
000001e0: 296a b5bc 5fb5 09bd f9d7 a53b 85fd 84bd
000001f0: 3177 56bd c592 9f3c fcbb c63d f7f6 433d
00000200: e5e8 c73d 25f6 783d 059c cdbd bd46 863e
00000210: aa14 1ebd 8db9 1a3e 8114 c13d 9632 023e
00000220: bc99 79bc 2afc b7bd baea d4bd e9cc 043e
00000230: 38f4 9abd 3718 903b 35cb 3fbe 7868 edbd
00000240: 822f 9abc d1c7 22bd eed6 3d3d e346 983d
00000250: 0057 9cbb 4fde da3c 2e07 71bd cd3e 9ebd
00000260: 2f43 d4bd 341f 483e 21f1 03be 38fa 9f3d
00000270: f3f3 afbc 57dc 533d 9d32 8ebd e629 41bc
00000280: b593 40bd 653e c73d 5fa5 72bb 3d1c d73d
00000290: 3ff4 3b3d 6657 573e a7f8 01bd ebc8 a83d
000002a0: 7ca1 383d 229e 99bd 361d df3d 45d1 a83d
000002b0: 55fd e6bc 2b03 2c3d 3714 d0bc b963 2a3d
000002c0: 99fc 0e3e 63ed 3cbd 9ca4 cdbc 019e c23a
000002d0: 27e4 e43d 2e68 3d3e 2945 59b8 1da1 703c
000002e0: b0cd daba b7cf 56bd 98e2 ae3b da38 e8bc
000002f0: f98e ecbc 1dec c33d aa68 34be 7861 0f3e
00000300: 09a4 1fbe a01c e2bd caf7 a53c 082b 9dbc
00000310: 435b 863d 5307 cebd bbf0 b5bc 7d90 cdbc
00000320: 1fc8 ce3d 5312 03bd f186 8bbd 934f bd3b
00000330: a74e 2cbe 9ef2 053d 9222 b0bd d65f ac3c
00000340: c17d b63d 7ce0 fabd 952c c73a ba83 ebbc
00000350: 5aab 343d 77eb 063d 114d 633b 427e 31bd
00000360: 2d36 e9bd 2d21 7bbd 4ccf 51bd 3daf e4bd
00000370: 2d91 22be 2029 053e e95d ce3c 6fa1 93bd
00000380: 5fce cfbc 0428 303e 9647 3dbe 64de 0e3e
00000390: 9a54 7e3d 3aad 14be cea2 3c3d d0b6 0ebe
000003a0: 420f 953d 7667 35bd 32f9 8f3d 4211 103e
000003b0: c258 cc3d 8d37 f83c 0095 2fbe 7f97 fb3d
000003c0: 6ee3 abbb 854a d1bd dc14 483d e8ae 223d
000003d0: d4d5 53bc 573c a63d b7cd 0ebe 4dd3 b0bd
000003e0: 12bf 8fbc 3791 c33d aeb7 cfbd 1e45 9abd
000003f0: 65ea 7b3d b224 bd3d 2946 c4bc cc3b 343d
0.0054745413 0.040732224 0.29821742 0.02631982 0.011897705 -0.054406762 -0.038444314 -0.059437882
0.025662296 -0.01481628 -0.054976493 -0.058752857 -0.0383088 0.098369256 -0.024545986 0.051006917
0.060642377 0.050832137 0.07806152 -0.056601506 0.033277873 -0.07301413 0.018804032 0.024423888
0.049569987 0.09642479 -0.046599377 -0.04436556 0.016387278 -0.0033244863 -0.007419078 -0.05461473
-0.028509477 -0.015389712 0.08030056 -0.014627906 -0.017403217 0.10255853 0.027443621 -0.048108324
-0.11534167 0.060528047 -0.056588817 0.04614648 0.018305868 -0.042116933 0.027754283 0.041247293
-0.070891954 -0.03436723 0.001758923 -0.06770215 0.04198208 -0.085381046 0.075969495 -0.05818074
-0.0406687 0.04248467 0.11554296 -0.038553573 -0.047130864 0.040131953 0.028298007 -0.042642172
0.071091615 -0.11525936 -0.10384536 0.05514099 -0.06707979 -0.09412141 -0.02074296 -0.044951275
0.04452183 -0.09450391 -0.10129102 -0.05146822 0.032899108 0.049888834 -0.019532755 -0.041602936
-0.057951152 -0.016261242 0.018139185 0.018591668 0.022278417 -0.07832049 -0.055846658 -0.044388033
0.023687018 -0.012442738 0.11190307 0.06500398 0.046973906 -0.08790126 0.049417563 0.03151408
-0.004268712 -0.101931535 0.023143921 0.02375897 -0.08645443 0.027932294 0.021636803 -0.007892434
-0.06861907 0.02117422 0.008160565 0.059460435 -0.0703992 -0.06592243 0.032593884 0.015805406
0.0011130782 0.0013883268 -0.08267725 -0.03951838 0.013986646 -0.04271812 -0.04649325 -0.009034115
-0.022145348 -0.033620235 0.0050611463 -0.064936675 -0.052359764 0.019479165 0.09703824 0.047842946
0.09761218 0.060781617 -0.10039524 0.26225844 -0.038593926 0.15109845 0.09427739 0.1271461
-0.015234407 -0.08983643 -0.10396333 0.12968792 -0.07566112 0.004397418 -0.18729861 -0.115921915
-0.018821482 -0.03974134 0.04634755 0.074353956 -0.0047711134 0.026717333 -0.058844738 -0.07726822
-0.10364377 0.19543153 -0.12884952 0.07811397 -0.021478629 0.051723804 -0.069432475 -0.0117897745
-0.047015864 0.09728698 -0.0037024838 0.10503433 0.045887228 0.21029434 -0.031731274 0.08241447
0.04507588 -0.075008646 0.108942434 0.0824304 -0.02819697 0.04199521 -0.025400264 0.04159901
0.13963546 -0.046124827 -0.025102906 0.0014848114 0.11176329 0.18496773 -5.1801242e-05 0.01468685
-0.001669338 -0.052444186 0.0053370707 -0.028347421 -0.028876768 0.095665194 -0.17618051 0.14002025
-0.15589918 -0.11040616 0.020259757 -0.019185558 0.065603755 -0.10059991 -0.022209516 -0.025093311
0.10096764 -0.031999897 -0.068128474 0.0057773083 -0.16826878 0.03270208 -0.08600344 0.021041792
0.089107044 -0.12249848 0.0015195782 -0.028749336 0.044108726 0.0329394 0.0034683386 -0.0433333
-0.11387286 -0.061310936 -0.051223084 -0.111662365 -0.15875693 0.13003969 0.025191264 -0.072085254
-0.02536696 0.17202765 -0.18484339 0.13952023 0.0620924 -0.14519206 0.0460537 -0.13936925
0.07278301 -0.04428812 0.07029952 0.14069083 0.09977867 0.030299926 -0.17146683 0.12284755
-0.0052456176 -0.102192916 0.048848018 0.039717585 -0.012929399 0.08116978 -0.13945661 -0.086340524
-0.017547164 0.09549182 -0.10142456 -0.07532714 0.061502833 0.09235515 -0.023959236 0.04400234

i2o.bias f4 [5]
00000000: 1544 e93d ffa3 8b3c 8c6e 653d 33bf c0bd
00000010: 3b65 d2bd
0.11389939 0.017045973 0.05601363 -0.09411468 -0.102732144
