main.pth (torch, 71951 bytes, 4 tensors)

i2h.weight f4 [128, 131]
-0.01827696 -0.027108224 -0.072152056 -0.007985822 -0.07893407 0.03405875 -0.06031134 0.020305349
-0.039262943 -0.032031283 -0.059681427 0.04301629 -0.047813885 0.059912473 -0.03789266 -0.0057051047
0.038591243 -0.013186021 0.079392046 -0.0012382714 -0.025071554 -0.045556568 -0.038344827 -0.074782886
-0.071758404 -0.0287519 -0.011078298 0.032266878 0.05350638 0.032230876 -0.08391699 0.007748817
0.017315742 -0.016341563 -0.013938448 0.07945594 -0.017192869 -0.04141106 0.012240318 0.08097234
0.0749326 -0.040869478 0.017517736 -0.060026538 0.08255539 0.04141274 -0.07563813 -0.009133395
-0.008103083 0.06825965 0.04046472 0.0005400755 0.0038202594 -0.07587136 0.0034170065 0.0169735
0.08760883 -0.04171521 0.0791911 -0.071683265 0.030859761 0.041433074 0.06453336 -0.08023262
0.0775128 -0.0045530284 -0.07080703 0.048024986 0.01004963 0.06020483 0.04078454 0.030623049
-0.03463685 -0.06957117 -0.06702864 -0.010132544 -0.05970704 0.0783089 0.0578969 -0.008277804
0.0018606548 0.081645384 0.00523606 0.041614313 -0.008933311 -0.03553886 0.052665047 0.04713247
0.051638264 -0.08574736 -0.012318397 -0.010612467 -0.071292095 -0.08591947 0.010225321 0.044383813
-0.06453868 -0.057404183 -0.02421774 0.05348509 -0.010336584 -0.032791544 -0.027358806 -0.062230214
0.033318777 0.08172086 -0.049186274 -0.02265742 0.03515644 0.09216389 0.042918008 0.06238709
0.086698964 0.050098736 -0.05627625 -0.043733343 -0.005705727 -0.07712714 0.054477137 -0.077835076
0.0019338331 -0.056195587 -0.022498094 0.020691836 0.036157675 -0.024169875 0.06590045 0.03351921
-0.065803826 -0.046405885 0.0075721242 -0.03471673 0.05908328 0.08364616 0.026303483 -0.0381114
-0.07632405 0.06596598 0.08089147 0.017644465 0.06281098 0.0567793 0.03309662 0.0016270566
-0.062093046 -0.083328836 0.00725816 0.06886237 0.07293744 -0.02901502 -0.024260338 -0.043451495
0.050711818 -0.06992427 0.053751767 0.028414033 -0.032137115 0.071581714 -0.0032844732 0.06332665
-0.04755262 -0.06751755 0.022152072 -0.05683299 -0.029642636 0.010712082 0.076490544 -0.008569739
-0.009873872 0.023217136 -0.079408266 0.061102543 0.023127565 0.054036602 -0.054384265 -0.083037205
-0.011609376 0.04614713 -0.029939601 0.06829522 -0.07399339 -0.051620122 0.024762608 0.07886977
-0.02370294 -0.028757727 0.06916027 -0.05420915 -0.00686705 -0.06764437 -0.05507865 -0.053211216
-0.032274578 -0.009076874 -0.06815717 -0.060872316 0.020490592 -0.004590504 0.024753645 -0.0059101554
0.06435781 0.015560589 -0.078187615 0.05496495 0.043168675 0.010636206 -0.08314317 -0.0062450287
0.03334398 -0.030028647 0.05008244 -0.059558034 0.014387819 0.042031266 0.009530832 -0.07187536
-0.07324338 0.082387246 -0.034944326 0.041586902 -0.032198027 -0.012371748 -0.012088728 -0.054282565
0.02880652 0.079579644 0.07825194 0.025823442 0.061004315 -0.06054577 -0.09246485 -0.080710456
0.019722631 0.037908275 0.036651433 -0.09467814 -0.03993626 0.071607396 0.07638386 -0.08463899
-0.028543737 -0.03740226 -0.063453816 -0.014925225 0.011820648 0.06567101 0.030293737 0.012975473
-0.036085017 0.063788645 -0.090378046 -0.06560177 -0.016757281 -0.06580611 0.010322078 0.0058700265
00000000: 90b9 95bc 1112 debc 75c4 93bd f7d6 02bc
00000010: 30a8 a1bd 3081 0b3d 0609 77bd 6757 a63c
00000020: 2ed2 20bd 3c33 03bd 8374 74bd d931 303d
00000030: 7ed8 43bd c866 753d 5535 1bbd e3f1 babb
00000040: da11 1e3d 2e0a 58bc 4c98 a23d 7e4d a2ba
00000050: dc62 cdbc 8699 3abd 770f 1dbd c527 99bd
00000060: 12f6 92bd 1b89 ebbc c081 35bc 462a 043d
00000070: 8229 5b3d 8604 043d acdc abbd cae9 fd3b
00000080: bed9 8d3c bede 85bc 175e 64bc ccb9 a23d
00000090: 0fd8 8cbc a59e 29bd 9d8b 483c d4d4 a53d
000000a0: 4376 993d c166 27bd 5b81 8f3c 63de 75bd
000000b0: cd12 a93d 68a0 293d 2ae8 9abd 3ca4 15bc
000000c0: cbc2 04bc b7cb 8b3d 56be 253d da93 0d3a
000000d0: 515d 7a3b 7262 9bbd dbef 5f3b 020c 8b3c
000000e0: 426c b33d 91dd 2abd f22e a23d adce 92bd
000000f0: 9ccd fc3c bab5 293d 112a 843d 0051 a4bd
00000100: 08bf 9e3d 9231 95bb 4703 91bd d9b5 443d
00000110: 34a7 243c 5799 763d b10d 273d 30dd fa3c
00000120: 5fdf 0dbd 547b 8ebd 5046 89bd f802 26bc
00000130: 5f8f 74bd 6b60 a03d 4d25 6d3d a09f 07bc
00000140: 37e1 f33a b235 a73d 4193 ab3b c573 2a3d
00000150: 065d 12bc 3291 11bd 4eb7 573d fa0d 413d
00000160: a582 533d 509c afbd 1ad3 49bc eadf 2dbc
00000170: 9701 92bd 8cf6 afbd 1b88 273c cdcb 353d
00000180: db2c 84bd a620 6bbd 4864 c6bc 2f13 5b3d
00000190: c75a 29bc 6d50 06bd 931f e0bc 1ce5 7ebd
000001a0: 4579 083d 445d a73d 8c77 49bd 0e9c b9bc
000001b0: 3300 103d 6cc0 bc3d cbca 2f3d 9b89 7f3d
000001c0: 3a8f b13d 5534 4d3d ed81 66bd bc21 33bd
000001d0: 1bf7 babb d5f4 9dbd 6b23 5f3d ff67 9fbd
000001e0: ac78 fd3a 582d 66bd ec4d b8bc ed81 a93c
000001f0: 121a 143d e7ff c5bc d1f6 863d 704b 093d
00000200: 28c4 86bd 1914 3ebd 951f f83b 2133 0ebd
00000210: 4f01 723d ae4e ab3d 677a d73c b31a 1cbd
00000220: c94f 9cbd 2c19 873d 6daa a53d 208b 903c
00000230: 0ba3 803d 6991 683d 5290 073d f642 d53a
00000240: 4755 7ebd 4fa8 aabd dcd5 ed3b b707 8d3d
00000250: 3960 953d e8b0 edbc 9ebd c6bc 32fa 31bd
00000260: 32b7 4f3d 7534 8fbd d02a 5c3d 8cc4 e83c
00000270: 35a2 03bd 6f99 923d 5140 57bb 67b1 813d
00000280: 89c6 42bd a446 8abd 4378 b53c b6c9 68bd
00000290: 1dd5 f2bc ba81 2f3c 13a7 9c3d 1768 0cbc
000002a0: 05c6 21bc dd31 be3c cda0 a2bd a946 7a3d
000002b0: 0576 bd3c 7c55 5d3d 09c2 5ebd 690f aabd
000002c0: 4135 3ebc c604 3d3d e543 f5bc 5dde 8b3d
000002d0: d989 97bd 9f6f 53bd f4da ca3c 7986 a13d
000002e0: ab2c c2bc 5395 ebbc e6a3 8d3d 6a0a 5ebd
000002f0: fe04 e1bb 2289 8abd 279a 61bd 01f4 59bd
00000300: 5932 04bd 2bb7 14bc fd95 8bbd 4055 79bd
00000310: e3db a73c f06b 96bb 28c8 ca3c faa9 c1bb
00000320: 07ce 833d d7f1 7e3c d420 a0bd ed22 613d
00000330: a3d1 303d 7b43 2e3c f746 aabd 19a3 ccbb
00000340: b293 083d a3fe f5bc 3f23 4d3d 20f3 73bd
00000350: e3ba 6b3c fa28 2c3d 3527 1c3c 6433 93bd
00000360: a000 96bd a5ba a83d c821 0fbd 0757 2a3d
00000370: 14e2 03bd dfb2 4abc cd0f 46bc 6557 5ebd
00000380: a7fb eb3c a7fa a23d 8e42 a03d af8b d33c
00000390: a9df 793d d7fe 77bd 365e bdbd 864b a5bd
000003a0: 5b91 a13c b545 1b3d d01f 163d 9de6 c1bd
000003b0: 3494 23bd e6a6 923d 246f 9c3d 3557 adbd
000003c0: 8ed4 e9bc 1d33 19bd 13f4 81bd ee88 74bc
000003d0: 64ab 413c 867e 863d 922a f83c 1497 543c
000003e0: e2cd 13bd 9fa3 823d 2018 b9bd 395a 86bd
000003f0: 9146 89bc 5bc5 86bd ef1d 293c 5a59 c03b

i2h.bias f4 [128]
0.059182547 0.018972332 -0.07783297 -0.009933835 0.044603936 -0.06647677 0.020879507 0.045257274
-0.048187517 -0.028356489 0.032669276 0.0016332354 -0.06863803 -0.08740087 0.052070234 0.017625926
0.03165998 -0.03052907 0.046614762 0.09979723 0.067064926 -0.08292341 -0.08461235 0.10026622
-0.0028921359 -0.042384207 -0.04440798 -0.026905611 0.04963846 0.026796661 0.06444858 0.057619385
0.0034066003 -0.033563565 0.018002117 0.075259425 -0.07487967 0.03844326 -0.07575649 -0.012359013
-0.05835828 -0.09769867 -0.040661257 0.04873333 -0.09340114 -0.06488043 0.04905807 0.08498023
0.003374891 -0.0028565382 0.07765647 0.0010895672 0.07335187 -0.03836484 -0.08021206 -0.024453068
-0.03831085 0.0074288906 0.028123545 -0.043630723 -0.0064361747 -0.038935732 0.063293055 0.054136384
0.012695872 0.032887265 -0.070195034 0.07256197 0.055518396 0.046043012 -0.14540565 -0.0668579
-0.03958149 0.017292786 0.02218244 -0.06457079 0.09647426 -0.048539728 -0.025151256 -0.03372979
0.067759916 0.00824401 -0.015290861 0.0035961769 0.06899444 -0.0048116404 -0.09007907 0.07593542
0.01862782 -0.10607822 -0.064832196 -0.044750918 -0.0029535573 0.024527613 0.07803618 0.05872926
-0.010583033 -0.11517059 -0.042857673 0.06178403 -0.08783768 0.03350956 0.027297094 -0.10684244
0.05770756 -0.09107525 0.030689554 -0.076466866 0.013814363 0.054849558 -0.09435191 -0.02450049
0.077949286 0.083985224 -0.101035394 0.042346552 0.03043966 0.013205104 -0.030735096 0.03411335
0.0227989 -0.020121112 0.09929193 -0.018656239 -0.057373535 -0.07317574 0.08351713 0.009234467
00000000: 6669 723d dd6b 9b3c e466 9fbd 86c1 22bc
00000010: 9eb2 363d f924 88bd 800b ab3c b15f 393d
00000020: 4660 45bd de4b e8bc 38d0 053d 4912 d63a
00000030: 1892 8cbd 3aff b2bd 9947 553d 3f64 903c
00000040: e5ad 013d 1a18 fabc 1fef 3e3d 7d62 cc3d
00000050: 5659 893d c0d3 a9bd 3d49 adbd 6058 cd3d
00000060: fd89 3dbb 109b 2dbd 24e5 35bd 2869 dcbc
00000070: b351 4b3d ac84 db3c 9efd 833d 4e02 6c3d
00000080: 4541 5f3b f379 09bd 2d79 933c 9d21 9a3d
00000090: 835a 99bd ae76 1d3d 3826 9bbd 757d 4abc
000000a0: 1809 6fbd 3e16 c8bd 6b8c 26bd 9a9c 473d
000000b0: 1949 bfbd 08e0 84bd 1df1 483d 1d0a ae3d
000000c0: 462d 5d3b c234 3bbb 5b0a 9f3d cfcf 8e3a
000000d0: 8139 963d 7324 1dbd 3846 a4bd cd51 c8bc
000000e0: d6eb 1cbd 0d6e f33b 5963 e63c 21b6 32bd
000000f0: 8ce6 d2bb 137b 1fbd ca9f 813d 1dbe 5d3d
00000100: 5902 503c ccb4 063d 6ac2 8fbd 5f9b 943d
00000110: 4267 633d 9997 3c3d 38e5 14be cbec 88bd
00000120: 3320 22bd 9aa9 8d3c f3b7 b53c b13d 84bd
00000130: 4c94 c53d 98d1 46bd 020a cebc 4028 0abd
00000140: b6c5 8a3d e211 073c 8586 7abc d6ad 6b3b
00000150: f54c 8d3d f7aa 9dbb 607b b8bd 0884 9b3d
00000160: 5f99 983c 8a3f d9bd bec6 84bd bd4c 37bd
00000170: 7890 41bb 22ee c83c 6fd1 9f3d 188e 703d
00000180: 7564 2dbc 8fde ebbd 878b 2fbd 4011 7d3d
00000190: 3ee4 b3bd 5241 093d 289e df3c 36d0 dabd
000001a0: c35e 6c3d a985 babd a968 fb3c a99a 9cbd
000001b0: a355 623c eea9 603d 933b c1bd 40b5 c8bc
000001c0: e0a3 9f3d 7200 ac3d a5eb cebd 9473 2d3d
000001d0: 985c f93c 385a 583c 2bc8 fbbc 71ba 0b3d
000001e0: c2c4 ba3c 08d5 a4bc 9159 cb3d f8d4 98bc
000001f0: 8300 6bbd 2add 95bd 070b ab3d 294c 173c

i2o.weight f4 [5, 131]
0.051856846 0.057200447 0.15295506 0.020029888 0.013894782 0.043642405 0.013052278 0.063930504
0.03397699 0.037503764 -0.078709245 -0.0827409 -0.03701355 0.0665514 0.08020929 0.023298977
0.07005597 0.03028588 0.0035343058 -0.08043066 0.035281736 -0.06983267 -0.017858347 -0.053550467
-0.08932371 -0.033451524 0.05644922 0.031084284 -0.04275232 -0.040450342 0.016407706 0.05783311
-0.028056549 -0.032597125 -0.005954534 -0.081428416 -0.006491136 -0.0217638 0.09799406 0.0033332347
0.06889689 -0.035852112 0.019593451 0.09192549 -0.09033787 -0.06732553 0.056967847 -0.029461043
0.04286886 -0.03614766 0.025228895 0.08742738 0.009269174 -0.017493527 0.02197328 0.057991106
0.049894556 0.019966492 0.007083849 0.07528162 -0.06650406 -0.0005990946 0.07093745 0.07640829
-0.073747516 0.06335012 0.028631339 0.037752192 -0.034171004 -0.050574213 0.098754846 0.07322939
-0.05429592 -0.1009748 -0.0020964972 0.076463394 0.07119528 0.08245471 -0.059662215 0.08606371
-0.0062119593 -0.029715082 -0.04478758 0.068003826 -0.04789561 -0.029132936 0.07824176 0.07168272
-0.0023294133 -0.042315584 0.08064727 0.06290804 -0.09412706 -0.07517253 0.03575712 0.025005657
-0.061802898 -0.010372216 -0.070717014 -0.07294734 -0.082958736 -0.094616376 -0.054011054 -0.05261982
0.04969466 -0.020076651 -0.08473311 0.06287587 -0.059078325 0.07712406 -0.08832853 -0.055502787
0.008557809 -0.05730859 0.03763627 0.049925927 0.06579944 -0.044839386 0.05703757 0.013296148
-0.029264566 0.02680174 -0.027919814 0.002836577 -0.059042376 -0.016720947 -0.03282677 -0.06021589
0.006549161 -0.050010063 -0.0011192894 0.2040982 0.01939233 0.063074835 -0.013063049 0.12371894
-0.02692042 0.008692646 -0.03538835 0.060345337 0.079438925 0.0038175157 0.101037964 0.059026457
-0.08941489 0.02951524 0.055316787 0.033586327 -0.0020330474 -0.0057069464 0.11270033 0.058574114
0.008222628 -0.020163571 0.010859302 -0.005522171 -0.0950808 0.12934488 -0.009617887 -0.06935646
0.07324808 0.008892657 -0.009474621 0.008223587 0.07873158 0.05937101 0.16950706 -0.023213007
0.09185046 -0.114661604 -0.017596528 -0.029193547 -0.06471302 -0.03957571 0.1302469 -0.014003332
0.016042057 0.11995566 0.02207424 -0.11388215 0.044014394 -0.061464828 0.045407396 0.09821626
0.072819926 0.022032186 -0.01451909 -0.040166125 -0.0143038295 0.0055252197 0.013856636 -0.081020616
0.042651493 0.006543412 -0.020724116 0.060709726 0.05278974 0.08464706 0.04417416 -0.16776253
0.039023813 0.12936208 0.09656085 -0.044397123 -0.034204613 -0.08229604 0.0666388 -0.10303123
-0.035304666 -0.05894749 -0.009657191 -0.008373669 0.075187005 0.09383904 0.03845288 -0.056541957
-0.124052785 0.044711284 -0.023728786 0.08089268 0.09988748 0.03266915 -0.09172765 0.09441839
0.15735191 -0.021841481 0.091090366 0.122129545 0.09959561 -0.10550281 -0.021938365 -0.12635879
0.07433151 0.13741872 0.12963709 -0.11381008 0.12910524 -0.061779466 -0.06293768 -0.00621032
-0.10159933 0.024456749 0.02139091 -0.07599353 0.08459102 0.102835745 -0.04644329 0.018456738
-0.0459986 -0.010310477 -0.07016578 0.007840082 -0.13252904 -0.045086462 -0.0017566384 -0.070359804
00000000: d867 543d 044b 6a3d 40a0 1c3e b815 a43c
00000010: f1a6 633c 61c2 323d 39d9 553c ffed 823d
00000020: 752b 0b3d 8c9d 193d 5032 a1bd 1074 a9bd
00000030: 859b 17bd 1a4c 883d c544 a43d 7fdd be3c
00000040: 8179 8f3d 181a f83c d09f 673b d4b8 a4bd
00000050: 9583 103d 6e04 8fbd ab4b 92bc bc57 5bbd
00000060: 59ef b6bd 7704 09bd 4c37 673d 78a4 fe3c
00000070: 0f1d 2fbd 42af 25bd 7469 863c 69e2 6c3d
00000080: d9d6 e5bc 9084 05bd 401e c3bb f1c3 a6bd
00000090: 98b3 d4bb ff49 b2bc 1cb1 c83d 6672 5a3b
000000a0: d019 8d3d aad9 12bd 7282 a03c 6e43 bc3d
000000b0: 1003 b9bd f8e1 89bd 1e57 693d 4958 f1bc
000000c0: 4297 2f3d 920f 14bd d4ac ce3c 200d b33d
000000d0: bcdd 173c 964e 8fbc 4f01 b43c 1588 6d3d
000000e0: 3c5e 4c3d c590 a33c a21f e83b 402d 9a3d
000000f0: 4833 88bd 8f0c 1dba a747 913d f37b 9c3d
00000100: f008 97bd b5bd 813d 458c ea3c 0ba2 1a3d
00000110: e5f6 0bbd e826 4fbd fb3f ca3d 4af9 953d
00000120: 6665 5ebd e0cb cebd 6365 09bb d798 9c3d
00000130: d5ce 913d 04de a83d 5e60 74bd 2c42 b03d
00000140: b18d cbbb 0b6d f3bc 2e73 37bd 9745 8b3d
00000150: 302e 44bd 32a8 eebc 373d a03d 64ce 923d
00000160: 12a9 18bb 1b53 2dbd 652a a53d eed5 803d
00000170: b0c5 c0bd 0ef4 99bd 0f76 123d aad8 cc3c
00000180: 0925 7dbd 3af0 29bc 15d4 90bd 6a65 95bd
00000190: 45e6 a9bd 3bc6 c1bd b23a 5dbd e187 57bd
000001a0: a18c 4b3d ca77 a4bc 8e88 adbd 10c5 803d
000001b0: 1dfc 71bd 38f3 9d3d 97e5 b4bd e456 63bd
000001c0: 0d36 0c3c 69bc 6abd 7d28 1a3d 217f 4c3d
000001d0: dbc1 863d 81a9 37bd 3aa0 693d 16d8 593c
000001e0: 3ebc efbc 538f db3c 18b8 e4bc dde5 393b
000001f0: 6bd6 71bd 5efa 88bc 5d75 06bd f0a4 76bd
00000200: 589a d63b 5ad7 4cbd 1fb5 92ba 1eff 503e
00000210: aadc 9e3c 612d 813d 6606 56bc 5b60 fd3d
00000220: 3688 dcbc 9a6b 0e3c 60f3 10bd ac2c 773d
00000230: e0b0 a23d 492f 7a3b feec ce3d bac5 713d
00000240: 271f b7bd f2c9 f13c db93 623d d191 093d
00000250: e03c 05bb 5601 bbbb 6ecf e63d 69eb 6f3d
00000260: 34b8 063c 132e a5bc 37eb 313c 54f3 b4bb
00000270: b9b9 c2bd fc72 043e 5894 1dbc c20a 8ebd
00000280: 1703 963d 82b2 113c 713b 1bbc 39bc 063c
00000290: 063e a13d 042f 733d 4293 2d3e 3429 bebc
000002a0: 181c bc3d b4d3 eabd 9826 90bc 4e27 efbc
000002b0: 4388 84bd 241a 22bd 715f 053e 3b6e 65bc
000002c0: a26a 833c 50ab f53d 09d5 b43c 0b3b e9bd
000002d0: 7048 343d 8bc2 7bbd 1bfd 393d 9b25 c93d
000002e0: 9d22 953d d87c b43c 7ae1 6dbc 3c85 24bd
000002f0: 9c5a 6abc e70c b53b f206 633c 23ee a5bd
00000300: 55b3 2e3d 1e6a d63b 9fc5 a9bc c3aa 783d
00000310: 0e3a 583d 705b ad3d f7ef 343d f1c9 2bbe
00000320: 6fd7 1f3d 7e77 043e b2c1 c53d c2d9 35bd
00000330: 231a 0cbd d48a a8bd ec79 883d 0a02 d3bd
00000340: a09b 10bd ec72 71bd 3239 1ebc b731 09bc
00000350: a5fb 993d af2e c03d c480 1d3d 8a98 67bd
00000360: 630f febd 2e23 373d df62 c2bc 10ab a53d
00000370: cf91 cc3d 16d0 053d b5db bbbd 6e5e c13d
00000380: dc20 213e e8ec b2bc 968d ba3d 0e1f fa3d
00000390: c8f8 cb3d db11 d8bd 16b8 b3bc 3364 01be
000003a0: 1e3b 983d 7eb7 0c3e 96bf 043e 4215 e9bd
000003b0: 2a34 043e 770c 7dbd 78e5 80bd f17f cbbb
000003c0: 4f13 d0bd 8559 c83c fd3b af3c 7fa2 9bbd
000003d0: 0f3e ad3d 8c9b d23d 523b 3ebd 9632 973c
000003e0: 0769 3cbd 46ed 28bc 14b3 8fbd b073 003c
000003f0: b1b5 07be 95ac 38bd 013f e6ba cd18 90bd

i2o.bias f4 [5]
0.0914287 0.03070456 0.0680516 -0.062129818 -0.15836136
00000000: f83e bb3d 2188 fb3c a35e 8b3d d67b 7ebd
00000010: 7b29 22be
