main_lstm.pth (torch, 276730 bytes, 6 tensors)

lstm.weight_ih_l0 f4 [512, 3]
00000000: 81fc 8c3d faeb 9ebd 9de6 77bd 9747 f6bc
00000010: 2e2c 523d 4888 9f3d 42a9 4cbd 9cbf 5dbd
00000020: d3b9 15bd 5d0b 57bd 4f6e 2d3c 82d4 e9bd
00000030: ea82 fd3c b95d b53c f1f2 1bbe 281a 053d
00000040: 8773 8abd 6139 1cbe c812 1bbd a871 80bd
00000050: 3c80 513c c914 af3c 4458 b03d 6587 123c
00000060: 760c 443c 42d3 8e3b 37f4 63bd e7e7 e7ba
00000070: 2384 0f3d b4ed a0bd f42e 3b3d 9763 c2ba
00000080: 9262 92bd 62c4 82bd 676a 9fbd ea06 70bd
00000090: 0379 3c3d c724 923c 2706 8bbd 10e7 b13c
000000a0: 6cf3 a2bd e549 163c 94ea d13c ae77 45bd
000000b0: e018 d1bc 66c0 d23c 318d 5abd d125 63be
000000c0: 3563 cdbd e046 433d 3fdd a6bd 8165 0dbc
000000d0: f732 42bd a829 0a3c d8b4 a53c 0aaa 973d
000000e0: 1be6 8b3d 3f6e f1bb 2e22 503c 6953 013d
000000f0: d051 bc3d 8428 16bc a19a 703c cb11 18ba
00000100: 61fe 883c ba44 f5bc 5953 73bd db49 85bd
00000110: dc78 d7bd c667 08bc bb34 b33d 6910 7cbd
00000120: 57f7 033e 53f3 463d d176 f0bd 13cc 583d
00000130: c57b b8bc f77d a3bd 391d 27bc 9bff 92bd
00000140: 57a2 80bd a3e3 f23d acc8 4a3d ad74 083d
00000150: ffc2 87bc 363f 81bc a757 fabb c413 4c3d
00000160: ab07 c13d 851b 0bbd 1a12 06bd 5bff 3dbc
00000170: 0203 703d d043 8d3d c76a 81bc 6d52 78bd
00000180: 74a5 65bc 6dd9 213d 86d7 c63d ebe6 bbbd
00000190: c406 aabb 2087 6cbd 8dce b93b d3f3 9bbd
000001a0: 89e8 66bd 278c d5bb 5d9a acbd d8cf 6ebc
000001b0: 1ba1 303c 549b cf3d b219 d1bd 8bc3 3bbd
000001c0: 98a9 d1bd 33cb 49bd 0742 9abc 4752 a53d
000001d0: b22d 2abb 335e 8a3d af00 54bd bf6c e1bc
000001e0: e980 33bd 2247 1a3d f4a1 94bd 8c21 b13d
000001f0: ebbe 803d f01f 1ebd e284 063d a157 513d
00000200: 5a2f 49bd ae6c f53c 64cc 2d3d 3435 27be
00000210: 50b7 f13d 96b2 54bd e003 25be be72 3abd
00000220: 8923 d3bd f4ee e6bd ea7d 813c 4113 c6bd
00000230: 01e3 1fbc 1a10 21bd 3380 8b3d 29dc f4bd
00000240: 46cd 593d b905 68bd d609 2ebd 4953 4abd
00000250: 1ef1 9a3d 722a 12bd e6ed b23d c742 91bd
00000260: bc68 253d 9389 1f3d d736 0ebe 4942 06bd
00000270: 03b4 6dbc 9310 db3c 3ada a7bd 581c 683c
00000280: 3472 663d ab08 4abc e293 a23c 215e ca3d
00000290: 7b88 31bd c609 4dbd b3df 373d 20ea a0bd
000002a0: cb1f 0d3d 998a 303d 79fd 5fbd 3155 b33d
000002b0: 1089 95bc d8c0 6d3d ec90 d13c 1d13 413d
000002c0: f461 6ebb b8cf d5bb 88af 69bd c8f1 b5bd
000002d0: cda2 37bd e427 dcbd 0a75 9fbd 37e8 c13d
000002e0: 459b e8bd 2cf2 5c3c c2b2 683b cb6b 0a3d
000002f0: ef02 03bd 03bf cb3d 97b3 9f3a 6db3 bbbd
00000300: 43e4 863c a7bc c03d 9e39 d2bd a04b 67bd
00000310: 5fad bebd 8c14 87bd ec84 8b3d c45c c43c
00000320: 406b 3bbd b0bd 393d 847b 37bc cadc fdbc
00000330: 1758 2b3d 5ff3 d3bb a478 2a3d 1e7b 363d
00000340: e997 393d 4d17 67bd bf51 b43b 7cd2 4abd
00000350: 7f44 bfbd e7d6 aa3d b66a b5bd 9d47 d5bc
00000360: 46f3 4cbc 4351 3bba 1be5 1abd 6c09 f63c
00000370: 0d9d acbd a888 953d b60f e13c 98d9 f63c
00000380: d68c 813d 1d4b 87bd 4ec8 d8bd fb78 f2bd
00000390: f021 d0bb 6db5 babd 255a 213d 297d 8bbd
000003a0: f34b 28bd a433 163d e2b7 acbd 24ee 05bd
000003b0: a1a6 12bc a083 643d 1c5f 80bd d3f7 723d
000003c0: 5b0d 2dbd 21dd 93bd 3f87 523d 8b9a 103e
000003d0: 7c8a 0abd 0048 a13b 81ab 943d 553a a33d
000003e0: 3b09 cbbc cc89 acbd d22f 0f3d fea1 c3bd
000003f0: abe8 063c 54fb 2dbd 6250 aabc 40fe d7bc
0.06884099 -0.07759853 -0.060522664 -0.030063434 0.051311664 0.077896655 -0.049966104 -0.05413781
-0.03655417 -0.05250107 0.010585382 -0.11417486 0.030946214 0.022139417 -0.15229394 0.032495648
-0.06760316 -0.15256263 -0.037859708 -0.06271678 0.012786921 0.021372216 0.08610585 0.008943413
0.011965862 0.00435868 -0.055652823 -0.0017693014 0.035038125 -0.07857838 0.045699075 -0.0014830705
-0.07147707 -0.06385113 -0.077839665 -0.058600344 0.046013843 0.017839802 -0.06788283 0.021716624
-0.07956585 0.009172891 0.02562455 -0.04820984 -0.025524557 0.025726508 -0.053357307 -0.22182395
-0.10028688 0.047675014 -0.08147668 -0.008630157 -0.047411885 0.008432783 0.020227835 0.07405479
0.068309985 -0.0073678787 0.012703462 0.031573687 0.09195292 -0.009164933 0.014685304 -0.0005800991
0.01672286 -0.029939998 -0.05940566 -0.065082274 -0.10521099 -0.008325523 0.08750292 -0.061539087
0.12887321 0.048571896 -0.117414124 0.052928995 -0.022519955 -0.0798301 -0.010199838 -0.07177659
-0.06280964 0.118598245 0.049507782 0.033314396 -0.016572474 -0.015777212 -0.0076398435 0.049823537
0.09425291 -0.03396179 -0.032732107 -0.011596526 0.05859662 0.068977 -0.015797986 -0.060625482
-0.014016498 0.039513994 0.097090766 -0.091749035 -0.005188795 -0.057746053 0.0056703747 -0.07614865
-0.056374107 -0.0065169516 -0.0842788 -0.014575921 0.010780598 0.10137048 -0.10209979 -0.04584078
-0.102374256 -0.04926605 -0.018830312 0.08072334 -0.0025967178 0.06756248 -0.051758464 -0.027517674
-0.04382411 0.037665494 -0.072574526 0.08648977 0.06286415 -0.038604677 0.03284157 0.05110896
-0.049117424 0.02995905 0.04243125 -0.16328889 0.11802542 -0.051928125 -0.1611476 -0.045519583
-0.10309512 -0.112760454 0.01580711 -0.09671641 -0.009758712 -0.039321996 0.068115614 -0.11956055
0.05317428 -0.056646083 -0.04248985 -0.049395833 0.07565521 -0.03568501 0.08736782 -0.07092815
0.040383086 0.03894956 -0.13888107 -0.03277806 -0.01450825 0.026741302 -0.0819592 0.014166914
0.056261256 -0.012331168 0.019845907 0.09881235 -0.04334305 -0.05005815 0.04489107 -0.07857156
0.03445415 0.043100927 -0.05468509 0.08756483 -0.018253833 0.05804524 0.0255818 0.04713737
-0.0036374303 -0.006525006 -0.057052165 -0.08884007 -0.044832993 -0.10749796 -0.07785995 0.094681196
-0.1135774 0.013485473 0.0035506939 0.033794206 -0.03198522 0.09948542 0.0012184259 -0.09165082
0.016466266 0.094109826 -0.10264896 -0.056468606 -0.09310412 -0.06595716 0.06812462 0.023970015
-0.04575658 0.045346916 -0.011198882 -0.03098907 0.041832056 -0.006468221 0.041618958 0.044551007
0.04531089 -0.056418706 0.005502909 -0.04951714 -0.093392365 0.083417706 -0.08858244 -0.026035124
-0.012509173 -0.0007145593 -0.03781615 0.03003379 -0.084283926 0.07301456 0.027473312 0.030133054
0.063256904 -0.066061236 -0.1058508 -0.118394814 -0.006351702 -0.091166355 0.03939261 -0.06810982
-0.041088056 0.036670342 -0.0843351 -0.03269781 -0.00895086 0.05578959 -0.06268141 0.059318375
-0.042249065 -0.07219911 0.051398512 0.14121453 -0.033823475 0.004921913 0.07259274 0.0797011
-0.024784675 -0.0842472 0.034957714 -0.09552382 0.008234183 -0.042476013 -0.020790283 -0.026366353

lstm.weight_hh_l0 f4 [512, 128]
00000000: 5292 a3bc 7597 5dbd 0347 0d3d 06a0 8c3d
00000010: c951 b4bd 9696 c8bc 35ae a33d 8527 b23d
00000020: 7b0f b2bd c015 8f3d b7b9 4bbd 07fc 2e3c
00000030: 2520 25bd 2743 53bd 47e8 4abd 2e41 fbbc
00000040: 21c9 a1bd bcc0 f8bb 8712 87bc 67de 96bd
00000050: ab6f a1bd cc31 633d 4392 91bc e0de fdbc
00000060: cd0e 18bd ba25 22bd 1eaf b0bd fab7 2f3c
00000070: dc16 103d 5dfd 8e3c 4236 e8bc 2aec 52bd
00000080: d8d4 08b9 9236 a23d b2a1 8f3d 278e ae3d
00000090: f5d4 aabd 4c1a 513d 8cc3 2f3d 4d71 cbbc
000000a0: 7311 09bd 09e3 a43d 3515 a3bc a4aa 80bd
000000b0: c4a2 b0bd 65fb d7bb 9a95 c53b 251f f6bc
000000c0: 8068 2d3d 3304 7abc 80ce 983d 0f90 513c
000000d0: bf49 213c 003e 393d 9ced 243d 610f 16bd
000000e0: ca19 5fbd c95a a33d 5452 aebc 0538 2c3d
000000f0: b0ff 7b3d 172f 853d 4eb5 47bd e464 9d3d
00000100: 8a58 00bd 1df5 963d 8cd9 6cbc 0b18 a73d
00000110: b74d 90bd 1bc3 8b3d 2490 28bd 43ec 083d
00000120: 777f 293d ce1a a03d 680e 90bd 64fa 36bc
00000130: 44cb 6abd a3b5 a6bc 102f 57bd 0534 9b3d
00000140: ba14 88bc da05 c3bd 3bca efbc a722 79bb
00000150: 0825 853d ee4b b0b9 2b6f 42bc fa53 e83b
00000160: 5e59 553d 1f75 84bc 7f3d 473c 096d bc3c
00000170: abc7 0ebd e97d a73d 830f b0bc 8b27 663d
00000180: d48e 153d 9677 3c3d 0e5b 35bd 98ef f9bc
00000190: 8b73 aabb 3245 923d daf8 323c b0df 493d
000001a0: 160f 993d 42b3 7fbd 0390 953d e8ba b93d
000001b0: ad97 c83c 82de 43bd 8bab 42ba 2608 cbbc
000001c0: 436d 443d ec06 2c3d 5ac8 7dbd 64a5 9a3d
000001d0: df21 ba3c 2987 2abd c82e 0f3d 9bfd 6e3d
000001e0: fce1 a3bc 710e 81bd fb32 81bd 5682 723c
000001f0: fb2a 583d 9698 4dbd 802c 483d 9fc7 b1bd
00000200: 6116 5cbd c646 be3c 811c 863b a9a3 50bd
00000210: 1db0 193d 9f2e b5bd bd92 99bd c0ba 82bc
00000220: dee0 643d 2a61 babc c2c9 823d 693c 8e3c
00000230: f21d 8f3d f649 a13d 83b3 77bc 6c87 ebbd
00000240: 2c4b 7abc d6fc aabc 56b8 9abd 446a 8fbd
00000250: 7a96 f1bc 9ac7 3abd 59ee c83a 478b 4c3d
00000260: 96b7 88bc b614 813c ad34 a6bb 2eaa 28bd
00000270: 19e5 f73c ab3a 25bd 6d4d c3bc ebd8 673d
00000280: affc 7fbd a975 973d ade6 c43d 14f8 6fbd
00000290: 188c abbc 2850 f03c 56f1 56bd 4d40 993d
000002a0: 9217 3c3d 4784 e7bb eeb6 af3c 00b8 013d
000002b0: eaf9 13bd a62f e1bc 9dcd 693d cf8a edbc
000002c0: ed33 b6bb 3f5b 3d3d c12d acbc 2486 8a3d
000002d0: 6f4b 993d 16f1 323d 7263 61bd 132c 9ebd
000002e0: 4daa 48bd 06bd 70bd 4233 e5bb 10f6 323c
000002f0: 1f34 b33d 7520 a7bc a134 a53c 0192 9fbd
00000300: 58c4 8ebd a9ed 023d fe45 2c3d f784 ab3d
00000310: e3fe a03d 221e b33d 2bbd 333c fdd9 ee3c
00000320: 2f98 983d 0d22 70bd c672 803d 1d5c 13bd
00000330: f6b8 32bb 4e34 16bb 8f78 dc3b 6b33 123d
00000340: 2d9f a83b 6b94 00bd 85b6 a43c d2c0 9a3c
00000350: 8800 8fbc 5c0b b5bc 1646 9c3d 2e80 0b3c
00000360: 2783 8dbc d77d bdbd 55ae afbc ae24 663b
00000370: bf39 e63c 3a9a 5cbd 7c75 9fbd b13e 90bd
00000380: d922 963d 5186 5c3d a415 063d f6ad 77bd
00000390: 4bb3 24bd 1a32 403d a619 6c3d faa5 913c
000003a0: 0f2b 543c 4c02 b93b ac83 15bd 1516 23bc
000003b0: 09e6 733d a446 0fbd 42c3 993d 2314 183c
000003c0: 3e2b b7bc 7485 4abd 0a14 153a e320 ac3d
000003d0: f50b b43d d258 a03d 85b4 5abd 5842 57bd
000003e0: 5106 893d 80e7 f83c 1bc8 d2bc 3ed3 8bbd
000003f0: 6d77 9ebd 1b27 153c 41e5 963d 15ce 78bc
-0.019967232 -0.05409952 0.03449155 0.068664595 -0.08804662 -0.024485867 0.07992212 0.08698944
-0.08694359 0.0698657 -0.04973766 0.010680205 -0.04031386 -0.051577713 -0.049537923 -0.030670729
-0.078996904 -0.007591335 -0.016488327 -0.07366639 -0.07882627 0.055467412 -0.017769938 -0.030990064
-0.03712349 -0.03958676 -0.08627151 0.010725016 0.03517805 0.017454797 -0.028346185 -0.051494755
-0.00013049261 0.07920565 0.07013263 0.08523207 -0.083413996 0.05105047 0.042911097 -0.0248343
-0.033463906 0.08051116 -0.019907573 -0.06282547 -0.08624795 -0.006591248 0.006029797 -0.030044148
0.042335987 -0.01525979 0.07461262 0.012790694 0.009844243 0.045225143 0.040265664 -0.03663576
-0.054467954 0.079763 -0.021279491 0.042045612 0.06152314 0.06503122 -0.04875689 0.07685259
-0.031334437 0.073709704 -0.014456164 0.08158883 -0.07046073 0.06824323 -0.04115309 0.03342844
0.041381326 0.078176126 -0.07033998 -0.011168096 -0.057322755 -0.020350283 -0.052535117 0.07578281
-0.016611446 -0.095226005 -0.029271236 -0.003801504 0.06501204 -0.00033625908 -0.011867325 0.007090089
0.05208718 -0.016169129 0.012160658 0.02300121 -0.034858387 0.08178312 -0.021491772 0.056190055
0.036513165 0.046012484 -0.04427629 -0.030509755 -0.005201762 0.07142104 0.010923589 0.04928559
0.074735805 -0.062426813 0.07302859 0.09068853 0.024486387 -0.04781962 -0.00074260746 -0.024784159
0.047955763 0.04199879 -0.06195865 0.07551077 0.02272123 -0.041632805 0.034956723 0.058347326
-0.020005219 -0.063015826 -0.06308552 0.014801582 0.052775364 -0.050194345 0.048870564 -0.08680653
-0.05373228 0.023227107 0.0040927534 -0.05093733 0.03752147 -0.08846783 -0.07498691 -0.01595819
0.055878513 -0.02275141 0.063861385 0.01736279 0.069881335 0.07875435 -0.0151184825 -0.11500439
-0.015276711 -0.020872515 -0.075546905 -0.070026904 -0.029490698 -0.04560051 0.0015329822 0.049937513
-0.016689103 0.015756946 -0.0050721974 -0.04117792 0.03026061 -0.040339153 -0.02384063 0.056603353
-0.062496837 0.07395489 0.096143104 -0.058586195 -0.020940825 0.029335096 -0.05247625 0.074829675
0.045920916 -0.0070653292 0.021449532 0.031669617 -0.03612701 -0.02748854 0.057080854 -0.028996853
-0.0055603893 0.046229597 -0.02101791 0.067638665 0.07485091 0.04368695 -0.05502648 -0.0772325
-0.048990536 -0.058774017 -0.006994636 0.010922924 0.08750176 -0.020401219 0.020166697 -0.0779152
-0.06971043 0.03196493 0.042058937 0.083749704 0.07861116 0.08745982 0.010970394 0.02915668
0.07450902 -0.058626223 0.06271891 -0.035976518 -0.002727089 -0.002291936 0.006728239 0.035693567
0.0051459284 -0.031391542 0.020106563 0.018890772 -0.017456308 -0.022100143 0.07630555 0.008514447
-0.017274452 -0.09252518 -0.021445433 0.0035117078 0.028103707 -0.05385802 -0.0778608 -0.070432074
0.073308654 0.05383903 0.03273548 -0.060468636 -0.04021005 0.04692278 0.057641648 0.01777934
0.012949719 0.0056460258 -0.036502525 -0.009953995 0.05954555 -0.034979478 0.075079456 0.009282145
-0.022359487 -0.049443677 0.0005686885 0.0840471 0.08791343 0.07829441 -0.053394813 -0.052553505
0.06690658 0.030383825 -0.025730183 -0.068274006 -0.077376224 0.009103562 0.073679455 -0.015185853

lstm.bias_ih_l0 f4 [512]
00000000: 8a8c 253d aa8f b53d f06a 253e 161b 113d
00000010: d89c 393b 817d d03d 4809 cb3d 3eee 6fbb
00000020: 0997 093d 4de0 1a3d 71fe f53d e437 903c
00000030: 4df7 813c fc3e af3c d07a 9b3d 3840 143d
00000040: 3d92 193d c4cc 803d b534 363d 727f 0f3a
00000050: c8ac 26bc 2c23 8fbd a688 fdbc 2515 a33d
00000060: 6256 283e dcb8 973c 0828 6dbc d7fe 343c
00000070: 7e88 e23c f770 513d a5c5 b93c 6a0b edbc
00000080: b763 7c3d e1c7 7e3d 8859 363e 9c69 01bd
00000090: 3b2b fbbc b6f1 55bb fcca c93b 6189 833d
000000a0: e7c4 f93c 2487 e1bc 83a4 843d 8c47 003e
000000b0: 405b e53d 2510 40bd fdfe 0b3d 8746 913c
000000c0: 21fc a9bd 1d69 e73d 75c9 c0bb fad5 cbbc
000000d0: 7ceb 24bd 14bd e53d fda9 783d 8070 29bc
000000e0: 8a6b c83d 1c10 b23d 0321 f73d 039f 5cbd
000000f0: 50b8 e93d 73d7 1e3e 5e8a 14bd 59f2 003e
00000100: b293 063e 5af3 fdbc 14b5 8f3d 5728 8b3d
00000110: aed2 a8bd 828d c9bb 37f9 00bd 9fe3 2a3d
00000120: 8c24 aa3d 46d2 0b3d 7940 74bc a9e2 093e
00000130: d9ec 0e3d 4e0f 103d c47e 2a3d 5621 063d
00000140: 38a7 9b3c 523e f63c 1e8c 2fbd 3479 543d
00000150: 151b 6dbd e3bb 45bd 6c58 27bd 0fb3 8c3c
00000160: 1052 a23d 0d2a fc3c 9449 cf3d 5e1b f63d
00000170: 30f4 473d 6b66 39bd d920 583e cb23 103e
00000180: 7a53 74bd 35bc 00bb cf3e b73d 1dfa 9cbd
00000190: db4c 9a3d 36e5 30bd 6ce4 bb3d 173b 73bb
000001a0: 8973 acbd ed1b 35bb 1a7d fc3d 6a18 e3bc
000001b0: 88f7 80bd 00b8 70bc 836d d1bc fac1 653c
000001c0: 9f3a 28bc cacc 3ebd 4acc 333e b838 c13c
000001d0: 1fbe e03d 301c d53d 2767 173e e1c1 b53d
000001e0: 5507 443d 6714 103e 81b9 0cbd 3ef0 b53d
000001f0: 3dd0 083b 81d7 09bc 072a d93d b6a0 87bc
00000200: dda4 2cbc 1f45 26bd 4aab fd3d 6da2 503d
00000210: 3888 553d bb64 f83d 8b1e ebbb da00 003c
00000220: 7516 1c3d d952 1d3e 902a 06bc 2f79 ea3d
00000230: 8cd4 1fbc fc63 5abd bc3f 393e 3148 a43d
00000240: 892b 1c3e fd0d 133d 7e7b d73d 4388 9cba
00000250: 41d9 81bd 6a3c 6b3e 94b4 083e 7ad8 ce3d
00000260: 60d3 713e ca7c 7abd 7ba0 163d a6a9 1c3d
00000270: 4057 d73d 5ef1 44bd 2fe0 cb3d 616c d73b
00000280: dfa3 c83d 0af7 b03e 27f4 043e abd4 29bc
00000290: 751b f23d 9d04 7a3d b39f 11bd f5e0 4f3d
000002a0: 0b01 863d c257 99bc c3b7 083e 70a1 8ebb
000002b0: 41cd 263e 3c9c 833c 281a 543d a1b7 36ba
000002c0: 18ae 8dbd bf42 9c3d 5a60 a03d db30 243e
000002d0: 7474 8c3c b093 0b3e cde7 f13d 8f24 94bd
000002e0: 98cc 263e 532d 7e3d 9ce0 4a3e 6391 363e
000002f0: d76a 543b c210 da3c 496d 7c3d 4bd4 5e3e
00000300: 1c3d e93d e413 693d adfa d43d 3ad5 5b3e
00000310: 8dd0 f5bb 09d4 c23d 50ea df3d 3352 0a3e
00000320: ad7a 933d e838 9a3d 6440 b93d a359 653d
00000330: 9da4 893d b838 a83d 889f 103d 3ed7 283e
00000340: d59a acbc 339b e73d ef56 92bd f44c ec3d
00000350: 8276 b43d 5897 873d 8d25 6c3d cc7a 013e
00000360: 3ca0 323e c4e8 833d 6c62 053e cac1 a33d
00000370: 9b20 d93d 44f2 d43d 3899 593e e389 ebbb
00000380: 8a9d 3dbd 4b6e ba3e 43a4 163e 22f3 c93d
00000390: 25c1 e43c 2bbf cfbc db99 ab3d 26d6 833d
000003a0: 1067 0c3d 6708 033c 0ae6 1e3e 549b bc3b
000003b0: 54ab 323d dc71 c83d 855d 603d 63b0 fb3b
000003c0: fef3 67bc 7d0c d03d 159e cb3d 758b b53d
000003d0: 438d c03d 4055 f83d aded d33d 6300 ce3d
000003e0: b324 333e 1123 af3d fc76 913c f188 903d
000003f0: 3db5 37bd 8439 2b3c 9d0f 7e3d d2f2 d43d
0.04041723 0.08865292 0.16154075 0.03542622 0.0028322246 0.10180188 0.0991388 -0.003661051
0.033591304 0.037811566 0.120114215 0.017604776 0.015864993 0.021392338 0.07591784 0.036194056
0.03749298 0.06289056 0.04448386 0.0005474008 -0.01017303 -0.069891304 -0.030948948 0.079630174
0.16439202 0.018520765 -0.014474876 0.011047087 0.027652975 0.051133122 0.022677252 -0.028936107
0.061618533 0.062202338 0.17807591 -0.031594858 -0.030660262 -0.0032645292 0.006158231 0.06422687
0.030489398 -0.02753026 0.064766906 0.12527293 0.11199045 -0.046890397 0.034178723 0.017733825
-0.08300043 0.11299346 -0.0058833905 -0.024882305 -0.040263638 0.112177044 0.06070899 -0.0103417635
0.097861364 0.08694479 0.12066843 -0.053862583 0.11412108 0.15511875 -0.03626477 0.12592448
0.13142279 -0.030999828 0.0701696 0.067948036 -0.08243309 -0.0061509022 -0.03148767 0.041720983
0.08307752 0.03413608 -0.01490795 0.1346537 0.034893844 0.035170846 0.0416248 0.032746635
0.019000635 0.030059014 -0.042858236 0.0518734 -0.057887156 -0.048274886 -0.04085581 0.017175226
0.079258084 0.03078177 0.10121456 0.120169386 0.04881686 -0.04526369 0.2110628 0.14076154
-0.059649922 -0.001964343 0.08947527 -0.07664893 0.0753419 -0.043187343 0.091744274 -0.0037114078
-0.08420474 -0.0027635053 0.12328549 -0.027721602 -0.06297213 -0.0146923065 -0.025564915 0.014023298
-0.010267883 -0.04658202 0.17558399 0.023586616 0.10973763 0.10405767 0.14785443 0.0887487
0.047858555 0.14070283 -0.034356598 0.08883713 0.0020876073 -0.008413197 0.10603719 -0.016556125
-0.010537353 -0.040593263 0.123861864 0.05093615 0.05213186 0.12128588 -0.007175272 0.007812703
0.038107354 0.15363635 -0.008188859 0.11448895 -0.009755265 -0.05331801 0.18090719 0.08021582
0.15250982 0.035902012 0.10521601 -0.0011942465 -0.06340266 0.22972265 0.13350135 0.100998834
0.2361579 -0.061154164 0.03677414 0.038247727 0.105146885 -0.04808175 0.09954869 0.006574199
0.09796881 0.34563476 0.12983762 -0.010365645 0.11821643 0.061039556 -0.03555269 0.050751645
0.06543168 -0.018718604 0.1335135 -0.004352741 0.16289236 0.01606571 0.051782757 -0.0006970112
-0.069179714 0.07629918 0.078308776 0.16034262 0.017145373 0.13630557 0.118117906 -0.072335355
0.16288984 0.062054943 0.19812244 0.17828898 0.0032412314 0.026619319 0.06162766 0.21760671
0.11388609 0.056903735 0.10399375 0.21468058 -0.007501668 0.09513099 0.109333634 0.13507919
0.07201133 0.07530385 0.09045485 0.055993687 0.067208506 0.08213943 0.03530839 0.16488358
-0.021069923 0.11308899 -0.071454875 0.11538115 0.08811666 0.066206634 0.057653 0.126445
0.17443937 0.06440881 0.13025826 0.07995947 0.10601922 0.10397771 0.21249855 -0.0071880682
-0.04629282 0.36412272 0.14711098 0.09860827 0.02792413 -0.02535971 0.08378955 0.0643733
0.034277976 0.007997609 0.1551744 0.0057558212 0.043620422 0.09787342 0.054776687 0.007680939
-0.014157293 0.10158632 0.09942261 0.0886449 0.094019435 0.12125635 0.103480674 0.100586675
0.17494468 0.0855161 0.017756931 0.070573695 -0.044850577 0.0104507245 0.06202661 0.10397877

lstm.bias_hh_l0 f4 [512]
00000000: 3b86 a7bc 2667 6e3d fa61 383e 208c 35bd
00000010: 7f80 003e 7673 4a3d 8465 e23d 2920 553d
00000020: 2b81 ce3c 8974 533d 087d 2fbd 860c 833d
00000030: f629 073e 8b1f b83d 7ee1 823d 8a38 fabc
00000040: 7349 043e c145 943c e5ed 8d3d 587a a6bc
00000050: b0d7 0ebc 847b af3d 8d63 b03d 9d6f 6e3d
00000060: 28ec 6e3e 6c9a ab3c 99b0 38bd 098d 663c
00000070: 708a 3a3d ab1e 963d c51a 0a3c 3d62 833d
00000080: 7fce 16bd 0c5c 0d3d e220 523e 15e1 8ebc
00000090: d4bc 11bd d5c6 793d aaf2 b8bc 8c0a cc3d
000000a0: 9216 063e 6f6c dd3c 09cd 7e3d dc2e 0e3d
000000b0: edc2 873d e77b b83d 94a5 983d 278e abba
000000c0: 4212 98bd 3cde 86bc 2f40 6e3d b60c 7e3d
000000d0: 2aba 793d 1dc6 1e39 2b1f 303e e4d3 eb3c
000000e0: b621 5a3d 797f 593d 0112 053e cc7e d5bc
000000f0: 71c2 7f3c a76c a93d 4c32 f33c 875f 043e
00000100: 7510 083e d065 5bbd a4e9 94bc 744a 453e
00000110: 13b3 dfbc 94a1 5cbd d24c bc3c 01bb 2cbc
00000120: c850 d33c 19c1 0a3d fee4 51bd a74c 033e
00000130: bf42 29bd 6780 6e3c 4792 53bd 2453 333e
00000140: b698 2e3d 21cf 20bc ca1a 65bc 9597 a23c
00000150: 00b1 a73d f5a1 cd3d aa49 253d 9346 1fbd
00000160: 0eb5 643e e4a3 c3bb 1807 a83c 984b 1d3d
00000170: 73ae 9b3d c064 da3d 5ea8 723e 312a d73d
00000180: b1ff c33d 5953 c23d ce2f 0f3c f96c 84bd
00000190: 588e 6fbd a15b b53d 88b3 afbc 516e c93d
000001a0: 51d8 aabb 3f2f 1ebd ccd5 1c3d 5283 1b3b
000001b0: bfba f43c 27bc d23d 56b3 82bd 8835 2b3d
000001c0: f0da 6cbc de61 3fbd 367d 1b3e 6338 d93d
000001d0: be89 003e 72d5 8f3d ddde be3d bf49 013d
000001e0: 4e2a 0d3d 53fa e33d 5478 2dbc b4ff db3d
000001f0: 8791 17bc 84e5 f43d 7c58 d33d 6044 2e3d
00000200: 663c 14bd 6341 46bc 750d 233d 92f4 533d
00000210: 5d25 583c 9970 be3c 3180 e33b 9626 913d
00000220: f588 e43c e615 733d e4ba 933d f6df ea3c
00000230: 0385 34bd e8f6 933d 9550 3c3e 49af 0e3e
00000240: cf69 9b3e 023c c43d 444b 703d 78b5 e23d
00000250: 6d01 903d a010 503e 98ea b73d 1a8f 8dbc
00000260: 733a 883e ef4e 6c3d 4f5d 943b bad3 d63d
00000270: baff 083e 1dc7 96bc 5595 963d 09df 90bd
00000280: 7c7c bb3d cda9 c93e 0064 063e 6243 953c
00000290: 693b ac3d 9af1 a33d c578 ddbc ecf6 b03d
000002a0: 697a 7d3d 2712 9b3c 9819 093e 72ab 1a3e
000002b0: d49e 343e e0b3 8c3c 4d95 8cbd 22b2 603a
000002c0: 2fd6 353d b963 813d 22c2 863d 7ce6 2e3e
000002d0: 4b67 063e 5c71 653d 1c4e c93d 1010 87bd
000002e0: 9d2e 013e 405c 573c e9cd 2c3e 4671 243e
000002f0: fa2f eb3d 7858 a73d 6ea6 fdbb 37fa 103e
00000300: a448 1f3e 97bd 6f3d cbe8 eb3c c941 8d3d
00000310: 52e9 b6bb 41ad 723b 1307 cbbc 7a08 cd3d
00000320: 58e5 053e 9a6e b33d 0101 d73d f305 3b3e
00000330: f477 f03d 7d91 463d 0619 d7bc 9509 203e
00000340: a199 2f3d 9b59 c6bb 53e8 c8bc 993d 073e
00000350: a487 3e3d c46e 513d af14 3339 8d69 dd3d
00000360: b986 463e e546 cb3c 8820 b63d 1b66 233e
00000370: 5064 cb3d 0aa5 a13d 75e2 793d 74e9 973d
00000380: 4358 05bd a291 c23e 19d9 c63d da8d bb3d
00000390: 939c 973d 487c 7cbc 36ae 26bc 8d32 1a3d
000003a0: 3cee 583d 776a d13d 8128 4f3d 6940 b4bc
000003b0: 1a1d cc3d d377 773d a28c 023c efdb ba3d
000003c0: 29f9 b03d af62 58bc db29 04bb 6c52 9a3d
000003d0: 9890 0d3e 0308 e03d 9682 e63d 3fde d4bb
000003e0: ed38 243e 183f 0c3e 499b a93c 0a7c 0d3e
000003f0: 1634 273c 2f82 5cbc d75c ea3c a43f 2e3c
-0.020449748 0.05820384 0.18006125 -0.044323087 0.12549017 0.04942652 0.11054519 0.052032623
0.025208076 0.05162481 -0.04284385 0.06398873 0.131996 0.08990391 0.063906655 -0.030544538
0.12918644 0.018099668 0.069301404 -0.02032201 -0.008718416 0.085684806 0.08612738 0.05821191
0.23332274 0.020947658 -0.04509029 0.014071711 0.04554218 0.07330068 0.008429234 0.06415222
-0.036818024 0.03451161 0.20520356 -0.017441312 -0.03558047 0.060980637 -0.022576649 0.09962949
0.13094547 0.027029244 0.062207256 0.034712657 0.06628976 0.090080075 0.074534565 -0.0013088629
-0.074253574 -0.016463391 0.05816668 0.06202384 0.060968556 0.00015141857 0.1719939 0.02878756
0.053254806 0.053100083 0.12995149 -0.026061438 0.015610323 0.08272677 0.02968707 0.12927066
0.13287528 -0.053563893 -0.018177815 0.19266683 -0.027307069 -0.05386503 0.02298585 -0.010542632
0.025795355 0.03387556 -0.051243775 0.1282221 -0.04132342 0.014556981 -0.051653173 0.17512184
0.042626105 -0.009815008 -0.013983438 0.01984767 0.08188057 0.100406565 0.040353455 -0.038885664
0.22334692 -0.005970465 0.020511195 0.03840217 0.07601633 0.10663748 0.2369704 0.10506094
0.09570254 0.094885536 0.008739425 -0.064660974 -0.05848536 0.088553675 -0.021447912 0.09835494
-0.005213775 -0.038619276 0.03828983 0.0023729396 0.029874204 0.102897935 -0.06381862 0.0417991
-0.014456496 -0.046724193 0.15184483 0.10606458 0.12552544 0.07023133 0.093198515 0.03156447
0.034464173 0.1113173 -0.0105877705 0.10742131 -0.009251005 0.11957839 0.103196114 0.042545676
-0.036190413 -0.01210055 0.039807756 0.051746912 0.013192502 0.02324705 0.006942772 0.07087438
0.027897337 0.059347056 0.07213381 0.028671246 -0.044072162 0.07224828 0.18390115 0.13934053
0.30354163 0.09581758 0.05866553 0.11069769 0.07031522 0.20318842 0.08980292 -0.01728015
0.26607093 0.057692464 0.004527725 0.104896024 0.13378802 -0.018405491 0.073527016 -0.070737906
0.09154603 0.3938736 0.13124084 0.018220607 0.08409769 0.08005066 -0.027035126 0.086408466
0.061884318 0.018929554 0.1338867 0.15104464 0.17638713 0.017175615 -0.06864414 0.0008571466
0.044393715 0.06317849 0.06579997 0.1708011 0.1312534 0.05601631 0.09829351 -0.065948606
0.12615438 0.013144553 0.16875423 0.16058835 0.1148376 0.08171171 -0.007740787 0.1415795
0.15555054 0.058530416 0.028797528 0.06897313 -0.005582013 0.0037029537 -0.024783647 0.100113824
0.13075769 0.0876133 0.10498238 0.18263988 0.11741629 0.048478592 -0.02625705 0.15628655
0.04287112 -0.0060531623 -0.024524843 0.13207091 0.046516076 0.051131025 0.00017078476 0.10811148
0.1938733 0.024814079 0.088929236 0.15956919 0.099312425 0.07892807 0.061006982 0.074175745
-0.032554876 0.38001734 0.09709377 0.091579154 0.07402911 -0.01541049 -0.010173371 0.037645865
0.052961573 0.10225385 0.050575737 -0.02200337 0.09966488 0.060417008 0.0079681 0.0912398
0.086412735 -0.013207122 -0.002016655 0.07535252 0.1382469 0.10939028 0.11255376 -0.0064962204
0.1603734 0.13695943 0.020703929 0.13816848 0.010205289 -0.013458773 0.028608723 0.01063529

fc.weight f4 [5, 128]
00000000: ed09 843d bf71 363c 7505 ae3e b275 80bc
00000010: 5bd4 99be 0706 bfbd 5e45 aa3e a3e7 3abd
00000020: b53b 4abd 9931 d33b 017d 92be 0a93 823e
00000030: 9f24 69be 49db d1bd 6d6a ddbd 430a 393e
00000040: f623 733b 9322 90be 9dd9 f8be 1bec f5bd
00000050: e470 013d 0427 893c f6ba 99bd c1fb 043d
00000060: 4ba7 0cbd f8b5 bcbd 67d8 abbd 7b1c 623e
00000070: 58e9 c3bc c08a a23e 02d0 bc3d ea34 b83c
00000080: eb50 58be 2e44 2e3e 0b56 fc3d 7bec acbc
00000090: 00f5 0fbe 3414 69bd 7279 c5bd 15ce 783d
000000a0: f545 fc3d b358 2e3e a6fc 86be 162a 043d
000000b0: 3a05 a9be 0586 71bd 6310 7dbe 71cb 59bc
000000c0: d4ab 493d 4e76 36be f044 98bd 1a36 c43d
000000d0: 19da 3a3e 2fda 2d3e 8549 063f 7ccb 0a3e
000000e0: a442 bc3e 6228 acbd 74ff d63d 424d 443d
000000f0: dc64 e63c affe f9bd d38c 93bd 7552 88be
00000100: a745 d03a b644 86be 7e62 8fbe 3b2f f13e
00000110: ebf1 2fbd e831 263e 6e70 113d 2085 d23b
00000120: 7521 713e 8371 e7bc 48c2 923d a9b0 0c3e
00000130: b4d4 8ebe 751d 7d3d d821 5abe 848a e23d
00000140: 6f94 af3d 945e 95be f9b4 86bd dd77 da3c
00000150: 28d8 14be 4e2b 15be b8d0 033e 5b55 7f3d
00000160: 844f 27bf 4f06 b8bd a369 463e a733 ce3e
00000170: c766 37bd 2609 3e3e 071c c0be 7744 253d
00000180: f84b cfbd b12e 063e 50b8 75be 6ed3 873d
00000190: 5316 94bd a12e 323e 06fe 54be 25cd 103c
000001a0: d7fa 2d3e 66e1 9f3c 14bb c53e 0981 bdbd
000001b0: fe68 473d 0fd4 a33e caa8 8a3d 876e 8abc
000001c0: fe88 76be 3988 4d3e b6c9 d33e cd52 433e
000001d0: e7cd 833e 871a 043e 7a4d 7abe a1ea 753d
000001e0: 21ea 0e3d b9f9 b8be b457 19be bdc0 583e
000001f0: 735a a03d 5103 803e 0a5f 693e e5e2 16bd
00000200: 2805 223e 77ce d33e aa97 cb3e 247e 663e
00000210: 75b6 46be 9db6 15bf 9e8d a53e f8a8 ddbd
00000220: 5ca7 50be c3cf 37be e050 17be 985d 8e3d
00000230: 4793 82be 3065 51bd 511d 5fbd bb32 3abe
00000240: 3ffc 30be 3992 b1be c0b7 033f 13e3 c8bd
00000250: 55cb abbe 198c 433d a7f9 37bd e9e5 fe3e
00000260: 5e37 8e3e eb6d 90be 84a1 a73d cbed 4e3e
00000270: 31f9 91be 7341 01be 39ae 303b c4d9 bfbd
00000280: 8bdb 04be 0a18 973e bd2c 9b3e 290a 473e
00000290: d63f 9ebe 73d1 20be f6af 6bbe da17 033e
000002a0: c023 b33e c51a eb3d eca9 1e3f bb00 1e3f
000002b0: cd58 1dbe 22c1 8a3d 31de e93d 3726 893d
000002c0: fb76 a6bc 024a dc3e 4854 cbbd 5f09 c23e
000002d0: 8ab9 8f3e 1af2 c3be ac2d a33e bb07 f8bd
000002e0: 1bc7 4c3e cf60 513d d14f e23e cc4c e93d
000002f0: c8f5 5c3e 1f00 e7bd ea05 9f3b bcf6 65be
00000300: 5838 c9be 77d5 3abd ca7f 3cbe 887f 063f
00000310: dcff bebc aa21 603e 2493 4bbe 1250 b9bd
00000320: 4168 6fbe 1add a9ba 7526 0abe 1f82 2f3f
00000330: 77ef ca3d 0fcd 9abd 3b41 b73e df35 23bf
00000340: 3165 693b 9cc1 3ebe c79c 1c3d 4f6c f5be
00000350: 7d25 2cba a0b1 06be dd89 013d f6a2 b13d
00000360: 3f3b b2be c265 85bd ff79 c43e bee8 21bf
00000370: 49e6 98bc be13 44be 6aba d2be 626a abbe
00000380: 6a05 05be 190e 2dbe 8b59 183f 9c58 96be
00000390: c3bd 4bbe 9af3 28bd 444a 433e 43d6 55bd
000003a0: 2a57 81be 76da d7be 33f9 fa3e fc97 6f3e
000003b0: 8c23 603e c2e6 a93d 6e50 243e f473 033e
000003c0: ebb0 163e 37de 303e 8b9f b43d cbfc 1cbe
000003d0: 8b4e a2be 590d 6abc ff25 513d 14c3 d9be
000003e0: b570 16bf da12 eebe 85a2 bdbe 03f2 20bf
000003f0: 44a5 f73d 84f4 fc3d e6db afbe acf4 193d
0.06447206 0.011135518 0.33988538 -0.015681121 -0.30044827 -0.093273215 0.33256048 -0.045631062
-0.049373347 0.0064451215 -0.28610995 0.25502807 -0.22767876 -0.102469034 -0.10811315 0.18070321
0.0037100292 -0.28151378 -0.48603526 -0.12007924 0.0316018 0.016742237 -0.07506363 0.032466654
-0.03433923 -0.09214395 -0.08390885 0.22081177 -0.023914978 0.31746483 0.09219362 0.022486169
-0.21124618 0.17018196 0.12321099 -0.021108856 -0.14058304 -0.056904033 -0.096423045 0.06074341
0.12318031 0.17026024 -0.2636463 0.0322667 -0.330118 -0.0589657 -0.24713282 -0.013293133
0.049236134 -0.17818567 -0.07435024 0.095806316 0.1824726 0.16977762 0.5245593 0.13554186
0.36769593 -0.0840614 0.104979426 0.04792524 0.028124265 -0.1220678 -0.072045945 -0.2662541
0.0015889899 -0.26224297 -0.2800483 0.47106346 -0.04295532 0.16229975 0.035507612 0.006424561
0.23547919 -0.028252369 0.071659625 0.13739266 -0.27896655 0.06179567 -0.21301973 0.11061576
0.08573233 -0.2917372 -0.065774865 0.026668483 -0.14535582 -0.145673 0.12872589 0.06233726
-0.65355706 -0.08985578 0.19376235 0.40273783 -0.04477575 0.18558177 -0.37521383 0.040348496
-0.10121912 0.13103749 -0.23996091 0.06632124 -0.072308205 0.174006 -0.20800027 0.008837973
0.16990219 0.019516658 0.38619292 -0.09253127 0.048684113 0.31997725 0.06770475 -0.016898407
-0.24075696 0.20071496 0.4136483 0.19074555 0.2574303 0.12900744 -0.24443617 0.060038213
0.03489125 -0.36128023 -0.14974862 0.21167274 0.07829752 0.2500253 0.22790161 -0.036837477
0.1582228 0.41368458 0.39764148 0.22509056 -0.1940554 -0.5848177 0.32334608 -0.10823244
-0.20376343 -0.17950349 -0.14776945 0.06951445 -0.2550299 -0.05112189 -0.054471318 -0.18183415
-0.17283724 -0.34681872 0.51452255 -0.09808936 -0.33553568 0.04774103 -0.04491582 0.49784783
0.27776617 -0.2820886 0.081851035 0.20207898 -0.2851043 -0.12622623 0.0026959314 -0.09367707
-0.12974374 0.29510528 0.3030757 0.1943747 -0.30908078 -0.15704899 -0.23016343 0.12802067
0.34988213 0.11479715 0.6197803 0.61719865 -0.15365906 0.067751184 0.11419333 0.06696742
-0.020320406 0.43025213 -0.09928185 0.37897775 0.28071243 -0.38270646 0.31870782 -0.121108495
0.19997828 0.051117714 0.4420152 0.11391601 0.21578133 -0.1127932 0.004853 -0.22457403
-0.393008 -0.045613732 -0.18408123 0.5253835 -0.023315363 0.21887842 -0.19880348 -0.09048475
-0.23379613 -0.001295957 -0.13491233 0.68557924 0.099089555 -0.07558643 0.35791954 -0.63754076
0.0035613293 -0.18628544 0.038235452 -0.47934195 -0.00065668655 -0.13153696 0.031625617 0.086736605
-0.34810826 -0.065135494 0.38374326 -0.6324576 -0.018664496 -0.19148156 -0.41157848 -0.334796
-0.12990347 -0.16899909 0.5951163 -0.2936448 -0.19896607 -0.04124794 0.19071299 -0.05220629
-0.25261813 -0.4215886 0.4901825 0.23397821 0.2188856 0.08295967 0.16046306 0.12837201
0.14715926 0.17272268 0.08819493 -0.15330808 -0.3170055 -0.014285409 0.051061627 -0.42531645
-0.5876573 -0.46498758 -0.37038055 -0.6286928 0.12092069 0.12351325 -0.34347457 0.037586853

fc.bias f4 [5]
00000000: 9073 1d3f 8b94 15bf abba 563d a227 823d
00000010: f493 c8be
0.6150446 -0.58429784 0.052424114 0.063552156 -0.3917538
