main_lstm.pth (torch, 277279 bytes, 6 tensors)

lstm.weight_ih_l0 f4 [512, 3]
00000000: 6c0b 493d ea20 4e3d 00be 233c a09a 84bd
00000010: 22a5 70bc 9279 eabd 66e3 67bd b080 1e3c
00000020: 77ea 143b ed63 0ebd e479 44bd 0fed debd
00000030: 9c92 083c 72a2 2c3d 7eb4 93bd ad3f dcbc
00000040: 80ed 9b3d 23cf 423d d766 aabd 4536 55bd
00000050: 84e6 c8bd 92bd 4f3d 992e 24bd b3d6 f23b
00000060: 1c05 0cbb 9989 8d3d de52 853d 525c 893d
00000070: 1020 acbd caa4 923d a383 47bd 4eaa ccbc
00000080: d829 1ebd 1de8 88bd 2801 a0bc 7da1 83bd
00000090: b49b 93bd 5246 7abc ab32 9dbd fe31 343d
000000a0: 050c 59bd dfe1 6ebd c1c2 0ebd 2937 4ebd
000000b0: 743a 613d 2b56 123c 0adb 393d 34b2 6abd
000000c0: 1338 b13c 89c8 35bd 80d7 cf3c 546b a63b
000000d0: 2c9a 903c 7f11 afbc e42f 9bbd 3738 3abd
000000e0: 72b8 08bd 9362 89bd 7dc0 a23d a03b 6f3c
000000f0: 5d8c b0bd d1fa fabc 1bff 99bd 4918 3fbd
00000100: 4519 2d3d 20be 09bd 882d 86bd 2b5e 65bd
00000110: 5939 adbd 1c48 3cbd 3d23 91bd 3c8b ddbb
00000120: df0d 00bd d736 63bd ddb3 3fbc 3a26 86bd
00000130: 206f 1fbd bc54 10bd 64f2 09bd 87fb 9c3d
00000140: 0699 f3bb fcad 85bb 9604 66bb 7b19 18bd
00000150: 72cf 03bd aad1 d73c c54f 293d 52f8 9b3c
00000160: 24b9 943c 46de 90bd 86bd 563d fccf 6a3b
00000170: 1c8d eabc c5bf abbd 416e e9bc f151 a03b
00000180: b696 83bd fa1f 293d de39 ddbb ba09 993d
00000190: 915a 523a 33a1 09bd e499 d83c bb3c cabb
000001a0: df16 5fbd 292f b6bc bc2f 9abc 4b8a 9c3d
000001b0: 4376 60bd 04e6 90bd bc24 a8bd 7a2f 713d
000001c0: e274 5b3d f3d2 41bd 1832 3abd 05af a6bd
000001d0: e8fc 91bd 5d2c 0038 d092 9a3d 8a9f ffbc
000001e0: c38f c43b 382d 8b3d 0ec8 113d 390a c53b
000001f0: 6a1c b4bd fb7a 7f3d 32ff 033d 58c9 5a3c
00000200: ae56 5f3d c236 42bd c65f e53b b7ce 1d3d
00000210: 4017 b83d 3026 82bc bb3a b6bc e842 133a
00000220: 8ad1 b3bc e2f9 03bd 8718 903c 4e53 163d
00000230: f8e6 b63c 93e6 d33c 845a 173b 66d3 993d
00000240: eeba f0bc 6e92 a23d 059b 933d a5da 513d
00000250: 0c30 70bd 8062 713d 1a14 5ebd 2a4c 773d
00000260: c36d 943d 3f93 69bd 4a74 303d e33a 4f3d
00000270: c678 adbd 6caa 613d 55fb 04bd ee5a 1e3c
00000280: 3e04 19bb 6183 40bd 7c50 a7bd 908b 98bd
00000290: 4352 1b3d 5aec 3bbc 6d51 9fbd 48fa b5bd
000002a0: ec79 61bd b0f2 5bbd 5915 c0bc ee1c 1c3d
000002b0: ecbd d5bc 15b5 343d 97c7 9cbd 64b7 873d
000002c0: 3319 b6bd c4b4 7bbd bc02 5abd 6b09 00be
000002d0: c9fe 0f3d 67cf e3bc 7866 cdbd ba57 ba3d
000002e0: 2607 253d 1409 a7bb 724c 933d f611 8f3d
000002f0: 3ed2 9ebd 01ee 483d 01e3 e43c 1667 913d
00000300: a0bd 4abd 78c8 9dbd d5ea cb3a e282 7d3d
00000310: acf5 18bd c71f 623d 4d9b 923d a7a3 1fbd
00000320: 479b 3dbd e5a5 9fbd a2f2 803c 8dce 803c
00000330: 528e d7bc fba3 4c3c 73f9 303d ea52 a5bd
00000340: 639d 25bd 9c8a 313d 52ad bbbc b5f2 95bd
00000350: 2410 af3c 2dcd 1bbd b30b 913c b5e3 92bd
00000360: 33dc 9ebd 25c7 fa3c 1078 603d 0899 a13d
00000370: e431 4fbd fc08 f53c 9da1 4abd c125 9f3d
00000380: c956 68bd a1cf 103d cdae 6a3d fddc 3dbd
00000390: 35ea 5b3d ac07 98bc e075 683d 5ad8 1a3d
000003a0: e31b afbd 3b18 c0bc f020 f4bc c8fb 2cbd
000003b0: 5269 70bd 775a 9cbc 26b2 4dbd 853e e13b
000003c0: 6ded 233a d9a2 dc3c 156a f43c 03e9 ec3c
000003d0: 1c17 8cbd f3a7 803a 67c1 a23d 057c ecbb
000003e0: 180d 94bd 8820 173d f6ae f9bc 7cbc 823d
000003f0: 6c27 1c3c 4c25 6c3d e5ab 5d3d 57a3 a7bc
0.04908316 0.050324358 0.00999403 -0.06474805 -0.014687808 -0.11448969 -0.05661335 0.009674236
0.002272276 -0.034763265 -0.047967806 -0.10885059 0.008335736 0.042147107 -0.072121605 -0.026885832
0.07613659 0.047560822 -0.083203964 -0.05205371 -0.09809592 0.050717898 -0.0400835 0.007410848
-0.002136535 0.0691101 0.06509946 0.06707062 -0.08404553 0.07160337 -0.048709523 -0.024983551
-0.038614124 -0.06684897 -0.019531801 -0.06427286 -0.072074324 -0.015275555 -0.0767568 0.04399299
-0.05298998 -0.058320876 -0.0348537 -0.050345574 0.054987386 0.008931677 0.045374908 -0.057298854
0.021633184 -0.0443807 0.025371313 0.0050787125 0.01765164 -0.021370647 -0.07577494 -0.045463767
-0.033379026 -0.06708255 0.079468705 0.014601618 -0.08620522 -0.030637177 -0.07519361 -0.04665402
0.042260427 -0.033628583 -0.06551653 -0.05599801 -0.08458204 -0.045967206 -0.07086799 -0.006760983
-0.03126323 -0.05547222 -0.011700598 -0.0655026 -0.038924336 -0.03523706 -0.033678427 0.076651625
-0.0074340133 -0.0040795784 -0.0035097948 -0.037133675 -0.032180257 0.026345093 0.04133584 0.019039307
0.018154688 -0.07073645 0.052426837 0.0035829535 -0.02863174 -0.083861865 -0.028494956 0.0048925807
-0.0642523 0.04129026 -0.006751283 0.07472558 0.00080243597 -0.033600997 0.026440568 -0.0061717904
-0.05446517 -0.022239285 -0.01882159 0.07643565 -0.054800283 -0.07075122 -0.082101315 0.058883168
0.053578265 -0.047320317 -0.04545793 -0.08138851 -0.07128316 3.0558895e-05 0.075475335 -0.031204004
0.005998583 0.06795734 0.035591178 0.0060131815 -0.08794482 0.062373143 0.032225795 0.013353668
0.054526024 -0.047415502 0.0069999425 0.038527217 0.089888096 -0.01588735 -0.022244802 0.0005617575
-0.021950502 -0.03222073 0.01758982 0.03670054 0.022326931 0.025866782 0.0023094723 0.07511024
-0.02938601 0.079380855 0.07207302 0.051233906 -0.05863957 0.058931828 -0.05421839 0.06037537
0.07247498 -0.05702519 0.043079652 0.050593268 -0.08470301 0.055094168 -0.03246625 0.009665234
-0.0023348476 -0.047000293 -0.08169648 -0.074484944 0.037920248 -0.011469925 -0.077792026 -0.08885628
-0.055047914 -0.05369824 -0.02344768 0.038113527 -0.026091538 0.044118006 -0.07655256 0.06626776
-0.08891525 -0.06145169 -0.053225264 -0.12503593 0.03515509 -0.027808858 -0.1002931 0.09098764
0.04029002 -0.0050975177 0.07192315 0.06985848 -0.07754944 0.049055103 0.027940275 0.0709974
-0.049497247 -0.07704252 0.0015557656 0.061892398 -0.037343666 0.055206086 0.071585275 -0.03897443
-0.046290662 -0.07795314 0.015740696 0.015723491 -0.02631298 0.012490268 0.043206643 -0.08072455
-0.0404333 0.04334508 -0.022909794 -0.07321683 0.021370001 -0.038037468 0.017705774 -0.07172338
-0.077568434 0.030612538 0.054802 0.078905165 -0.05058469 0.02991151 -0.049470533 0.07770873
-0.05672339 0.03535426 0.05729561 -0.04635333 0.053690154 -0.018558346 0.05675304 0.037803985
-0.08550241 -0.023449054 -0.029800862 -0.042232305 -0.05869419 -0.019086106 -0.050218724 0.006873908
0.0006253336 0.02693312 0.02983574 0.028919702 -0.06840345 0.0009815678 0.07947045 -0.0072169327
-0.0722906 0.03689626 -0.030478936 0.06383607 0.009530883 0.057652757 0.05411901 -0.020463629

lstm.weight_hh_l0 f4 [512, 128]
00000000: 0b4b 44bc 13c4 e83b 8454 88bc 2275 3e3c
00000010: 71df e6bc 361b 9bbc 1c15 e83c 4f77 563d
00000020: 1d73 853c f6a6 383d dad4 9a3c 9aa7 90bd
00000030: f088 5fbd f33e 8a3d a19b 543d bded 64bd
00000040: 57d4 bfbc ee26 f3bb d53e 2fbd 524d 783d
00000050: 3f28 12bd ef1e ec3c 45ff c93b a69e 823c
00000060: 3d7e bfba 8894 40bd 63b7 7d3a 89b5 a9bb
00000070: 3f55 92bd 7b93 b4bd 76f4 aabd 8ade 8abb
00000080: 20e1 8fbd 6880 32bd daf9 debc a99c 6e3d
00000090: 84ea aabd 0dc0 383c 39b7 41bd 21ab 823d
000000a0: 77c8 cbbc 702c af3d 0be9 e93c fcac 9e3d
000000b0: 33b5 b5bb d066 60bd 0ade 25bd 1453 85bc
000000c0: 22c3 a4bd 4de3 b33b 4843 98bd b993 94bd
000000d0: 8549 b23d 2e70 253d a443 573d 6416 593d
000000e0: c424 6c3d ae78 343d 5aaf 84bd d83b 5dbd
000000f0: 484f 54bd 050a 373d 10db 653d 54b5 abbd
00000100: 6318 4bbd acf6 0e3d 74f0 96bd 7126 da3b
00000110: f127 353c f979 1f3d 341e ac3d f4d8 b5bc
00000120: 026a 1dbd 003b 08bd 4735 bdbb bbff 063c
00000130: 8ccb fcbc ec72 913c a64e 883d 4857 9dbd
00000140: 3374 753a 908c 023b 4df9 4f3c f1b0 423c
00000150: 635c 5bbc 9ccc 4ebc 7c4f a6bd d2d8 2ebd
00000160: 62d2 033d c36e 093d 2275 aabd 9394 80bd
00000170: 6594 51bd 6026 3e3c 3ecc 443c 3c20 38bb
00000180: 10aa b33d 29de ef3b acb2 19bd 4a9a 1fbd
00000190: bd9b 823d d59e 2abd 39fc ca3c 0314 253d
000001a0: 32c4 07bd 3197 863d d560 373d b11a 443d
000001b0: 78e0 2fbd 3b90 c13c 0c3d 21bd eaa4 28bd
000001c0: 0032 a43c 621f e13c 7f42 003c c0a2 30bc
000001d0: dcde 63bd 7386 9a3d e868 aabc 9e52 7c3d
000001e0: 4c6f 09bd 5b9c 9e3b 24c3 fa3c 35f4 9f3d
000001f0: 8cd2 85bd 5184 93bd f1d3 433a cb76 953d
00000200: 28e3 b93d 8dc0 9fbd cdb6 15bc 6e68 b3bc
00000210: 9c1d 493d 039d 2fbd 4e87 a73b ec63 eabc
00000220: e83a 90bd 1a47 16bc 814c 9fbc c141 6e3d
00000230: e82a 8ebd c0ae 073d 750b a2bd ac2e 063c
00000240: ca89 aabd 8a30 0a3d baaf 413d 0a07 983d
00000250: ac31 32bd 1fc2 e03c ba52 af3d f537 993d
00000260: 40d4 963d 7779 90bd 86a5 62bd 8e70 f23b
00000270: afe3 a5bd 2880 f4bc 8207 753d ec54 6abc
00000280: d8b0 9c3d f409 a83c 8cc7 56bd ab4b b7bc
00000290: ce1a 5e3c fba8 30bc dfae bb3d 487f c6bc
000002a0: 9e2e 763d 0d39 92bd 2667 efbc 0ac6 a5bd
000002b0: 9c46 20bd 4c52 b23d 62cb 623d 950c 973d
000002c0: 4d3a 8ebd dc44 80bc dd6e 61bc 3973 ac3c
000002d0: 86d3 663d 1a5e 663d c86f 9fbd e997 fb3a
000002e0: 5c12 a03d df82 6abd db8f 9bbd 774a 5e3d
000002f0: 5df8 903d b2cf e23b ec83 d0bc 9679 39bd
00000300: 691d ad3c 4e70 313d 5b4c 7ebd da40 98bb
00000310: 4ace 033d 46b3 1dbd 918f e6bc f03d 90bd
00000320: 8c4f 9dbd 710e a73d a88d 303d 6b5b 513d
00000330: bb55 6f3d edf7 2b3c ce93 e0bc 5f16 e23b
00000340: 3254 423d ca9b 423a cd92 9f3d 99aa a73d
00000350: cc53 0a3d ca2e c93c a6ab 743d 7395 1dbd
00000360: 6877 193d 4d2a 4fbd 4beb 57bd e706 7bba
00000370: a000 8f3b 40c2 733c 7a74 b8bd 14d7 663c
00000380: 51bc 4b3d 05ab aabd 24d8 5f3d 1a39 94bd
00000390: e508 b5bc fb35 023d d888 963d f24e 713d
000003a0: b124 253d 4786 03bd 89b8 8c3d 0ace 853d
000003b0: f47d 75bd 151c b6bd 6cd2 b43d 77a0 68bd
000003c0: 830a 9b3d 200f 40bd a05d 8d3d 03d1 823d
000003d0: f823 233a abfd 4bbd 81d7 7c3d f52d 203c
000003e0: fe8b 783c 5f6d a33d d6ba e73c d080 bdbc
000003f0: 6be1 373c 9790 063d 7484 00bd baea d3bc
-0.011980782 0.007103452 -0.016641863 0.011624606 -0.028182717 -0.018933874 0.028330378 0.052359875
0.016290242 0.0450811 0.018900324 -0.070632175 -0.054573953 0.06750288 0.05190623 -0.055890787
-0.023416681 -0.0074204123 -0.04278453 0.060620613 -0.035682913 0.028823344 0.0061644637 0.01594479
-0.0014609765 -0.04701665 0.0009678511 -0.0051791114 -0.07145166 -0.08817192 -0.083474085 -0.0042379545
-0.07025361 -0.04357949 -0.027218748 0.05825487 -0.083455116 0.011276257 -0.047293875 0.063802965
-0.024875863 0.08553398 0.028553506 0.07747838 -0.0055452823 -0.05478555 -0.040494956 -0.016274966
-0.08045031 0.005489743 -0.07434708 -0.07254738 0.08705429 0.040390186 0.05255474 0.05299987
0.05765225 0.0440604 -0.06478758 -0.05401215 -0.05183342 0.04468729 0.056117117 -0.08384195
-0.049583804 0.034903213 -0.073700815 0.0066574146 0.011056886 0.03893468 0.08404198 -0.022198178
-0.038431175 -0.03325939 -0.0057741734 0.008239682 -0.030858777 0.017754994 0.06655626 -0.07682663
0.00093633233 0.0019920208 0.012693715 0.011883006 -0.013388726 -0.012622025 -0.08120629 -0.042687245
0.03218306 0.033552896 -0.083231226 -0.06278338 -0.05116691 0.011605829 0.012011586 -0.0028095385
0.08772671 0.0073201847 -0.03752391 -0.0389655 0.06377361 -0.04165538 0.024778472 0.040302288
-0.03314609 0.06571806 0.04477008 0.047877017 -0.04293868 0.023628345 -0.03936486 -0.0411729
0.020043373 0.027480785 0.007828354 -0.01078099 -0.055632457 0.075451754 -0.020801976 0.061602227
-0.033553407 0.0048404164 0.030610628 0.07810251 -0.06534299 -0.07202972 0.00074702414 0.072980486
0.0907653 -0.07800398 -0.009137821 -0.021900382 0.049100503 -0.042874347 0.005112565 -0.0286121
-0.070424855 -0.009172225 -0.01944566 0.058168177 -0.069417775 0.03312564 -0.079123415 0.008189838
-0.083270624 0.033737697 0.047286727 0.074232176 -0.043504402 0.027436314 0.08560701 0.07481376
0.07364702 -0.070544176 -0.055333637 0.0073986715 -0.08100068 -0.029846266 0.059821613 -0.0143024735
0.07650918 0.020512559 -0.052436396 -0.022374948 0.013556195 -0.010782476 0.091642134 -0.024230614
0.06010305 -0.07139788 -0.02922399 -0.080944136 -0.03912984 0.08707103 0.055369742 0.07375447
-0.06944714 -0.015657835 -0.013759342 0.021051036 0.05635407 0.056242086 -0.077849925 0.0019195053
0.07816002 -0.057253715 -0.07595798 0.054270234 0.070786215 0.006921732 -0.02545353 -0.04528197
0.021132188 0.043319993 -0.062084537 -0.004646403 0.032179154 -0.038501047 -0.02814463 -0.07043064
-0.07681188 0.08157051 0.043103844 0.051112574 0.05843137 0.010496122 -0.027414229 0.0068996395
0.047443576 0.0007423727 0.07791672 0.08186836 0.03377132 0.024558444 0.05973401 -0.038472604
0.03746739 -0.05057745 -0.052714627 -0.00095759187 0.004364088 0.014877856 -0.09006591 0.014089365
0.04974014 -0.08333401 0.054649487 -0.07237454 -0.022098968 0.03178976 0.073503196 0.05891318
0.040318195 -0.03211048 0.06871135 0.065334395 -0.05993457 -0.08892075 0.08829197 -0.056793656
0.07570364 -0.046889424 0.06902623 0.06387522 0.00062233163 -0.049802464 0.061728958 0.009776582
0.0151700955 0.07979845 0.028287333 -0.023132712 0.011223177 0.032852735 -0.031376317 -0.025868762

lstm.bias_ih_l0 f4 [512]
00000000: 5e6d 7abd 94ea b43d 35ff ae3c 7d24 e63d
00000010: 74f5 9b3d be01 3f3d a4b0 903d a2fd 7e3d
00000020: f817 2b3d 400a ac3d e83d 593d a41f 16bc
00000030: 5404 bf3b 885b 15bc 8883 69bd 5bb5 c4bc
00000040: 8528 2cbd 3eee 033d 330d f4bc 3ebd ebbc
00000050: 2d6f 473c 7f5b e03c 8990 133d 2b32 6a3d
00000060: 9abe 053e 1a1b ac3d 3b2a fabc 0a9f 27bd
00000070: 2de8 0d3c 0f97 abbc 74e8 413d 3836 57bd
00000080: 77b6 5cbd c850 81bd 5dc9 613c bbd0 5ebc
00000090: 933a 90bd 2c95 783d 6a64 9a3c 92f3 b1bb
000000a0: f25d 513c f8d5 183c e211 4ebc ea97 8f3d
000000b0: a117 25bd 5693 a43d c22a b53d cc6e b2bc
000000c0: 6fc4 8e3c 06a7 2cbc ea5f 62bd 3fdb 84bc
000000d0: 019d e1bc a942 923d 6830 c33d 55bd 94bb
000000e0: 5f53 7c3d 4bb4 87bd 093e 223c b261 683d
000000f0: 32a6 b9ba da81 153d 50f9 0f3d 3142 463d
00000100: 6e5d 7cbd 4fc3 07bc 801b ec3d e14e a23d
00000110: b4b6 ae3d 7536 363c da03 84bd 60e8 1ebb
00000120: eabc 32bd 75d5 9a3d 6aba b43d bd78 0dbd
00000130: 4c7d b73d 2888 7f3c f13f bfbc 24ea 103e
00000140: f018 e0bc 0873 c8bc 8cf8 2c3c 2151 443c
00000150: 449d 54bc 5c20 46bd cc4a eb3d 945a 333d
00000160: 420d 7c3d 269f 20bd 0a33 983c 45ab 983d
00000170: b436 823d 0f07 183a 1167 a53c 3fe6 273c
00000180: 0729 b13d 3e82 b73d 2f4f 13bd 50b7 373c
00000190: 27b1 033c 1128 933d e626 02bd e518 70bd
000001a0: 7058 7fbc d8a8 f53d dbdb 043e 14cb bc3c
000001b0: db0b bb3d 1db4 9abd 2b57 b83d a75a cfbc
000001c0: bf4e 9a3d 57e3 593d b589 9fbd efde 983d
000001d0: f5bb 003d 0c4f 263d ae60 e63b 6efc 973d
000001e0: b08d 60bd b62f 7a3d f2fe db3d fd4e 80bc
000001f0: 37e6 773d a40f 9a3c 1766 b33d 3a44 c83c
00000200: c2dc 4cbd d457 7e3d aefe e53d 9d9d 1a3d
00000210: a1a3 b8bb 0ddf 5d3b a0de 793b 6018 993d
00000220: 4452 86bc 9355 5e3d 4efa a73d ddd1 b13d
00000230: 4932 863d 8e54 a13d 9b55 0dbd 85b8 35bd
00000240: 0f98 85bd 5bf2 dc3c d970 fd3d 2c09 f8bc
00000250: 9199 a73d 7002 c93d 837f a03d d726 85bd
00000260: c918 9c3d add2 b1bc d11f 923c 09c8 98bd
00000270: d367 80bd edcb 8b3d 05c7 67bc 6e2c 33bd
00000280: 5f7f a1bd 63e7 243d 2abe 873d caca 99bc
00000290: b445 5dbd 4630 14bc d234 8a3d a595 233d
000002a0: d602 61bc 56da 3c3d e477 c53d cd2c 1fbd
000002b0: 84f1 39bd cd01 d93d 9707 1f3c e35e 053d
000002c0: 7bd1 333d 82ae 0fbd d386 a73d bedc 583d
000002d0: adb6 a13d ad57 e63d 75f7 8abc 2ae4 4a3d
000002e0: 131e ed3b afe9 423d 4ea3 69bc ea02 a03d
000002f0: a413 c2bb f3a6 1d3d b47a ab3d abf1 bd39
00000300: 3a12 e33b d201 fd36 92e3 093e 71ef 2cbd
00000310: 9d70 49bd 9c6d ab3c abb7 573c 5dc6 a9bd
00000320: 92a5 53bd 4e67 8b3c 4387 9bbc 4981 94bd
00000330: 6333 653d de7d c43d 3648 923d baad 213e
00000340: c895 d1bb cb3e fe3d 39e3 463d 1221 85bd
00000350: 7e2d 03bd 6df3 71bd e428 19bd 2bea b93c
00000360: 6619 4a3d 9b17 8dbd c02f 353d d8d4 803d
00000370: b417 84bd 5f66 32bd 5141 3d3d bbe7 1a3d
00000380: 5e5e 573c eb90 4a3c 64c0 3a3b 2a51 3e3d
00000390: bbd7 803d 8c75 3e3d 8c04 99bd 149d 1cbd
000003a0: 913f fb3d 199e 033e fd5d 213e ca0e 06bd
000003b0: 80ad 60bd d166 213d fc9e 2a3d 2d40 8b3c
000003c0: f0d1 8e3d 0679 bb3d 5fe8 843c be41 073e
000003d0: 5c59 8d3b ca0e 03bd b00c f83d fae1 e93d
000003e0: fbeb 9d3d f8cb 453d 5db2 5ebb 9920 b23d
000003f0: 02da 03bd 9092 77bd 46bf 313c e460 28bc
-0.061139457 0.08833805 0.021361927 0.11237428 0.07615176 0.04663252 0.070649415 0.0622536
0.041770905 0.084003925 0.053037554 -0.009162817 0.0058293734 -0.009116061 -0.057010204 -0.024012258
-0.04203083 0.032209627 -0.02979145 -0.028776761 0.012172502 0.027387379 0.03602651 0.05717675
0.1306099 0.08403607 -0.030537715 -0.040923156 0.008661312 -0.020946054 0.047340825 -0.05254194
-0.05388495 -0.06314236 0.013780919 -0.01359957 -0.07042422 0.060689136 0.01884671 -0.005430647
0.012778746 0.009328358 -0.012577506 0.07011397 -0.040305737 0.080359146 0.08846046 -0.021781348
0.017427651 -0.010537868 -0.055267252 -0.016217826 -0.027540686 0.07141621 0.09530717 -0.0045391717
0.061602946 -0.06626185 0.009902486 0.056733795 -0.001416391 0.03650079 0.035149872 0.04840297
-0.06161254 -0.008286311 0.11528683 0.07925201 0.085309416 0.011121382 -0.06446047 -0.0024247393
-0.043637194 0.07560245 0.08824618 -0.034538973 0.08959445 0.015596427 -0.02334592 0.14151818
-0.027355641 -0.024468914 0.010557305 0.011982233 -0.012976948 -0.048370704 0.11488876 0.043787554
0.06153608 -0.039214276 0.018579025 0.07454542 0.0635809 0.00057993917 0.020190747 0.010247766
0.086504035 0.089603886 -0.035964187 0.011213139 0.008037842 0.071853764 -0.031775378 -0.05861749
-0.01558505 0.11995095 0.12974493 0.023046054 0.091331206 -0.07553885 0.09001001 -0.025311781
0.07534551 0.053195324 -0.077899374 0.07464396 0.03142925 0.04060273 0.007030568 0.07421194
-0.054822624 0.061080657 0.10741986 -0.015662665 0.060522284 0.018806286 0.087597065 0.024446595
-0.05001522 0.06209548 0.11230217 0.037747968 -0.0056347405 0.0033854872 0.003812708 0.07475352
-0.01639665 0.05428083 0.08202039 0.08682606 0.0655256 0.07877456 -0.034505468 -0.044365425
-0.065231435 0.026971033 0.123750396 -0.030277811 0.08183587 0.09814918 0.07836821 -0.06501549
0.07621915 -0.021706903 0.017837437 -0.07460029 -0.06269803 0.06826005 -0.014146571 -0.043743543
-0.07885622 0.04025973 0.06628068 -0.018773455 -0.054021552 -0.009044712 0.06748356 0.039937634
-0.013733586 0.04610666 0.09642008 -0.038861085 -0.045396343 0.105960466 0.009706399 0.032561194
0.043900948 -0.035078533 0.081800126 0.05294489 0.07896171 0.112471916 -0.0169637 0.049534
0.007236251 0.04758614 -0.014260126 0.07813056 -0.0059227515 0.038489293 0.08373013 0.00036228946
0.006929663 7.5401995e-06 0.13465717 -0.042220537 -0.049179662 0.02092629 0.013166348 -0.08289788
-0.051671572 0.017017033 -0.018985396 -0.07251222 0.05595721 0.0959432 0.071426794 0.15788928
-0.006396029 0.124143206 0.04855654 -0.06500448 -0.032025807 -0.05907004 -0.037392512 0.022694668
0.049340628 -0.06889268 0.04423499 0.06290597 -0.064498335 -0.04355466 0.04620487 0.03781865
0.0131450575 0.012363653 0.0028496021 0.046464123 0.06291147 0.04649882 -0.074715704 -0.03823574
0.12267984 0.12853278 0.1575851 -0.032728948 -0.054852962 0.039404694 0.041655526 0.016998375
0.06973636 0.09153943 0.016224084 0.13208672 0.004313631 -0.031996526 0.12111795 0.11420055
0.07711025 0.048290223 -0.0033980825 0.08697624 -0.03219033 -0.060442507 0.010848826 -0.010277007

lstm.bias_hh_l0 f4 [512]
00000000: 3da3 d23c 10e5 fe3d 283b b4bc 3e3a 53bc
00000010: e648 b53d 932a c33c 737b 59bd a72b c83d
00000020: 9913 8a3d 4e42 26bc 86a3 06bd 644a 2f3d
00000030: 5af7 473d a8db 2c3d 6e4d 46bd cd62 be3d
00000040: 501c a73d 1639 de3d 9848 f53d 9ae1 cb3c
00000050: 2378 52bd 68d1 1fbc ff3e af3d 546d ac3d
00000060: ffb6 c03c 116b 043c f9c1 0c3c 5f46 073d
00000070: 2254 bc3d d279 9fbd 7fb3 d6bc c70a 7a3d
00000080: 6325 683d 29bf 1d3c 544b e3bc aa26 0e3d
00000090: e5c1 d9bc b582 cf3d b586 cd3d e466 563d
000000a0: aef4 82bd 65e7 cc3c c052 a03c 3fdf c93d
000000b0: 5949 4abd 01d6 ed3c 091d 63bd f9dd 8dbd
000000c0: 8e10 74bd fa7e 283b 818f edbb 887f c03d
000000d0: 22cc 433d f9e2 b03c 29da cabb 4b0c 27bd
000000e0: 0f64 a03d afb7 e13c 8ed6 903d 485d f33d
000000f0: 2357 913d 2c5c 5a3c 27c5 193c 6543 3abd
00000100: 79a8 963c 5cdf cebb 87c6 ad3c 3e35 dcbc
00000110: 2696 283d 8fa8 413d 1572 743d 00a7 28bc
00000120: 3426 ea3c 7f59 9f3d 2c01 e6bc 8f1e ca3d
00000130: 8e66 1fbd b4b1 d53d 5cf5 45bd c412 983d
00000140: 31df 94bc 2051 f9bc b2f7 9f3c c3bc 88bd
00000150: b110 e8bc 98e4 9f3d 982a c5bb 5b41 2d3d
00000160: 09aa dfbc a8b6 8fbd 9746 e03c 9af6 333d
00000170: b7c1 70bd bce6 893c 2d49 a63d 554f 873d
00000180: 3640 e03d da48 9cbc d92f 5e3d cb5b 233d
00000190: 6f8d c33d 3f48 76bd b628 783d b0d5 b93d
000001a0: ea60 c03d 8184 813d cfeb 493d 641b d8bc
000001b0: 404d 4bba de02 77bc 3bf1 05bd ad99 a23d
000001c0: b691 863c df35 4c3c 2beb 9fbd a8dc 9f3d
000001d0: 8b61 3ebd 0f9f b0bc 1084 b93d 6e22 f13d
000001e0: 1c6e 48bd 0791 d53d 8554 043d 58fb 123d
000001f0: ccee 0d3d 9365 b43d 9213 4e3d 1ea2 c9ba
00000200: ebce 6d3d c0d5 583d 7b6c 073e 3add a53d
00000210: 2cb5 77bd 0bf4 94bc 4026 2f3d 4d93 f83c
00000220: d2ce 263d ce35 8b3c 6bf0 8abc 8d64 76bd
00000230: 238a 63bc b182 a53d 2373 09bd 8655 ce3c
00000240: b8d6 01bd 6bb5 523d 2528 d33d 6607 72bd
00000250: 06b1 8c3d 8656 60bd 1eac 523d a489 363d
00000260: 71f8 023d cbda acbd c90c 033d e70d a73c
00000270: 46e9 32bc a5a4 983c 0d5b c23d 4178 8a3d
00000280: 33a2 653d 1971 3fbd f2e2 1a3c ab80 9b3c
00000290: 70a0 77bd e7d6 20bc 27be 553d ebba d73c
000002a0: f41c 843d 1a43 5fbc 56af b13d 0c4c 63bd
000002b0: d3eb 763d 649b 9e3c edd9 603d 7463 a7bc
000002c0: af27 bbbc e4de 32bd c478 af3d 6f3b 983c
000002d0: 6a4b 8b3d 46cc c33d c6a8 ac3d e014 bd3d
000002e0: 4fcd 07bd 27fd 07bd 07a8 a93d 1f8b cf3d
000002f0: efe9 8a3d 6312 c13c 136e 523d bf1e 083c
00000300: d419 1a3d 3c0b 8d39 50a5 0d3e d073 ad3d
00000310: db2c c73d 7e20 4fbd 5ba7 60bc 0c04 3c3d
00000320: 144c ecbc 29f2 413c 1a90 23bd 56e6 093d
00000330: c3ce b93c c469 a5bc d59d 3a3d 55b0 ee3c
00000340: d5f0 6b3d e36b 623d 7b28 39bc 22c3 7c3d
00000350: 4914 c93d a58d 80bd 8e28 9cbc d0c0 533a
00000360: b6a4 b63d eda8 3cbd efb9 0bbd 0a21 98bc
00000370: 89ff acbd 8b1c 29bd 1b3e 8e3d 9429 4a3d
00000380: b733 b53d ff46 e93c 5081 4bbd 5d39 ac3b
00000390: 4ee0 8bbd fe46 013d 82ed 163d 5ded b43d
000003a0: bff9 663d d522 3bbd 02c5 093e 0a80 4bbc
000003b0: 8e59 113d 4c28 8e3d d64c 00bc 2657 a93b
000003c0: 8cfe 08bd 2703 edbc ce6e 22bd 331d 903c
000003d0: 4007 6fbd 44fc 80bc 494b d83d 1e5d 83ba
000003e0: 2ba4 c8bc a51d c93d 3cfc 20bc b8b0 d13b
000003f0: e0d2 77bd f94f 1b3d afea 15bd d0bb 7e3d
0.025712604 0.12446034 -0.022000864 -0.012892304 0.08851795 0.023824012 -0.053096246 0.09773951
0.06742019 -0.010147644 -0.03287079 0.042795554 0.048819877 0.042201668 -0.048413686 0.092961885
0.08159697 0.10850732 0.11976737 0.024887849 -0.051384103 -0.009754516 0.085569374 0.0841929
0.02352476 0.008082167 0.008591169 0.033026095 0.091957346 -0.07786907 -0.026208637 0.061045434
0.05667628 0.009628096 -0.02774588 0.03470484 -0.026581714 0.10132352 0.10035459 0.052344218
-0.06394325 0.025012681 0.019570708 0.09857034 -0.049386356 0.02903271 -0.055447612 -0.069271035
-0.0595861 0.002571045 -0.007249773 0.09399325 0.047802098 0.021592604 -0.0061905575 -0.040783208
0.07831585 0.027553407 0.07072173 0.11883026 0.07096698 0.01332764 0.009385384 -0.04547443
0.01839088 -0.0063132476 0.02121283 -0.026880857 0.041158818 0.04727989 0.05967911 -0.010293722
0.02858267 0.07780742 -0.02807673 0.0986911 -0.038916163 0.10434285 -0.048329696 0.07425454
-0.018172832 -0.030434191 0.01952729 -0.066766284 -0.028328272 0.07807273 -0.0060170405 0.042298656
-0.027302759 -0.07017261 0.02737741 0.04393635 -0.05877849 0.016833656 0.08119426 0.06606928
0.10949747 -0.019077707 0.05424485 0.039882462 0.09548461 -0.060127493 0.0605857 0.09073961
0.09393485 0.06324101 0.04929715 -0.026380248 -0.00077553466 -0.015076367 -0.03270076 0.079394676
0.016426902 0.012464016 -0.078085266 0.07805759 -0.046479743 -0.02156022 0.09058392 0.11774145
-0.048933133 0.104280524 0.032307167 0.03588423 0.034651563 0.08808436 0.050311632 -0.0015383398
0.05805866 0.052938223 0.13224976 0.08098836 -0.060475513 -0.018182775 0.042761087 0.030343676
0.040724583 0.01699343 -0.016960343 -0.060154486 -0.013887915 0.08081568 -0.03355707 0.025187265
-0.031698912 0.051442545 0.10310391 -0.059089087 0.06869702 -0.054770015 0.051433675 0.044564858
0.031975213 -0.08440169 0.031994615 0.020392371 -0.0109198745 0.018633196 0.09490023 0.06761218
0.05606289 -0.046738718 0.009453522 0.018982252 -0.06045574 -0.009816862 0.052183297 0.026334247
0.06450835 -0.013626838 0.08676021 -0.055492446 0.060283493 0.019361205 0.05489533 -0.020433165
-0.022846071 -0.043669596 0.08567956 0.018583028 0.068014935 0.095604464 0.084306285 0.09232497
-0.033154782 -0.03320041 0.08284002 0.10133957 0.067829005 0.023568338 0.051374506 0.008308112
0.037622288 0.00026901986 0.13832593 0.08469355 0.097253524 -0.050568096 -0.013711776 0.045902297
-0.02884487 0.011837521 -0.039932348 0.03366693 0.0226816 -0.020192035 0.045560677 0.029136816
0.057602722 0.05527867 -0.011301155 0.06170953 0.09818322 -0.062770166 -0.019062307 0.00080777425
0.08918135 -0.046059538 -0.034112867 -0.018570442 -0.08447177 -0.041286986 0.069454394 0.04935606
0.088477544 0.028476236 -0.04968387 0.0052558617 -0.06829892 0.031561844 0.0368476 0.08834336
0.05639052 -0.045687515 0.13454059 -0.012420664 0.035485797 0.0694128 -0.007830819 0.0051678596
-0.03344588 -0.028932167 -0.039656453 0.017592048 -0.058356524 -0.01574529 0.105612345 -0.0010022258
-0.024492344 0.09820107 -0.009825762 0.0063992403 -0.06050384 0.037918065 -0.036600765 0.06219083

fc.weight f4 [5, 128]
00000000: eca3 debc f51d 91be 414d ccbc a093 e1bd
00000010: d7a8 0dbe dcf3 c7bd 11b5 143c 7bc8 d9bd
00000020: 23ea 3c3d abdb c5bc af22 fe3d dec5 c73d
00000030: 971c c63d e53f 6bbe dd40 5d3d 294d 5f3e
00000040: cae1 4cbd 4257 0e3e 4fd4 1b3e 7cf5 8e3d
00000050: 7346 e0bd dc2c 3b3e c8c5 953d 8a79 cfbd
00000060: de85 84be b6a6 8b3d 13cb f53d 927b cc3d
00000070: d9cf 68bd 8ac3 99bd ded0 56be da2d e2bd
00000080: 3b1b ff3c aa36 21bc 6021 2abd d09d 6a3d
00000090: e48d 79bd 92d3 20bb 556f 3f3d 8a36 48be
000000a0: c667 1c3c e9cf be3d ebaa 8a3d 34b9 f9bd
000000b0: a7a6 afbc 86f3 03be 82d8 fdbd a9d8 933d
000000c0: 4857 44be 3abd 6bbd 59ce 18be 9a2e ca3d
000000d0: a9e9 2abd c2c3 6abe 010e a7bd 1ed7 df3d
000000e0: c629 23bc aeb4 ba3c 49bf 90bd 0d1d 353d
000000f0: 21cf 29be f489 163d fe6f 2dbb 6807 bb3d
00000100: d4b4 c6bd 0a1d 713d 9adf 4f3d 7442 143e
00000110: 01ae 4f3e fa46 0fbe fa16 1dbd 4b7e 91bc
00000120: b0c5 e43b b3f9 3e3e e50a 97bd ac8b c23d
00000130: 0fde 16bd d92c e23c db6b 3ebd 6b55 0c3e
00000140: b68e 81bb 4dd6 a1bd 28f1 ae3d 3fb7 1f3d
00000150: a8a2 45be 08f4 85bd 8e48 7f3b 92fe 9cbc
00000160: 22c8 443d d6ef 9bbd 5bad bb3d b22f 8c3d
00000170: 7b47 24be 5d47 c93b c422 4c3b 5cc7 e3bc
00000180: f387 143d 9333 173d 9fa7 7ebc eb11 7abd
00000190: 3fdd a83d 6ccb f53c 628e e83d ca85 34bc
000001a0: 599e 0e3e 5827 acbd 27d1 173d 2e6b af3d
000001b0: b94e ce3c c6ed c93c ced4 d73d 2d73 febc
000001c0: 5754 85bc 4cde a83d 740e d73d 3078 b8bd
000001d0: cc0a 7d3c 5a12 2b3e a2d5 fb3d cc73 913d
000001e0: d458 43bd 53fb 9b3c d9e6 0c3e e5c9 f73d
000001f0: 25bf 17bd 861f 003e 4ab0 af3d 2863 f0bd
00000200: d46b 17be 5f59 1cbe d922 9c3e 1849 73be
00000210: 52ce dabd 39fc 15bd 9662 5e3e 615b d4bd
00000220: 0768 9cbe d5b7 9fbd 145c c0be 3a9a 1b3e
00000230: a210 3d3e acf3 f8bd 8253 12bd 9a39 363d
00000240: 521d 373d 7bfc babe cd3b 8d3e 8d6e cb3d
00000250: 5c74 09be 5bc5 003e fba2 c63b c949 653c
00000260: 7847 41be abe0 8bbd 0445 283e e3ac 0fbe
00000270: 7179 12be 2c07 c1bd 725f 99be 3917 fc3d
00000280: 5b36 6c3d b4df debb 36d3 a1be e52f 3fbe
00000290: 6eb3 973d 9028 91be d636 b3be 4b61 17be
000002a0: 9fcd 89be c91e 7b3e 42d6 8f3b 4c11 6d3d
000002b0: 5cc0 62bd e629 bfbb 58e0 2e3e 3530 213e
000002c0: 693e bfbb 57d6 55be 8a70 0e3d d797 4ebd
000002d0: 1bc0 0e3e 9552 d33d 18b3 8fbe d18d 953e
000002e0: d1d3 16bd b40b 513d 0be6 8b3b 93b9 ea3e
000002f0: 65e5 9bbe 4a80 6ebe 9ce3 863e 2d24 313d
00000300: 4be1 1bbd 3cd2 acbd c297 a53e 441d 23be
00000310: 5b86 2f3d 24a9 35be 2a52 c33d 8559 a33d
00000320: 3173 33bd ef7f d4bd bdd6 fb3c d0fc 9fbd
00000330: f2a0 303e dfe0 993e a839 82bd ec7a f53e
00000340: c8ef f43d e478 673e cdda a53e 054e 633e
00000350: f52f 30bd f2a7 38be 1a0e 943e 7376 91bd
00000360: a7a0 a93e f8c2 34be 8ac3 2b3e 8a12 99be
00000370: a614 89bd 57b3 39bd 92de ae3d 56c7 383d
00000380: 1264 9dbe 0c08 db3c f272 153e 0777 163d
00000390: 12aa 61be 668f 1c3e c875 d3bd dc52 983e
000003a0: 67ea 1e3e 1ef9 93be 9ddc fc3e 4e3f 60bd
000003b0: a06b 55be 396e 85bd 97ed a03c 82ce 003d
000003c0: d5c7 72be 9d29 0c3d 3bc7 09be 0220 7cbe
000003d0: 3238 83be 0963 853e 4ed5 a53e af92 8b3e
000003e0: 75fe fabc 74f6 983e bb17 a73e 9bbd 373e
000003f0: 6c74 ebbd b5a2 6e3d 5562 703e 3c91 803e
-0.027177773 -0.28343168 -0.024939181 -0.11014485 -0.13833939 -0.09763309 0.009076373 -0.10633942
0.046121728 -0.024152597 0.12408959 0.09754537 0.09673422 -0.22973593 0.054016937 0.21806778
-0.050020017 0.13900474 0.15217708 0.06980416 -0.10950937 0.18278831 0.073131144 -0.101306036
-0.25883383 0.06818907 0.12001624 0.09984507 -0.056838844 -0.07507999 -0.20978114 -0.11043902
0.031140914 -0.009839693 -0.041535735 0.057279408 -0.060926333 -0.0024540168 0.046737034 -0.19552055
0.009546226 0.093169995 0.06770881 -0.12193528 -0.02144177 -0.12885866 -0.12394811 0.07219059
-0.1917392 -0.057553507 -0.14922465 0.0987217 -0.041726742 -0.22926238 -0.08156968 0.10929702
-0.00995869 0.022791233 -0.07067735 0.044217158 -0.1658292 0.036752656 -0.0026464458 0.09132272
-0.09702459 0.058865584 0.050750352 0.14478475 0.20281221 -0.13991919 -0.03835199 -0.017760416
0.006981574 0.1864994 -0.07375125 0.094992965 -0.036832865 0.027609276 -0.046489578 0.1370446
-0.00395378 -0.07902203 0.08542091 0.038993116 -0.1930033 -0.06540686 0.0038953158 -0.019164357
0.048042424 -0.076141044 0.09163924 0.06845035 -0.16042893 0.0061425404 0.0031148652 -0.027805023
0.036262464 0.03691442 -0.015542894 -0.061052244 0.08245324 0.030004226 0.11355282 -0.011018226
0.13927592 -0.08405942 0.037064698 0.08565365 0.025184022 0.024649512 0.10538636 -0.03106078
-0.016275568 0.08245525 0.105008036 -0.09007299 0.015444469 0.1670622 0.122966066 0.071021646
-0.047692135 0.01904074 0.13759936 0.12099055 -0.037047524 0.12512025 0.08578546 -0.117376626
-0.14787227 -0.15268467 0.30495337 -0.23758352 -0.10683884 -0.03661749 0.21717295 -0.10368992
-0.30548117 -0.07798735 -0.3757025 0.15195552 0.18463376 -0.12155852 -0.03572417 0.044488527
0.044705696 -0.36520752 0.27584687 0.09933195 -0.13423294 0.12575285 0.0060619093 0.0139946425
-0.1887492 -0.068299614 0.16432577 -0.14030795 -0.14304139 -0.09425196 -0.29955631 0.12309117
0.057669025 -0.00680157 -0.31606454 -0.18670614 0.0740727 -0.2835126 -0.35002774 -0.14783208
-0.2691469 0.24523462 0.004389555 0.057877824 -0.05535923 -0.005833852 0.17077768 0.15741046
-0.0058362973 -0.20882545 0.034775294 -0.050437775 0.1394047 0.10318486 -0.28066325 0.2920976
-0.036823098 0.05103655 0.0042693666 0.45844707 -0.30448452 -0.23291126 0.26345527 0.04324739
-0.038056653 -0.084385365 0.32342345 -0.15929133 0.04285274 -0.17740303 0.09537156 0.07976059
-0.043811027 -0.10375964 0.030742044 -0.07811892 0.17248896 0.30054376 -0.06358653 0.47945344
0.11959797 0.2260471 0.32393494 0.22197731 -0.043014485 -0.18032816 0.2891701 -0.071026705
0.3313038 -0.176525 0.16773811 -0.29896957 -0.066933915 -0.045337047 0.08538546 0.045111977
-0.3074041 0.026737235 0.1459463 0.036734607 -0.22037533 0.15289077 -0.10325199 0.29750717
0.15519105 -0.28901 0.49387065 -0.054747872 -0.20841837 -0.06515164 0.019644542 0.03144694
-0.23709042 0.034219373 -0.13454907 -0.24621585 -0.2562881 0.2605212 0.323893 0.27260348
-0.030638913 0.2987553 0.32635292 0.17943422 -0.11496815 0.05826064 0.2347501 0.25110805

fc.bias f4 [5]
00000000: 1eeb 093f 338e 01be 6d25 683e e203 c4be
00000010: b660 babe
0.53874385 -0.12651901 0.22670527 -0.38284212 -0.3640191
