models/2.0-recurrent-neural-network-model.pth (torch, 72458 bytes, 6 tensors)

rnn.weight_ih_l0 f4 [128, 3]
0	0x3dba8ce2	0.091089025
1	0xbd8abd19	-0.06774349
2	0xbbc5e080	-0.0060387254
3	0x3da25cd9	0.079278655
4	0xbcdd1477	-0.026987297
5	0xbd48ed4e	-0.049054436
6	0x3e09774b	0.13424413
7	0xbc3bc0ca	-0.011459539
8	0x3d660ab5	0.056162555
9	0xbdee9e5d	-0.11651299
10	0xbdb4f264	-0.08835295
11	0xbe0b482b	-0.13601749
12	0x3d082f25	0.033248086
13	0x3d035c5a	0.032070495
14	0x3dfd853f	0.1237893
15	0x3eadd558	0.3395183
16	0x3d15d6e9	0.036581907
17	0x3ddc2c6e	0.10750662
18	0xbe1aa11e	-0.15100524
19	0x3c768225	0.015045677
20	0xbe230231	-0.15918805
21	0xbdc8b100	-0.09799385
22	0x3d0bfdee	0.034177713
23	0x3cff4812	0.031162295
24	0xbd292b26	-0.041300915
25	0xbe327f37	-0.17431341
26	0x3daa512d	0.08316264
27	0x3b43fe2e	0.0029906142
28	0x3d87a776	0.066237375
29	0x3e400bde	0.18754527
30	0xbeb2753f	-0.34855077
31	0xbdb14006	-0.086547896
32	0xbe2d5ff6	-0.16931137
33	0xbdc0ad60	-0.09408069
34	0xbd3e3630	-0.046438396
35	0x3dd3bb18	0.1033842
36	0xbde65f77	-0.11248677
37	0xbe05bbfa	-0.13059989
38	0xbd7fe4fe	-0.062474243
39	0xbd17f12c	-0.037095234
40	0xbd190fdf	-0.03736865
41	0x3bbf969e	0.0058468124
42	0xbb406baa	-0.0029361048
43	0x3dc234f0	0.09482753
44	0x3e420f0d	0.18951054
45	0x3e16a521	0.14711429
46	0x3bee49d7	0.007271986
47	0x3d8bed34	0.06832352
48	0xbd7eee42	-0.06223894
49	0x3d2000b2	0.039063163
50	0x3e0d6481	0.1380787
51	0x3de21d7d	0.11040781
52	0x3dc61d96	0.09673612
53	0xbbf8f496	-0.0075975163
54	0x3e899443	0.26870927
55	0x3e00d6ac	0.12581891
56	0xbd60be28	-0.054868847
57	0x3c95619e	0.018235024
58	0xbd15fc3b	-0.0366175
59	0xbdd4ec45	-0.10396627
60	0x3db46fea	0.088104084
61	0xbb6a2663	-0.0035728447
62	0x3d8a4137	0.0675072
63	0xbd5b65da	-0.05356393
64	0xbcc4c448	-0.024019375
65	0xbc8707ee	-0.016483273
66	0xbc8ed76b	-0.017436704
67	0xbe508570	-0.20363402
68	0x3ce17fa9	0.027526693
69	0x3dcf0539	0.10108418
70	0x3dcca640	0.09992647
71	0x3b601031	0.0034189338
72	0xbe890aab	-0.26765952
73	0xbdfb9bf2	-0.122856036
74	0xbe82e87b	-0.25567994
75	0x3d2fcc3e	0.04291939
76	0xbd53bcb0	-0.05169362
77	0x3de130b2	0.10995616
78	0x3ea6a881	0.32550433
79	0xbb860b75	-0.0040907213
80	0x3e37967d	0.179285
81	0x3e11f80d	0.1425478
82	0x3e3605be	0.17775628
83	0x3e088130	0.13330531
84	0xbd507abb	-0.050898295
85	0x3a535232	0.0008061259
86	0xbdbf81b7	-0.09350913
87	0x3e097aab	0.134257
88	0x3ca0c617	0.019625707
89	0x3de366f2	0.1110362
90	0x3e447f8c	0.1918928
91	0x3d11e02d	0.03561418
92	0x3d17fc8b	0.037106078
93	0xbe64cdb0	-0.22344089
94	0x3d154fd1	0.036453072
95	0xbcfc32db	-0.030785969
96	0xbe1a0d4a	-0.15044132
97	0xbd41873a	-0.047248103
98	0x3e0a4c41	0.13505651
99	0x3d07dde4	0.033170596
100	0xbdcbf45b	-0.099587165
101	0xbe24fc70	-0.16111922
102	0x3d51c393	0.051211905
103	0xbdce4c7c	-0.10073182
104	0x3e06de93	0.13170843
105	0xbe485639	-0.19564141
106	0xbe20fd73	-0.15721683
107	0x3d2c6894	0.04209192
108	0x3e4c9087	0.19977008
109	0x3d4e0c53	0.050304722
110	0xbe155246	-0.14582166
111	0xbe37435e	-0.17896792
112	0x3b5f715d	0.003409467
113	0x3e543235	0.20722277
114	0x3e0a0cb6	0.13481411
115	0x3d150b50	0.03638774
116	0xbd6c84f1	-0.05774397
117	0xbebb4f69	-0.36584023
118	0xbd165e8e	-0.036711268
119	0xbe60a017	-0.2193607
120	0xbe507f83	-0.20361142
121	0xbb400ec1	-0.002930567
122	0x3d0d3a4d	0.034479428
123	0xbd849166	-0.06473045
124	0x3d186604	0.037206665
125	0xbd02179a	-0.03176079
126	0x3e12b60d	0.1432726
127	0x3d90afc2	0.07064773
128	0xba75a41c	-0.00093704625
129	0x3daf1f0f	0.08550846
130	0xbdd4c91e	-0.103899226
131	0x3e970349	0.29494694
132	0xbdb00df5	-0.08596412
133	0x3ddc0850	0.10743773
134	0x3d599634	0.05312176
135	0xbd9b8d2e	-0.07595287
136	0xbdabefc2	-0.083953395
137	0xbe4e02f8	-0.2011832
138	0xbd84bb33	-0.06481018
139	0xbe1b09b9	-0.15140428
140	0x3dbeb582	0.093119636
141	0xbdac3706	-0.084089324
142	0xbcf3a27a	-0.02974056
143	0xbec9659e	-0.3933534
144	0xbefb2e7c	-0.49058902
145	0xbd949b98	-0.0725624
146	0xbe567ab0	-0.20945239
147	0x3dcb52c5	0.099278964
148	0x3dc16cef	0.094446056
149	0x3cd6c1aa	0.026215393
150	0xbc84a72c	-0.016192995
151	0xbe27d50e	-0.16389868
152	0x3dc29139	0.09500355
153	0x3e4fab2e	0.20280144
154	0xbdaaab38	-0.08333439
155	0x3d2fa3fd	0.042881
156	0x3e988728	0.29790616
157	0xbdf3e9ca	-0.11909826
158	0x3e2ec9b5	0.17069133
159	0x3d98efc3	0.07467606
160	0x3b8aa662	0.00423126
161	0xbdacfdeb	-0.084468685
162	0xbb0fd93e	-0.0021949555
163	0x3dddf94d	0.10838566
164	0x3c710f9a	0.014713192
165	0xbdd7e6c0	-0.10542059
166	0x3d1ee63d	0.03879379
167	0xbd5ea947	-0.054360654
168	0xbe32fd92	-0.17479542
169	0xbda70d74	-0.08156863
170	0x3d745890	0.059654772
171	0x3ce1d5b6	0.027567726
172	0x3ddc2298	0.10748786
173	0x3e7485d3	0.23879175
174	0xbe38b3b8	-0.18037307
175	0xbd8a1b06	-0.067434356
176	0x3ae4a781	0.001744494
177	0x3e3431cd	0.17597122
178	0x3d53edcf	0.051740464
179	0x3e259e56	0.16173682
180	0x3d9ad069	0.07559282
181	0xbdf80515	-0.12110344
182	0xbdf824fb	-0.121164285
183	0xbec68c5e	-0.38778967
184	0xbd8895b2	-0.06669177
185	0xbd90aac2	-0.070638195
186	0x3e63ea34	0.2225731
187	0xbcd344b1	-0.02578959
188	0x3d25786d	0.04039805
189	0x3d7e5385	0.06209137
190	0xbd969d3f	-0.07354211
191	0x3e718fae	0.23589966
192	0xbe3fce0c	-0.18730944
193	0xbdadc0e2	-0.08484055
194	0x3d2d63c9	0.04233149
195	0xbe853bdd	-0.26022235
196	0xbdd6cede	-0.104886755
197	0xbb801dda	-0.0039098086
198	0x3e8f01cb	0.27931055
199	0xbd416f17	-0.047225084
200	0x3e8a8708	0.27056146
201	0xbeb92855	-0.36163583
202	0x3d258600	0.040410995
203	0xbe56549e	-0.20930716
204	0xbdbdce0a	-0.092678145
205	0x3c6d5132	0.0144846905
206	0xbddb2c37	-0.10701793
207	0x3e210517	0.15724598
208	0xbd5e450f	-0.05426508
209	0xbe28756b	-0.16451041
210	0xbdec085b	-0.11525031
211	0xbdfb8e67	-0.122830205
212	0x3d2ce8ba	0.042214133
213	0xbe8dae16	-0.2767188
214	0x3d5301af	0.051515277
215	0xbd280a6e	-0.04102557
216	0xbde486a3	-0.111584924
217	0x3ddefd2b	0.10888132
218	0xbc620795	-0.013795753
219	0xbe1867c1	-0.14883329
220	0x3dac9e37	0.084286146
221	0xbd487263	-0.048937213
222	0x3e686b99	0.22697295
223	0x3d157f8e	0.0364986
224	0x3e4c53b3	0.19953804
225	0xbe46ac98	-0.19401777
226	0xbd658bc4	-0.056041494
227	0xbe25de39	-0.16198052
228	0x3e4dcea0	0.20098352
229	0x3d669b13	0.056300234
230	0x3d8382f1	0.064214595
231	0xbd19e257	-0.03756937
232	0xbdccf5cf	-0.10007822
233	0xbc96ed1e	-0.018423613
234	0x3e16418c	0.14673442
235	0xbd09c6fe	-0.03363704
236	0x3de79ad7	0.1130883
237	0x3e159ddf	0.14611004
238	0xbd70e5f1	-0.05881304
239	0x3e45eea3	0.19329314
240	0xbbd27954	-0.006423155
241	0x3dab0e14	0.083522946
242	0x3e45e732	0.19326475
243	0xbea544e8	-0.32279134
244	0xbe337e82	-0.17528728
245	0xbe37c53d	-0.17946334
246	0x3e1de7eb	0.15420501
247	0x3dce204b	0.10064753
248	0x3db7b93b	0.08970877
249	0x3e9af533	0.30265197
250	0x3dd12ce7	0.102136426
251	0x3e6b47bc	0.22976583
252	0xbe216a43	-0.15763192
253	0xbd775814	-0.060386732
254	0x3cb6c81c	0.022312216
255	0xbea1f466	-0.31631774

rnn.weight_hh_l0 f4 [128, 128]
0	0x3df09ebb	0.117490254
1	0xbd389dc5	-0.045072336
2	0x3d96a098	0.073548496
3	0x3c84d1f9	0.016213404
4	0x3cd1fb2c	0.025632463
5	0xbda2c653	-0.079479836
6	0x3d40a472	0.047031827
7	0x3c0047a3	0.0078295795
8	0xbc9a3dd8	-0.018828318
9	0x3d7377be	0.059440367
10	0xbd43e94e	-0.04782992
11	0xbdaa3917	-0.0831167
12	0x3dcc5a1e	0.09978126
13	0xbdb1f4cf	-0.08689272
14	0xbd5de213	-0.05417068
15	0xbb4d2047	-0.0031299756
16	0x3d5c7ea7	0.053831723
17	0xbd4f8516	-0.05066403
18	0x3ac808af	0.0015261377
19	0xbd999738	-0.07499546
20	0x3cb13642	0.021632317
21	0xbc9e04d5	-0.019289413
22	0xbd9ad140	-0.075594425
23	0xbd0c8649	-0.03430775
24	0x3dd88bea	0.105735615
25	0x3d068249	0.032839093
26	0xbd25304b	-0.04032926
27	0x3da2a72e	0.07942043
28	0xbd9811f0	-0.07425296
29	0xbc667a66	-0.014067268
30	0xbb96ae3b	-0.0045984066
31	0x3d456331	0.0481903
32	0x3d09efd6	0.03367599
33	0x3dcb4a97	0.09926336
34	0xbddff79e	-0.10935901
35	0x3d98bc58	0.07457799
36	0x3d9f241a	0.07770558
37	0xbdc6fe1d	-0.09716437
38	0xbdb554c8	-0.08854061
39	0xbcd6ea4e	-0.026234772
40	0xbda1f279	-0.07907576
41	0xbd9cbea1	-0.07653547
42	0x3d972a4c	0.07381114
43	0xbd3d834a	-0.046267785
44	0x3d7a4192	0.06109769
45	0x3c4f43f5	0.01265048
46	0xbd4f22cd	-0.050570298
47	0xbd29cb4e	-0.041453652
48	0x3dccb8d6	0.09996192
49	0xbddb1873	-0.10698023
50	0xbcfffc2e	-0.031248178
51	0xbbde6fe6	-0.0067882417
52	0x3da717e1	0.081588514
53	0x3d56734f	0.05235606
54	0x3cf8f8db	0.030392101
55	0xbcce4f23	-0.02518422
56	0x3d28c4ec	0.041203424
57	0x3d993f17	0.074827366
58	0xbd2c7b30	-0.04210967
59	0xbdbbebd3	-0.09175839
60	0xbd9f6cbd	-0.07784412
61	0xbc82d2fd	-0.015969748
62	0x3d53978c	0.0516582
63	0xbdfb2439	-0.12262768
64	0xbc859ae3	-0.016309207
65	0xbc7625f8	-0.015023701
66	0xbdb15631	-0.08659018
67	0x3bb0e04b	0.0053978316
68	0xbbd424e2	-0.0064741233
69	0xbc03af56	-0.008037409
70	0x3d4103a4	0.047122613
71	0xbdede30a	-0.1161557
72	0xbd7bff36	-0.061522685
73	0xbd822503	-0.06354716
74	0x3cbcd016	0.023048442
75	0xbd21261c	-0.039342985
76	0xbd96596d	-0.07341275
77	0xbd1db8a9	-0.038506184
78	0x3d14b30d	0.03630357
79	0xbd9724ab	-0.07380041
80	0xbd125646	-0.035726808
81	0x3df07412	0.11740889
82	0x3dd5a993	0.10432734
83	0xbd81fa6b	-0.063465916
84	0x3d941a8b	0.07231625
85	0x3d517979	0.051141236
86	0x3accdbd8	0.0015629483
87	0x3dba825c	0.09106895
88	0xbd2935c8	-0.041311055
89	0x3d788c52	0.060680695
90	0xbd9b98ba	-0.0759749
91	0xbd7f8fa4	-0.062392846
92	0xbcbf8290	-0.023377687
93	0x3d6d016b	0.05786268
94	0xbd9fd1ba	-0.07803674
95	0xb9adab3a	-0.00033124705
96	0x3ced8083	0.028991943
97	0x3c549826	0.012975728
98	0x3d989896	0.074509785
99	0xbd4f3ff9	-0.05059812
100	0xbd7951a5	-0.060868878
101	0xbde35f61	-0.111021765
102	0xbd736ed7	-0.059431877
103	0xbd8bfe73	-0.06835642
104	0xbda6b2f5	-0.08139602
105	0xbcb878c0	-0.022518516
106	0x3de05985	0.109545745
107	0xbcc639d0	-0.024197489
108	0x3d583a6f	0.0527901
109	0xbd41522b	-0.047197502
110	0x3da6fd44	0.08153775
111	0x3d4be53a	0.049779154
112	0xbd3f7cc6	-0.046749853
113	0x3caa8283	0.020814186
114	0x3ba1c0dd	0.004936321
115	0x3d6b5eab	0.05746333
116	0x3c7f5da6	0.015586292
117	0xbc3da7f3	-0.011575687
118	0xbd1ac585	-0.037786026
119	0x3caa57ea	0.020793874
120	0x3d6934ef	0.056935247
121	0xbcd6b8b3	-0.026211118
122	0xbd2355da	-0.039876796
123	0xbdbbde26	-0.09173231
124	0x3da9c80c	0.08290109
125	0x3dacb6e8	0.08433324
126	0xba023fa4	-0.00049685896
127	0x3dbba9af	0.09163224
128	0xbd88028a	-0.06641109
129	0xbd915dfd	-0.07098005
130	0x3bc7ec09	0.0061011356
131	0x3cfc214a	0.030777592
132	0xbdb5698c	-0.08858022
133	0x3c9f392d	0.019436443
134	0xbd6857be	-0.056724302
135	0x3da87f49	0.08227403
136	0xbd42e5b1	-0.047582332
137	0xbd8ebc71	-0.06969536
138	0x3a96dfbb	0.0011510769
139	0xbd73e3d1	-0.059543435
140	0x3d821474	0.063515574
141	0x3d5b1113	0.05348308
142	0xbd4155ff	-0.047201153
143	0xbd67b57e	-0.05656957
144	0xbc895431	-0.016763778
145	0x3b974f64	0.0046176184
146	0xbd27f2b7	-0.041002955
147	0x3cb8a7ae	0.022540893
148	0xbdb9293e	-0.090410694
149	0xbd27a967	-0.04093304
150	0xbd8e9d9f	-0.069636576
151	0xbd629193	-0.05531461
152	0xbdb6ba0d	-0.08922205
153	0x3db4a66e	0.088208064
154	0xbc7fc46d	-0.015610796
155	0xbdac8cb1	-0.08425272
156	0xbd2b783b	-0.041862708
157	0x3d61545d	0.055012096
158	0x3d8b8fef	0.068145625
159	0x3d18b699	0.037283514
160	0x3d7a33f0	0.061084688
161	0x3d8e2991	0.06941522
162	0x3cec3049	0.028831618
163	0xbd3efe83	-0.04662944
164	0xbda45a80	-0.08025074
165	0xbd097125	-0.03355517
166	0x3da445a2	0.08021094
167	0x3d948b46	0.07253127
168	0xbd904fae	-0.07046448
169	0x3d799e59	0.060942028
170	0x3bc5a30a	0.0060313987
171	0x3d7d5d5b	0.06185661
172	0xbc8a7cf6	-0.01690529
173	0xbc802c66	-0.01564617
174	0x3d3dec2e	0.046367817
175	0xbcb412a4	-0.021981545
176	0xbda80ced	-0.082055904
177	0x3cb200c3	0.021728879
178	0x3ca53c84	0.020170458
179	0xbd82652e	-0.06366955
180	0xbad261fe	-0.0016050932
181	0xbd80c9d0	-0.06288493
182	0x3c6510dd	0.013981071
183	0x3cb9c86f	0.022678582
184	0xbca3687c	-0.019947283
185	0x3d508b0a	0.050913848
186	0x3c0ac156	0.008468946
187	0xbc4e414e	-0.012588812
188	0x3d6bdcd7	0.057583656
189	0xbda4a84d	-0.08039913
190	0xbd5fbb33	-0.054621886
191	0xbcef7608	-0.029231086
192	0x3cc339b9	0.023831235
193	0xbdaca42d	-0.084297515
194	0xbd6bd68d	-0.05757766
195	0x3d7743de	0.060367458
196	0x3dadd048	0.08486992
197	0xbda6da20	-0.08147073
198	0x3d75b93c	0.059991106
199	0xbdb078e4	-0.08616808
200	0xbacc02d8	-0.0015564812
201	0xbd09527d	-0.033525933
202	0x3d9fb499	0.07798118
203	0xbc2c5784	-0.010518912
204	0xbdc0f5b4	-0.09421864
205	0x3c3d9d57	0.011573157
206	0xbcdb3ee4	-0.026763387
207	0xbceadd4f	-0.028669981
208	0xbcb87d5b	-0.022520712
209	0xbd26a617	-0.04068574
210	0x3d6c6d42	0.057721384
211	0x3d8d47bb	0.06898447
212	0x3d9a3f25	0.07531575
213	0x3c87dc50	0.016584545
214	0x3d9f52b5	0.07779447
215	0x3cd3e52a	0.02586611
216	0x3d63d2f2	0.055621095
217	0xbd418dd7	-0.04725441
218	0xbd3cd88e	-0.04610496
219	0x3bb3dbc4	0.0054888446
220	0x3ddfe33f	0.10932016
221	0x3c1fb8fd	0.0097486945
222	0x3dd03d4d	0.10167942
223	0xbb33fb59	-0.0027463047
224	0xbd0200ba	-0.031738974
225	0x3cd0e928	0.025501803
226	0xbd6c8bb2	-0.05775041
227	0xbcf933c3	-0.03042019
228	0x3cbb387b	0.02285408
229	0xbd1bf9a2	-0.038079865
230	0xbd9180ec	-0.07104668
231	0x3d3721c9	0.044709954
232	0x3d7779e2	0.06041897
233	0xbd4da46b	-0.05020563
234	0x3d53dea7	0.05172601
235	0xbd6ad853	-0.05733521
236	0x3ca09a61	0.019604864
237	0x3d7da6c7	0.06192663
238	0x3cdcffe4	0.026977487
239	0xbc58832c	-0.013214868
240	0xbd8c4430	-0.06848943
241	0xbc982541	-0.018572452
242	0x3dcaa492	0.098946705
243	0x3c4f9cb1	0.0126716355
244	0x3c3c525f	0.011494248
245	0xbd45097f	-0.04810476
246	0x3d8c360e	0.068462476
247	0xbcb4bb12	-0.022061858
248	0xbd8e4e87	-0.06948572
249	0x3ceafeb5	0.028685907
250	0xbd639be1	-0.05556858
251	0xbbfe18b1	-0.0077544083
252	0x3dcbc53b	0.09949728
253	0x3a675eb0	0.000882606
254	0x3d0e1057	0.03468355
255	0xbdaac686	-0.083386466

rnn.bias_ih_l0 f4 [128]
0	0xbc5e7497	-0.013577602
1	0x3d98b080	0.0745554
2	0x3d3e8dd4	0.046521977
3	0x3cdafdc0	0.026732326
4	0xbc591c6a	-0.013251403
5	0x3ca284c7	0.019838704
6	0xbd61c826	-0.055122517
7	0x3cd4b521	0.025965275
8	0x3dd68ed9	0.10476465
9	0xbc5621d4	-0.013069589
10	0x3d02be21	0.031919602
11	0xbde36991	-0.111041196
12	0xbbfd9a29	-0.0077393246
13	0x3cecd617	0.02891068
14	0x3d6857ca	0.056724347
15	0x3d80ed57	0.06295269
16	0xbe01a1c9	-0.12659372
17	0xbd714006	-0.058898948
18	0xbca7cd09	-0.02048351
19	0x3ca73e4a	0.020415444
20	0x3d6505ad	0.055913616
21	0x3ce1822d	0.027527893
22	0x3da6a92e	0.08137737
23	0xbc53bfa7	-0.012924111
24	0xbc604f99	-0.013690853
25	0xbc2b93af	-0.010472222
26	0x3bb29909	0.005450372
27	0x3cc1fe2a	0.023680765
28	0x3dc094e2	0.09403397
29	0x3c522b08	0.012827642
30	0x3cecb184	0.02889324
31	0xbe0cb765	-0.13741834
32	0xbcae2262	-0.02125663
33	0x3db74079	0.08947844
34	0xbc9b8d8b	-0.018988391
35	0xbdaa634f	-0.08319723
36	0xbdc135db	-0.094341
37	0xbdae1459	-0.08499975
38	0xbc354bda	-0.011065448
39	0xbd61c941	-0.05512357
40	0x3d26e9dd	0.040750373
41	0x3c5b4634	0.013383437
42	0x3d453f3c	0.048156008
43	0xbbbc7759	-0.005751532
44	0xbd62c4b6	-0.05536338
45	0x3d8f6de1	0.070033796
46	0x3dc9a510	0.09845936
47	0xbd70f18e	-0.058824115
48	0xbde4c503	-0.111703895
49	0x3d37c19a	0.044862367
50	0xbc53c85f	-0.01292619
51	0x3d825c98	0.06365317
52	0x3d829e19	0.06377811
53	0x3cff1aeb	0.031140765
54	0x3d4a9a0e	0.049463324
55	0x3d86caf9	0.06581683
56	0xbdade992	-0.084918156
57	0x3cfbb08f	0.030723838
58	0xbd918104	-0.07104686
59	0x3db31fa0	0.08746266
60	0xbd915771	-0.07096756
61	0xbda49b31	-0.08037413
62	0x3c868c8a	0.016424436
63	0x3d0d1591	0.034444395
64	0x3ba2f3bd	0.0049729035
65	0x3d07d3c4	0.03316094
66	0x3d108c91	0.035290305
67	0xbd46b173	-0.048509073
68	0xbd57cbda	-0.052684642
69	0xbce88a16	-0.028386157
70	0xbdd5c19b	-0.10437318
71	0xbc70ebcb	-0.014704655
72	0x3c4a4aed	0.012346965
73	0xbbcb6bcb	-0.0062079183
74	0x3c973000	0.018455505
75	0x3c978e23	0.018500393
76	0x3cdc8c51	0.026922377
77	0x3cacf7bb	0.02111422
78	0x3ca1031f	0.019654809
79	0x3d422f5b	0.047408443
80	0xbd263a66	-0.040583037
81	0xbd185a43	-0.037195455
82	0x3d0d09f8	0.034433335
83	0xbc805d8d	-0.015669608
84	0x3cb5ef44	0.022208817
85	0xbd9e0aef	-0.07716929
86	0x3d901e58	0.070370376
87	0x3db8aefd	0.09017751
88	0xbc55fa56	-0.013060173
89	0xbaf86cc7	-0.0018953317
90	0x3ca47c9d	0.020078951
91	0xbd3a911a	-0.045548536
92	0x3dfa9683	0.12235739
93	0xbd993dd9	-0.074825
94	0x3e05631b	0.13026087
95	0x3be1e938	0.006894257
96	0x3d94a8af	0.07258736
97	0x3cfdb73e	0.030971166
98	0x3d4672fa	0.048449494
99	0x3cf06a6f	0.029347626
100	0xbcef6752	-0.029224072
101	0xbd35f8b5	-0.04442664
102	0xbd56fe02	-0.052488334
103	0xbd49f45a	-0.049305297
104	0x3d3ed21d	0.0465871
105	0xbd3b9653	-0.045797657
106	0x3d89edae	0.06734787
107	0x3d6afb3e	0.05736851
108	0xbd19b08e	-0.03752189
109	0xbb4e0707	-0.0031437294
110	0xbcd3de1d	-0.025862748
111	0x3dd0b5d0	0.10190928
112	0xbcd8f9dc	-0.02648633
113	0xbbeabb19	-0.007163417
114	0xbce06d9b	-0.027396014
115	0x3b291765	0.0025801298
116	0x3df85103	0.12124827
117	0xbdb2bfda	-0.08727999
118	0x3be9ba4a	0.007132803
119	0x3d715a58	0.05892405
120	0x3d626939	0.05527613
121	0xbd6cc6f3	-0.05780692
122	0xbca98e49	-0.02069773
123	0x3dc759c2	0.09733917
124	0xbc3506e1	-0.011049003
125	0x3d2994b8	0.041401595
126	0x3d593123	0.053025376
127	0x3d616f56	0.05503782

rnn.bias_hh_l0 f4 [128]
0	0xbd2d27d6	-0.04227432
1	0x3cfebc46	0.031095635
2	0xbd7735e3	-0.060354125
3	0xbcdbcb34	-0.026830293
4	0x3b8bfd8f	0.00427217
5	0xbc45ce11	-0.012073056
6	0xbd05813c	-0.03259395
7	0x3ccd8b4b	0.025090834
8	0x3d548799	0.05188713
9	0xbd4eb67a	-0.050466992
10	0xbdaf88eb	-0.08571037
11	0xbddc1807	-0.1074677
12	0xbcb3f0b0	-0.021965355
13	0x3d6dab4c	0.05802469
14	0x3c9a4125	0.018829891
15	0x3db2d112	0.08731283
16	0x3bbf91fe	0.005846261
17	0xbbcfa4c9	-0.0063367826
18	0x3d5718a5	0.052513737
19	0x3d4dae6c	0.05021517
20	0xbd44cdcf	-0.048047837
21	0x3ca62536	0.020281415
22	0x3d2719c8	0.04079607
23	0xbc370d8e	-0.011172665
24	0xbd52f2e1	-0.05150116
25	0x3c80af3f	0.015708564
26	0xbd3bb0cd	-0.045822907
27	0xbd74779e	-0.05968439
28	0xbb33cb69	-0.0027434474
29	0x3dbad2cc	0.091222376
30	0xbd35ee2e	-0.0444166
31	0xbe04439f	-0.1291642
32	0xbd62796d	-0.055291582
33	0xbd2e994a	-0.042626657
34	0x3d132fc1	0.035934214
35	0xbdc154de	-0.09440015
36	0xbda52915	-0.080644764
37	0xbda975b5	-0.08274404
38	0x3db7e114	0.08978477
39	0xbe0a4bff	-0.13505553
40	0xbdb7c4ad	-0.0897306
41	0x3d741c05	0.059597034
42	0x3d636041	0.055511717
43	0x3d84e99b	0.06489869
44	0xbd83ac20	-0.064293146
45	0x3d347067	0.044052508
46	0x3d71524b	0.05891637
47	0xbd36b8b6	-0.044609748
48	0xbdfc0a3d	-0.1230664
49	0xbdbc5aae	-0.09196983
50	0xbc2d0d88	-0.010562308
51	0xbd05feb3	-0.032713603
52	0x3dc1511f	0.09439301
53	0x3b9f7a6c	0.0048668887
54	0xbda525c9	-0.080638476
55	0x3d1ca645	0.038244504
56	0x3cf40e11	0.029791864
57	0x3c1b18e0	0.00946638
58	0xbc8aaa27	-0.016926838
59	0xbd115b27	-0.03548732
60	0xbd8978ec	-0.06712517
61	0xbdb3f35e	-0.08786653
62	0x3d865db2	0.0656084
63	0x3d93c5bf	0.072154514
64	0xbc802d5c	-0.015646629
65	0xbdb9ba55	-0.09068743
66	0x3c9b0694	0.018924035
67	0x3d05b059	0.03263888
68	0x3a42baa5	0.0007428325
69	0x3cfbd621	0.030741753
70	0xbd8d59ca	-0.069018915
71	0xbcaeddd5	-0.021346012
72	0x3a34263a	0.0006872151
73	0x3c872abe	0.016499873
74	0x3d197bed	0.0374717
75	0xbd5e3a81	-0.054255012
76	0xbd5735fd	-0.05254172
77	0xbd921657	-0.07133167
78	0x3da6c065	0.08142165
79	0x3d4059af	0.04696053
80	0xbc975481	-0.018472912
81	0x3c8ea011	0.01741031
82	0x3d377ea1	0.044798497
83	0x3db9aba1	0.09065939
84	0x3cd9675c	0.026538543
85	0xbd03f230	-0.03221339
86	0x3df3ceed	0.11904702
87	0xbc99e8c4	-0.01878775
88	0xbd0563e2	-0.03256596
89	0xbd0cf670	-0.03441471
90	0x3d825695	0.063641705
91	0xbce7cae7	-0.028294994
92	0x3d283534	0.041066363
93	0x3ce0e667	0.027453614
94	0x3d81201a	0.06304951
95	0xbc54a6e5	-0.012979244
96	0x3d817db4	0.06322804
97	0x3cd184bf	0.025575994
98	0xbd7067c7	-0.05869272
99	0xbdc503ac	-0.09619841
100	0x3d77d987	0.060510185
101	0xbd8c2b33	-0.06844177
102	0xbb057169	-0.0020361787
103	0xbd2cf045	-0.042221326
104	0x3ddc6d46	0.1076303
105	0x3ccba7f9	0.024860369
106	0x3d80017d	0.06250284
107	0x3d51527b	0.05110405
108	0xbc3b0b5d	-0.011416283
109	0x3c0119e5	0.007879709
110	0xbdb47ce0	-0.088128805
111	0xbc8adb2d	-0.016950214
112	0xbd0dba2a	-0.034601368
113	0xbcf3c386	-0.029756319
114	0xbd6f857f	-0.05847692
115	0xbd7befc5	-0.06150796
116	0x3df3771c	0.11887953
117	0x3cc0fe0b	0.023558637
118	0x3d692a2b	0.05692498
119	0x3d0d3a5d	0.034479488
120	0x3d8f81ab	0.07007154
121	0xbd9f6a0c	-0.07783899
122	0xbcf6ac4c	-0.030111454
123	0xbd7bd95b	-0.061486583
124	0xbcbe3085	-0.023216495
125	0xbd9d8393	-0.076911114
126	0xbcb4ea10	-0.022084266
127	0xbc66fb4c	-0.014098

fc.weight f4 [5, 128]
0	0xbd869463	-0.06571271
1	0x3d9c0628	0.07618362
2	0x3c0b2131	0.0084918
3	0x3dae87b7	0.08521979
4	0x3d7204d1	0.059086625
5	0x3e0c01ae	0.13672516
6	0xbe42cf8a	-0.19024482
7	0x3e251134	0.16119844
8	0x3c470f32	0.012149619
9	0x3e434048	0.1906749
10	0xbe2eb1f5	-0.17060073
11	0x3d837e8b	0.064206205
12	0xb9cc8c1a	-0.00039014296
13	0xbdeecd15	-0.1166021
14	0x3e515b7d	0.20445056
15	0x3e21fd15	0.158192
16	0xbdbc5488	-0.091958106
17	0x3d54ccb5	0.051953036
18	0xbe041d52	-0.1290181
19	0xbe7416fd	-0.23836894
20	0xbda80e8e	-0.08205901
21	0x3c3b4bb9	0.011431628
22	0xbda0ef9d	-0.078582026
23	0x3d9df14b	0.077120386
24	0xbe209326	-0.15681133
25	0x3e02ebc2	0.12785247
26	0x3e5ae524	0.21376473
27	0x3d87c6bc	0.066297024
28	0xbdcb9133	-0.09939804
29	0x3e34d0b6	0.17657742
30	0xbda84de5	-0.08217982
31	0x3d04f993	0.032464575
32	0x3e684273	0.22681598
33	0xbe04232f	-0.12904046
34	0x3c4bff25	0.012450968
35	0x3df6d4fb	0.120523416
36	0xbd37ec16	-0.044902883
37	0x3d9e5484	0.07730964
38	0xbd057bf1	-0.032588903
39	0xbe79fb61	-0.244123
40	0x3d557ad6	0.0521191
41	0xbdba09a4	-0.0908387
42	0xbc9a8902	-0.018864159
43	0x3e62fb19	0.22166099
44	0xbd01d9ac	-0.03170173
45	0xba9c57d8	-0.0011928035
46	0x3d18b532	0.037282176
47	0xbeab36e8	-0.33440328
48	0xbe40f423	-0.18843131
49	0xbda8fe57	-0.082516365
50	0x3deac31b	0.11462995
51	0xbde8b3a9	-0.113623925
52	0x3e3770f6	0.17914185
53	0xbd9e91e6	-0.07742672
54	0xbd1e66e0	-0.038672328
55	0xbd1b9001	-0.03797913
56	0x3e011957	0.12607323
57	0x3e559c0a	0.20860305
58	0xbd658067	-0.056030657
59	0xbbf9bbd3	-0.0076212673
60	0xbe5f93e7	-0.21833764
61	0x3d92b312	0.07163061
62	0xbe235a69	-0.15952457
63	0x3c89cb44	0.016820557
64	0x3e200498	0.15626752
65	0x3ca74089	0.020416515
66	0x3e0ad635	0.13558276
67	0xbd5f14c8	-0.054463178
68	0xbd3aceeb	-0.04560749
69	0xbe84bc96	-0.2592513
70	0x3c0b3b9a	0.008498097
71	0xbd2db7da	-0.042411663
72	0x3a3a680b	0.00071108405
73	0x3d427993	0.047479223
74	0x3e8a697f	0.27033612
75	0xbde2cbab	-0.11074003
76	0xbe436f05	-0.1908532
77	0x3dfab0ba	0.12240739
78	0x3d947e17	0.07250612
79	0x3e456395	0.19276269
80	0x3e396344	0.18104273
81	0x3dc88d81	0.09792615
82	0x3e1ef6e2	0.15523866
83	0x3e850e6f	0.25987574
84	0x3e1c364c	0.15255088
85	0xbc90ffa4	-0.017700024
86	0x3c1cfa01	0.00958109
87	0xbda788f3	-0.08180418
88	0x3d5e0d03	0.054211628
89	0x3e29250f	0.16518043
90	0xbde38581	-0.11109448
91	0xbdc0babd	-0.094106175
92	0x3e37d694	0.17952949
93	0x3e414531	0.1887405
94	0x3d8eae1c	0.069668025
95	0x3e18bc03	0.14915471
96	0xbd83810d	-0.06421099
97	0x3d49e2dd	0.04928862
98	0xbd9600e7	-0.07324391
99	0xbe1efe01	-0.15526582
100	0xbe66fd65	-0.225576
101	0xbd89f537	-0.06736224
102	0x3deb6035	0.114929594
103	0x3e8659ee	0.26240486
104	0x3ccfa058	0.025345013
105	0xbe705dc6	-0.23473272
106	0x3db5d829	0.0887912
107	0x3dd513c6	0.10404162
108	0xbe09c78f	-0.13455032
109	0x3df7bb9f	0.12096333
110	0x3e00cd49	0.1257831
111	0x3e890298	0.2675979
112	0x3e27f9e7	0.16403924
113	0x3e9c7d78	0.30564475
114	0x3e6339b5	0.22189982
115	0xbdfdbf6c	-0.123900265
116	0xbdfad79a	-0.12248154
117	0x3e6de85d	0.23233171
118	0x3de92427	0.11383849
119	0xbd33f96c	-0.04393904
120	0xbe172c4f	-0.14762996
121	0x3d1cf3cc	0.03831844
122	0x3cd82b4a	0.02638783
123	0xbcbc9350	-0.023019463
124	0x3e92117d	0.28528967
125	0x3c675f80	0.01412189
126	0x3e4721eb	0.19446532
127	0x3d959848	0.07304436
128	0xbdfb3540	-0.12266016
129	0x3cc62371	0.024186822
130	0xbcaa6002	-0.020797733
131	0xbdbb42d4	-0.09143606
132	0xbbba4d0c	-0.0056854542
133	0x3e838fd8	0.25695682
134	0xbe05146a	-0.12996069
135	0x3d5db699	0.054129217
136	0x3e262ffd	0.16229244
137	0x3de9418d	0.11389456
138	0xbd545009	-0.05183414
139	0xbd422781	-0.047400955
140	0xbe2e31c5	-0.17011173
141	0x3db51bfa	0.08843227
142	0xbda640ac	-0.08117804
143	0x3d92b4ab	0.07163366
144	0xbe158b98	-0.14604032
145	0x3ab356c3	0.0013682473
146	0x3e473a1a	0.19455758
147	0xbcd6542e	-0.026163187
148	0x3d997edd	0.074949004
149	0x3c99f8eb	0.018795451
150	0x3dd26f36	0.10275118
151	0x3cc2a22f	0.023758976
152	0xbe22a728	-0.15884078
153	0xbc31a927	-0.010843552
154	0x3e7704e7	0.24122964
155	0x3d524a46	0.051340364
156	0x3e0401eb	0.12891357
157	0x3dcd909c	0.10037348
158	0x3e3f113a	0.18658915
159	0xbe05a29f	-0.13050316
160	0x3c8ed67e	0.017436262
161	0xbdc46ce4	-0.09591082
162	0x3e523a17	0.20529972
163	0xbe17e9dc	-0.14835304
164	0x3e03d82a	0.12875429
165	0xbe1164c2	-0.14198592
166	0x3dfa9487	0.122353606
167	0xbe35fa0e	-0.1777117
168	0xbd9dada1	-0.07699133
169	0xbd72da9d	-0.059290517
170	0x3e5de1ef	0.21668218
171	0x3cb499db	0.02204602
172	0xbc9390bb	-0.018013349
173	0x3dab6a5c	0.08369896
174	0x3dd2142d	0.102577545
175	0xbe4a3a30	-0.1974876
176	0xbe8fffde	-0.281249
177	0x3dce3af5	0.10069839
178	0xbb2652df	-0.0025378985
179	0x3de52468	0.111885846
180	0x3e83dc7b	0.2575415
181	0x3d93875e	0.072035536
182	0xbc82a8ed	-0.01594969
183	0xbe1089bf	-0.14115046
184	0xbdff68ae	-0.12471138
185	0x3dafdcd9	0.08587045
186	0xbe5a6f08	-0.21331418
187	0x3e192681	0.14956094
188	0x3d98a909	0.07454116
189	0xbe33d4fc	-0.17561716
190	0x3df48380	0.11939144
191	0x3d8c2cd9	0.068444915
192	0xbe623556	-0.22090659
193	0xbd8d5083	-0.06900122
194	0x3e4f81cc	0.20264357
195	0xbe76a993	-0.24088125
196	0xbe1e6dbb	-0.15471546
197	0x3c237025	0.009975468
198	0xbdeb39a9	-0.11485607
199	0xbe250cfa	-0.16118231
200	0xbd5ba43f	-0.053623434
201	0xbd908c74	-0.07058039
202	0x3e434bcf	0.19071887
203	0xbe605c39	-0.2191018
204	0x3e1fb3e2	0.15595964
205	0xbe1fb76b	-0.15597312
206	0x3e7ab31b	0.24482386
207	0x3df2dd2f	0.11858594
208	0xbdd9b859	-0.10630865
209	0xbe518a7e	-0.20462987
210	0xbd8c6ea6	-0.06857042
211	0x3e4ff27f	0.20307349
212	0xbe7466f9	-0.23867406
213	0xbe203154	-0.15643817
214	0x3dfc7b83	0.123282455
215	0x3e433efa	0.19066992
216	0x3dd01d23	0.101618074
217	0xbdc97b8b	-0.09838017
218	0x3cc53d92	0.02407721
219	0x3e0a8c93	0.13530187
220	0x3e201fac	0.15637082
221	0xbe09287d	-0.13394351
222	0xbe1b9ed2	-0.15197304
223	0xbb86591f	-0.0040999795
224	0x3d35eeb9	0.044417117
225	0x3da48358	0.08032864
226	0xbe018cdc	-0.1265139
227	0xbd953883	-0.072861694
228	0xbde96981	-0.113970764
229	0x3d3f4908	0.046700507
230	0x3c3fdaa2	0.011709841
231	0x3b71f008	0.0036916751
232	0x3dfce2b1	0.123479255
233	0x3d1f92fb	0.03895853
234	0xbd2daaf2	-0.042399354
235	0xbd3ea026	-0.04653945
236	0xbe5ae567	-0.21376573
237	0xbdf83115	-0.12118737
238	0xbd971308	-0.07376677
239	0xbc9c126c	-0.019051753
240	0x3e14d553	0.14534502
241	0x3c2a8ec6	0.010410016
242	0x3dc27e9c	0.09496805
243	0xbbfbda11	-0.0076859077
244	0x3d25cb5f	0.040477153
245	0xbd6cc0dc	-0.057801113
246	0x3e2a372d	0.1662261
247	0xbd9c69eb	-0.0763739
248	0xbd09cfe3	-0.03364552
249	0x3ddd0511	0.10791982
250	0x3dac5ec4	0.084165126
251	0x3daffcf7	0.08593171
252	0xbd4a7b44	-0.04943396
253	0xbea58940	-0.32331276
254	0xbdd318db	-0.10307475
255	0xbe30c96d	-0.17264338

fc.bias f4 [5]
0	0xbe1eddc9	-0.15514292
1	0xbd3a013d	-0.045411337
2	0xbd46af1c	-0.04850684
3	0xbce244b8	-0.027620658
4	0x3e2beaf9	0.16788854
