models/2.0.1-recurrent-neural-network-model-test-128x1.pth (torch, 72458 bytes, 6 tensors)

rnn.weight_ih_l0 f4 [128, 3]
0	0x3c3b3993	0.011427301
1	0xbc84a1d5	-0.016190449
2	0xbda44a9d	-0.08022044
3	0x3bed4d88	0.0072419085
4	0xbc3ce760	-0.0115297735
5	0xbe3a9526	-0.18220958
6	0xbda9813e	-0.08276604
7	0xbdcae070	-0.09906089
8	0xbe885f59	-0.26635244
9	0xbd76dd52	-0.06026966
10	0x3be895a2	0.0070979157
11	0x3ba9776b	0.0051717064
12	0xbeac71d2	-0.33680588
13	0xbeda9cec	-0.42697847
14	0xbe431771	-0.19051911
15	0xbe8f722e	-0.280168
16	0xbe8adde0	-0.27122402
17	0xbd27b8c4	-0.04094769
18	0x3d3a5233	0.045488548
19	0x3ec8945b	0.39175686
20	0x3e024956	0.12723288
21	0x3e9fc78b	0.31206927
22	0x3e950f82	0.29113394
23	0xbe1976a0	-0.14986658
24	0x3c75bcb6	0.0149986055
25	0xbbbe14bb	-0.005800811
26	0xbdfd76b5	-0.12376157
27	0xbe926bba	-0.28597814
28	0xbe1ad243	-0.15119271
29	0xbd87b340	-0.06625986
30	0xbd678bb3	-0.056529712
31	0xbe97964f	-0.29606864
32	0xbcb99591	-0.022654327
33	0xbeb27d27	-0.3486111
34	0xbe22322f	-0.15839456
35	0xbd4dbd89	-0.050229583
36	0xbe2a0e36	-0.16606984
37	0xbe43bd92	-0.19115284
38	0xbe387160	-0.18011999
39	0xb9e54872	-0.0004373226
40	0xbdc49694	-0.09599033
41	0xbd169262	-0.036760695
42	0xbdb98482	-0.09058477
43	0xbd26b225	-0.040697236
44	0x3bc1e4f9	0.0059171882
45	0xbe056490	-0.13026643
46	0xbe7f6025	-0.2493902
47	0xbd5d29ec	-0.053995058
48	0xbdf954bb	-0.12174364
49	0xbeaf3ade	-0.342246
50	0xbe4b8489	-0.19874777
51	0xbe598ee4	-0.21245915
52	0xbe415504	-0.18880087
53	0xbdd8ac16	-0.10579698
54	0x3def6a24	0.116901666
55	0xbdfa4417	-0.12220018
56	0xbe1bb60d	-0.15206166
57	0xbd2d5b72	-0.042323537
58	0x3e7c4f18	0.24639547
59	0x3e602084	0.21887404
60	0xbde59e0f	-0.11211788
61	0x3d5e0e5b	0.05421291
62	0xbc0bec34	-0.008540202
63	0xbc68f4cb	-0.014218519
64	0x3d4b20d4	0.049591854
65	0xbe03abc7	-0.12858497
66	0x3e1ab7a8	0.15109122
67	0xbc51c566	-0.012803411
68	0x3d9cbc9c	0.07653162
69	0x3d5a3704	0.053275123
70	0x3ea97d73	0.33103523
71	0xbd428fea	-0.04750053
72	0xbefd43ef	-0.49465892
73	0xbf20247b	-0.62555665
74	0xbe1a878c	-0.1509077
75	0xbd8dffaf	-0.069335334
76	0x3d594ddb	0.053052764
77	0x3d02d6b9	0.031943057
78	0x3e82221e	0.25416654
79	0xbd9f96ea	-0.077924564
80	0xbe5aa217	-0.21350895
81	0xbea7b345	-0.3275396
82	0xbe590231	-0.21192242
83	0xbe1e9ec4	-0.15490252
84	0x3e4ea7b1	0.20181157
85	0xbdade315	-0.08490578
86	0x3d09eae8	0.03367129
87	0xbe1774b6	-0.14790615
88	0xbe28263b	-0.16420834
89	0xbae5d6c0	-0.0017535314
90	0xbe064924	-0.13113838
91	0x3c60decd	0.013724995
92	0x3d2072e3	0.039172065
93	0x3dba2b17	0.0909025
94	0xbd21f626	-0.039541386
95	0x3da0587e	0.078293785
96	0x3e76e1ce	0.24109575
97	0x3e3f58d0	0.18686223
98	0x3d9e992a	0.077440575
99	0x3d9c0999	0.07619018
100	0xbdefd1af	-0.11709916
101	0x3e55fa05	0.20896156
102	0x3c932fd0	0.017967135
103	0xbc888d12	-0.01666883
104	0x3e2817cc	0.16415328
105	0x3e8c2484	0.2737161
106	0x3e84f5a6	0.25968665
107	0x3db4bc30	0.088249564
108	0x3dd5b498	0.10434836
109	0xbcc909b5	-0.024540761
110	0x3db2a2f9	0.08722491
111	0xbdae5a09	-0.085132666
112	0x3d38f69f	0.04515707
113	0x3dc7aa87	0.097493224
114	0x3ab635f3	0.0013901576
115	0x3d3aa47d	0.045567024
116	0xbe432ae0	-0.19059324
117	0xbe147c9f	-0.14500664
118	0xbe1e4033	-0.15454178
119	0xbd0f5a78	-0.034998387
120	0x3e3a2dcc	0.18181533
121	0x3def7903	0.11693003
122	0x3def4ffe	0.11685179
123	0x3e75b5ed	0.2399518
124	0x3e8fd2f1	0.28090623
125	0xbe2e1813	-0.17001371
126	0x3d26bb8e	0.04070621
127	0xbd69592f	-0.056969818
128	0x3dd8f99e	0.10594486
129	0x3c2a28b5	0.010385682
130	0x3dcb93e6	0.09940319
131	0xbb5dd836	-0.0033850796
132	0x3c68db5c	0.014212456
133	0x3e27f706	0.16402826
134	0xbdfad542	-0.12247707
135	0xbe8a4008	-0.27001977
136	0xbe08a3ab	-0.13343684
137	0x3d1f315e	0.03886544
138	0xbe7e3754	-0.24825794
139	0xbe323893	-0.17404394
140	0xbe1db198	-0.15399778
141	0x3de0a06b	0.10968097
142	0xbe23ec6c	-0.16008157
143	0xbe225673	-0.1585329
144	0x3d297ce8	0.041378886
145	0xbe2ea378	-0.17054546
146	0xbe2fd089	-0.17169394
147	0x3d90ac2a	0.07064088
148	0xbeb41eea	-0.35179836
149	0xbcbbefd0	-0.0229415
150	0x3da1fc55	0.07909457
151	0x3ea0f9d0	0.31440592
152	0xbcc11785	-0.023570785
153	0x3ded7a9d	0.11595652
154	0xbe202d44	-0.15642267
155	0xbe146887	-0.14492999
156	0xbe6972a5	-0.2279764
157	0x3d9b9770	0.07597244
158	0xbd78a3e9	-0.060703192
159	0x3e61faac	0.2206828
160	0x3e57f68e	0.21090147
161	0x3e105f44	0.14098841
162	0x3db2527d	0.0870714
163	0x3df24632	0.11829795
164	0x3df81569	0.12113459
165	0x3dba1b6d	0.09087262
166	0x3e07e221	0.13269855
167	0x3e92b225	0.28651538
168	0xbcf3b995	-0.029751578
169	0x393171de	0.00016922454
170	0x3e8cf2f4	0.2752911
171	0x3eddd787	0.43328497
172	0x3ead629b	0.33864293
173	0x3e8d4657	0.27592728
174	0x3da2b244	0.07944158
175	0x3d4eb1f0	0.050462663
176	0x3ca76984	0.020436056
177	0x3e041d9b	0.12901919
178	0xbe13896f	-0.14407896
179	0xbdc0a404	-0.094062835
180	0x3e469f5a	0.19396725
181	0xbd24a539	-0.04019663
182	0xbdf59444	-0.1199117
183	0x3eace547	0.33768675
184	0x3e631525	0.22176035
185	0x3e018b44	0.12650782
186	0x3ea84bc1	0.32870296
187	0x3e3e3e57	0.18578468
188	0x3e79f512	0.24409893
189	0xbdc50193	-0.09619441
190	0xbbed5b8e	-0.00724358
191	0x3deb03ca	0.11475332
192	0xbc60872e	-0.013704104
193	0x3de77a9c	0.11302683
194	0xbd1130b2	-0.03544683
195	0x3e012a85	0.12613876
196	0x3dfa50b4	0.12222424
197	0xbbe6ae87	-0.0070398482
198	0x3ca97f11	0.020690473
199	0xbd59ae49	-0.053144727
200	0x3c7b2ebc	0.015330967
201	0x3d69ca20	0.057077527
202	0x3cee889d	0.029117877
203	0xbc96cab9	-0.018407213
204	0xbb353718	-0.0027651247
205	0xbe25eeca	-0.16204372
206	0xbddb43a6	-0.10706262
207	0x3e16429f	0.14673851
208	0x3e0dd42b	0.13850467
209	0x3dea2913	0.114336155
210	0x3db2478f	0.08705055
211	0x3e0edca4	0.13951355
212	0x3da60d98	0.081080616
213	0x3ec62725	0.3870174
214	0x3e76d98b	0.24106424
215	0xbdc514eb	-0.096231304
216	0x3daa7a12	0.08324064
217	0x3d855645	0.06510595
218	0xbe30cd70	-0.17265868
219	0x3e10aa03	0.14127354
220	0x3e1f4e86	0.15557298
221	0x3e976c74	0.2957493
222	0xbdec9cb4	-0.11553326
223	0xbc8c10ce	-0.017097857
224	0x3dbb4d1b	0.09145566
225	0xbe0a976e	-0.13534328
226	0x3ca9a28e	0.020707395
227	0x3dfb0055	0.12255923
228	0xbc253561	-0.010083527
229	0x3c34769f	0.01101461
230	0x3e1bd5e7	0.15218316
231	0xbbd73d0e	-0.0065685576
232	0x3d076d20	0.033063054
233	0x3dc523a7	0.09625941
234	0x3e38128b	0.17975824
235	0x3eaeacbc	0.3411616
236	0xbc8d350c	-0.017237209
237	0x3e504288	0.2033788
238	0x3e211837	0.15731893
239	0x3e673c05	0.2258149
240	0x3e24285c	0.16031021
241	0x3d3bc40a	0.045841254
242	0x3dd7d411	0.10538495
243	0xbe82a469	-0.2551606
244	0xbe30b174	-0.17255193
245	0xbe020e68	-0.12700808
246	0xbe885f06	-0.26634997
247	0xbdbca1ec	-0.09210572
248	0x3c73f55a	0.014890039
249	0x3d65cc0b	0.056102794
250	0xbba35480	-0.0049844384
251	0x3e33c1a0	0.17554331
252	0x3cf4d407	0.029886259
253	0xbcc9e639	-0.024645912
254	0xbe2442db	-0.16041128
255	0x3e49f3bf	0.19721888

rnn.weight_hh_l0 f4 [128, 128]
0	0x3e68ab32	0.22721556
1	0x3cfd1c3e	0.030897256
2	0x3c523c97	0.012831829
3	0x3d2860b3	0.041107845
4	0x3d36fd2d	0.04467504
5	0xbd42f88d	-0.047600318
6	0xbd4aaf63	-0.049483668
7	0xbdd8e7cf	-0.10591089
8	0xbd62f743	-0.05541159
9	0x3d1b710b	0.037949603
10	0x3dc7aee1	0.097501524
11	0x3d859628	0.06522781
12	0x3d967272	0.073460475
13	0xbca319e2	-0.019909803
14	0xbd7044c4	-0.05865933
15	0xbd62166e	-0.055197172
16	0x3c5f27f0	0.013620362
17	0xbd52c02e	-0.051452808
18	0x3c29a3f3	0.01035403
19	0xbd06d98a	-0.032922305
20	0xbc1be7a3	-0.009515676
21	0xbdcbf736	-0.09959261
22	0xbe099b38	-0.13438118
23	0x3c7d715f	0.015468924
24	0xbd5191d5	-0.051164467
25	0x3d49b415	0.049244005
26	0x3d7dc8fd	0.061959255
27	0x3de2adcd	0.11068306
28	0xbdfb03eb	-0.12256607
29	0x3d3bbf53	0.045836758
30	0xbd624de1	-0.055250052
31	0x3d402583	0.046910774
32	0xbdf660ea	-0.12030204
33	0xbd344b00	-0.044016838
34	0xbb23ba08	-0.002498271
35	0x3d5a2f51	0.05326778
36	0x3df1f2af	0.11813866
37	0x3cd96927	0.026539398
38	0x3cb32597	0.02186851
39	0x3dff2834	0.1245884
40	0xbbca560c	-0.0061748084
41	0xbd904fd5	-0.07046477
42	0xbdf742f8	-0.1207332
43	0x3e29b1cd	0.16571732
44	0xbde1df4c	-0.110289186
45	0x3d17a971	0.037026826
46	0x3d50367e	0.050833218
47	0xbb949aff	-0.0045350785
48	0x3dce27cd	0.10066185
49	0xbb197f7b	-0.0023421932
50	0x3d94ee27	0.072719865
51	0x3d26cc55	0.04072221
52	0x3de0d9dd	0.10979054
53	0xbde14d80	-0.1100111
54	0x3dac7ffb	0.08422848
55	0x3d8fee74	0.07027903
56	0x3d50aa97	0.050943937
57	0xbd958804	-0.073013335
58	0x3cb86335	0.022508243
59	0xbd4e8ddd	-0.05042826
60	0x3d81c3d2	0.06336178
61	0x3c91d439	0.017801391
62	0xbdd022b8	-0.10162872
63	0x3cde3a30	0.027127355
64	0x3d032d21	0.03202546
65	0xbdaa3873	-0.08311548
66	0x3e1f30a4	0.15545899
67	0xbdf46126	-0.11932592
68	0x3d2ef06e	0.04270976
69	0xbd1a461e	-0.037664525
70	0xbc2d8e35	-0.010592987
71	0x3d988f7c	0.074492425
72	0xbab69195	-0.0013928885
73	0x3db07732	0.08616485
74	0x3d860b74	0.06545153
75	0x3d5e141c	0.054218397
76	0x3d80e79e	0.062941775
77	0x3d15f4ac	0.03661029
78	0x3cbd67a7	0.023120714
79	0xbd71f563	-0.05907191
80	0xbe114735	-0.1418732
81	0xbda77f9e	-0.08178638
82	0x3e18e57f	0.14931296
83	0x3d8d1ebd	0.068906285
84	0x3da08a24	0.07838848
85	0xbe14d1e1	-0.14533187
86	0xbd9fbd3d	-0.07799766
87	0x3d49bc6a	0.04925195
88	0x3d2a7461	0.041614894
89	0xbda56d17	-0.08077448
90	0x3ca209c9	0.019780057
91	0x3d8f68b0	0.070023894
92	0x3dca1191	0.09866632
93	0xbc4f1ecd	-0.012641621
94	0x3cb35bd5	0.021894375
95	0xbd907bfa	-0.07054897
96	0x3da1f485	0.079079665
97	0xbd13c7ae	-0.0360791
98	0xbd0975a6	-0.033559464
99	0x3b5582e7	0.0032579245
100	0x3d25b592	0.040456362
101	0xbc52479d	-0.012834457
102	0xbcdb3757	-0.026759787
103	0xbdd58378	-0.10425466
104	0x3da7a697	0.08186071
105	0xbd13d3fd	-0.03609084
106	0xbc342342	-0.010994734
107	0x3cd3d091	0.025856288
108	0x3c2a316b	0.010387759
109	0xbc92875e	-0.017886814
110	0x3bd04ef0	0.0063570663
111	0x3c3c709b	0.011501457
112	0x3d525edc	0.051359996
113	0xbd7d7819	-0.061882112
114	0xbce79f9e	-0.028274354
115	0xbcc24878	-0.023716196
116	0x3dc9e0e1	0.09857345
117	0x3dec6fb2	0.11544742
118	0x3d79d741	0.060996298
119	0xbdc65d19	-0.09685726
120	0x3cd6b05d	0.026207143
121	0xbd24aea5	-0.040205617
122	0x3c2de70e	0.01061417
123	0x3d8f0ffa	0.06985469
124	0xbc0746b4	-0.008256603
125	0x3d47eae0	0.04880798
126	0xbdeda2df	-0.11603331
127	0xbd582df3	-0.052778196
128	0x3d57355a	0.052541114
129	0xbd8dde6a	-0.06927188
130	0xbc435da0	-0.011924177
131	0xbc8d4f5b	-0.017249754
132	0xbd7a2549	-0.061070714
133	0x3dd1e9da	0.10249682
134	0x3c2cffc3	0.010559025
135	0xbd716e8d	-0.05894332
136	0x3cce12b8	0.02515541
137	0xbcbdf729	-0.023189144
138	0xbd773e12	-0.06036193
139	0xbd099029	-0.033584747
140	0x3c5f36ca	0.013623903
141	0x3d8f03f5	0.069831766
142	0x3d416cbc	0.047222838
143	0xbd82e3ec	-0.06391129
144	0x3d6d41dc	0.057924137
145	0xbd7adb19	-0.061244104
146	0x3d98d36b	0.074622
147	0xbd374203	-0.044740688
148	0xbdcc4d41	-0.099756725
149	0x3d452cff	0.048138615
150	0xbd09b21b	-0.03361712
151	0x3d02557c	0.031819806
152	0xbd8ad684	-0.06779197
153	0xbd0ff222	-0.035143025
154	0x3d5fd14a	0.054642953
155	0x3d2c1738	0.04201433
156	0xbd88d590	-0.06681359
157	0xbdb4e326	-0.088323876
158	0x3d5505f5	0.052007634
159	0xbccf8db0	-0.025336117
160	0x3d5d2654	0.05399163
161	0xbca82b12	-0.02052835
162	0x3d6cd896	0.05782374
163	0x3d38536c	0.045001432
164	0x3d892f27	0.06698447
165	0x3d87ed41	0.066370495
166	0xbdacf7a9	-0.08445675
167	0x3d998bd6	0.07497375
168	0xbcee9ded	-0.02912804
169	0xbd81ada6	-0.06331949
170	0x3d8b35d3	0.067973755
171	0xbd9f3879	-0.07774443
172	0x3d4f589c	0.050621614
173	0x3d44f4e0	0.048085093
174	0x3c33c63e	0.010972558
175	0x3ceb36b3	0.028712606
176	0xbd10fa0d	-0.035394717
177	0x3d920f54	0.0713183
178	0xbdac1f2f	-0.08404385
179	0xbd7c6604	-0.061620727
180	0x3d5ad405	0.053424854
181	0xbdcd0ed8	-0.10012597
182	0x3d9cb330	0.07651365
183	0xbd8dec0f	-0.0692979
184	0x3b76a34d	0.0037633956
185	0xbd8660f9	-0.06561465
186	0x3d7e750d	0.062123347
187	0x3c7ce5df	0.015435665
188	0xbd3855af	-0.04500359
189	0x3d8bb817	0.06822222
190	0x3d1bbbef	0.038021024
191	0xbd33b208	-0.043870956
192	0x3a2e0f73	0.00066398754
193	0x3dabba30	0.08385122
194	0xbd38eb68	-0.045146376
195	0x3d8f4d89	0.069972105
196	0xbd6852be	-0.056719534
197	0x3d298f18	0.04139623
198	0xbc9e209e	-0.019302662
199	0xbc007e89	-0.007842668
200	0x3d5d65a0	0.054051995
201	0x3d8403b6	0.0644602
202	0x3acc629e	0.0015593355
203	0x3d1f7a25	0.038934845
204	0xbd13a71d	-0.036048044
205	0xbcd86649	-0.02641596
206	0x3c0567a7	0.008142388
207	0x3cddff2a	0.02709921
208	0xbd3deb47	-0.046366956
209	0x3dc5497f	0.09633159
210	0xbd682783	-0.056678306
211	0xbd877454	-0.06613985
212	0xbd07f2e8	-0.033190638
213	0xbd1b6a80	-0.037943363
214	0xbd828c1a	-0.063743785
215	0x3cdbe77d	0.02684378
216	0x3dc14742	0.094374195
217	0xbdb9f246	-0.09079413
218	0xbdef6db2	-0.116908446
219	0xbdbdca12	-0.092670575
220	0x3d2862ac	0.041109726
221	0x3c9c8387	0.019105686
222	0x3d0d4f5b	0.034499507
223	0xbdac1391	-0.084021695
224	0x3d4a2741	0.04935384
225	0xbd89f969	-0.06737024
226	0xbca1d4c3	-0.019754773
227	0x3d5aa722	0.053382047
228	0x3dcbb5e7	0.099468045
229	0xbd0f4b71	-0.034984056
230	0xbd77320f	-0.060350474
231	0x3da97afa	0.08275409
232	0x3c42303b	0.011852319
233	0xbd4e755e	-0.0504049
234	0x3db6d9b5	0.08928243
235	0x3d63b2d3	0.055590462
236	0x3d57ae54	0.052656487
237	0xbd7037f3	-0.058647107
238	0xbd80523b	-0.06265684
239	0x3d60e9f3	0.05491061
240	0x3c4cc7ea	0.012498835
241	0x3d5150ec	0.051102564
242	0x3da5d1af	0.080966346
243	0xbd88b073	-0.0667428
244	0xbb87a894	-0.004139969
245	0x3d44a82f	0.048011955
246	0xbcd4558b	-0.025919696
247	0xbb1825a5	-0.0023215797
248	0xbd1091a0	-0.03529513
249	0x3d1e91db	0.038713317
250	0x3d7e2ef4	0.062056497
251	0xbc8f4bb4	-0.017492153
252	0xbd5680de	-0.05236899
253	0xbc814682	-0.015780691
254	0xbd9b0e3a	-0.07571073
255	0x3baa7683	0.005202116

rnn.bias_ih_l0 f4 [128]
0	0x3e21a7a5	0.15786608
1	0x3cc784cb	0.024355313
2	0xbd1da545	-0.03848769
3	0x3d004468	0.031315237
4	0xbd64a511	-0.055821482
5	0x3ca783c5	0.020448575
6	0x3dc24d10	0.09487355
7	0x3df9dfae	0.12200867
8	0xbb805bbf	-0.003917187
9	0xbda775e7	-0.08176785
10	0x3d407601	0.046987537
11	0xbc5db417	-0.013531706
12	0xbdf591db	-0.1199071
13	0x3bbc25db	0.0057418174
14	0xbb9359ed	-0.004496804
15	0x3c65f278	0.01403486
16	0xbdf5db08	-0.120046675
17	0xbd4fab59	-0.05070052
18	0x3c23b6cb	0.009992312
19	0x3d74b678	0.05974433
20	0xbd66c6ee	-0.056342058
21	0x3c9f9187	0.019478573
22	0xbc46d5c1	-0.012135924
23	0x3b3cce15	0.0028809358
24	0xbdc2913f	-0.0950036
25	0xbdcb0bec	-0.09914383
26	0xba999615	-0.0011717702
27	0xbda733bf	-0.08164167
28	0x3d924256	0.07141559
29	0xbd4b9cc8	-0.049710065
30	0xbd731090	-0.059341967
31	0x3d92c300	0.071660995
32	0x3ca75a62	0.02042884
33	0x3c16ce4d	0.009204459
34	0x3d609977	0.054833855
35	0x3da948f0	0.08265865
36	0x3d85a144	0.065248996
37	0x3ba4bd78	0.0050274692
38	0xbdb7bb4e	-0.089712724
39	0xbd271371	-0.040790025
40	0x3da06282	0.07831289
41	0xba89002c	-0.0010452322
42	0xbc9b0936	-0.01892529
43	0x3d30aace	0.043131642
44	0xbc64660c	-0.0139403455
45	0xbd22c96f	-0.039742883
46	0x3cc11188	0.02356793
47	0x3d259709	0.04042724
48	0xbdb806c3	-0.08985665
49	0xbd32d33d	-0.043658484
50	0x3e36cabc	0.17850775
51	0xbd4140c3	-0.047180902
52	0xbdd28835	-0.10279886
53	0xbdcf8eb9	-0.10134644
54	0x3b09a070	0.002100017
55	0xbd5815ec	-0.05275528
56	0x3dbcdb49	0.09221513
57	0x3e422452	0.18959168
58	0x3d0a8057	0.0338138
59	0xbd081d38	-0.03323099
60	0xbce4c93f	-0.027927993
61	0x3c2f2d90	0.010692015
62	0x3e0b0e71	0.13579728
63	0xbce08cd3	-0.0274109
64	0x3d475e22	0.048673756
65	0xbcebe7e8	-0.028797105
66	0x3dbdf235	0.09274713
67	0x3d962e4c	0.07333049
68	0xbd4c105d	-0.049820293
69	0x3dc6c134	0.09704819
70	0x3d9a4549	0.07532746
71	0x3db2ee9b	0.08736917
72	0xbd3938e6	-0.04522028
73	0x3d476dd4	0.048688725
74	0xbd5095e3	-0.050924193
75	0xbc8280d3	-0.015930569
76	0x3bc1bdf1	0.0059125354
77	0x3d396f60	0.04527223
78	0x3e04bb03	0.12961964
79	0x3ddcf7d7	0.10789459
80	0xbca74e2b	-0.020423016
81	0xbc9ad383	-0.018899685
82	0x3d18e2ab	0.037325542
83	0x3c8dc3f6	0.017305356
84	0xbc90d53a	-0.0176798
85	0x3d55132f	0.052020248
86	0xbbb8c01e	-0.0056381365
87	0x3d682e78	0.05668494
88	0xbca9b805	-0.02071763
89	0x3df34c2b	0.11879762
90	0x3dc63563	0.096781515
91	0x3e11f19a	0.1425232
92	0xbd394232	-0.045229144
93	0x3ccdac11	0.025106462
94	0xbcba437c	-0.022737257
95	0xbb1882bf	-0.002327129
96	0x3c303684	0.010755185
97	0xbca063b2	-0.019578788
98	0xbddacdaa	-0.106837586
99	0xbdb05273	-0.08609476
100	0x3d94d969	0.0726803
101	0x3bf30d13	0.00741733
102	0x3c3d76a5	0.011563932
103	0xbcf17f3b	-0.029479614
104	0xbd26cb28	-0.04072109
105	0xbc97caff	-0.018529413
106	0xbd0cef87	-0.03440812
107	0xbbbe78a7	-0.0058127227
108	0xbd840e38	-0.064480245
109	0xbe00e973	-0.12589054
110	0xbc003047	-0.00782401
111	0xbc64df56	-0.013969263
112	0x3d6ca757	0.057776775
113	0x3c5418b4	0.012945343
114	0x3d754c73	0.05988736
115	0x3d911c15	0.07085434
116	0xbd331aee	-0.043726854
117	0xbdbc80b9	-0.092042394
118	0x3d4dd61e	0.050253026
119	0xbd1bf658	-0.03807673
120	0x3d7189cb	0.0589693
121	0x3d18ee9f	0.03733694
122	0x3c8516b5	0.01624618
123	0x3cd196f0	0.025584668
124	0xbd41af26	-0.047286175
125	0x3cea8ab2	0.028630588
126	0xbdb8e264	-0.090275556
127	0xbc023539	-0.00794726

rnn.bias_hh_l0 f4 [128]
0	0x3e1037da	0.14083806
1	0x3d9f35a0	0.077739
2	0xbd5f103b	-0.054458838
3	0xbc5b97ed	-0.013402921
4	0xbe0066e6	-0.12539253
5	0xbe0bbcda	-0.1364626
6	0xbd3842b2	-0.04498548
7	0xba91b307	-0.0011115976
8	0x3da303e2	0.07959725
9	0xbd81385a	-0.06309576
10	0x3caf7e13	0.021422422
11	0x3d0d6043	0.03451563
12	0xbd3abd90	-0.045590937
13	0x3cf48c73	0.029852128
14	0xbd9f541b	-0.07779714
15	0x3d23f4d8	0.040028423
16	0x3d004ef2	0.031325288
17	0xbcafded2	-0.021468554
18	0x3dcfcbfe	0.1014633
19	0x3d573397	0.052539434
20	0xbb59d652	-0.0033239317
21	0xbd2483fd	-0.040164936
22	0xbdc3978c	-0.0955039
23	0xbdc916f5	-0.09818832
24	0xbe4a30f1	-0.19745232
25	0x3b1451b2	0.0022631702
26	0xbd18b9c6	-0.037286542
27	0x3bfbc157	0.00768296
28	0xbd8c3376	-0.06845753
29	0x3cd9700d	0.026542688
30	0x3c8aa240	0.01692307
31	0x3d21128c	0.03932433
32	0x3d328de9	0.043592367
33	0xbd942933	-0.072344206
34	0x3d87227d	0.06598375
35	0x3d82a266	0.06378631
36	0x3d5e3a9d	0.054255117
37	0x3d2aa128	0.041657597
38	0x3ce536da	0.027980257
39	0x3de8276b	0.113356434
40	0x3d59026e	0.052980833
41	0x3db7bb7c	0.08971307
42	0x3da6fb9c	0.081534594
43	0x3e1b27d2	0.15151909
44	0x3dd8449d	0.10559962
45	0x3cfa1826	0.030529093
46	0x3b9396e7	0.004504073
47	0x39aea90d	0.0003331382
48	0xbdda5507	-0.10660749
49	0xbbc4dd38	-0.0060078166
50	0x3ddb7160	0.10714984
51	0xbcf22786	-0.029559862
52	0xbd844c0b	-0.064598165
53	0x3c5894dc	0.013219085
54	0x3b457eef	0.0030135473
55	0x3d338d4e	0.04383593
56	0xbcd66083	-0.026169067
57	0x3d2fbfb7	0.042907443
58	0x3d6526e6	0.0559453
59	0xbbae47bb	-0.0053186095
60	0x3b1dcb88	0.0024077613
61	0x3e080c04	0.13285834
62	0xbcb983ef	-0.022645919
63	0xbc0d4281	-0.008621813
64	0xbc0df6c4	-0.008664791
65	0xbd5f9ef7	-0.05459496
66	0x3da3a930	0.07991254
67	0x3cf26932	0.029591177
68	0x3d606729	0.05478588
69	0x3cf6477e	0.030063387
70	0x3ccf0873	0.025272584
71	0x3db9ab67	0.090658955
72	0x3cf0125d	0.029305631
73	0x3d90e9d3	0.070758484
74	0x3c7cd230	0.015430972
75	0xbc1a2cb9	-0.009410077
76	0x3c9c22f9	0.019059645
77	0xbd19b58e	-0.03752666
78	0x3da74cd6	0.08168952
79	0x3d1647ec	0.036689684
80	0x3c82e4d4	0.015978254
81	0xbdea716f	-0.11447417
82	0x3e135668	0.1438843
83	0xbce75c22	-0.028242175
84	0x3cfc1a8a	0.030774374
85	0xbc606e5a	-0.013698185
86	0xbd569dfe	-0.052396767
87	0x3d4da9f4	0.050210908
88	0xbd94de91	-0.07269014
89	0x3d8f4ac2	0.06996681
90	0x3d59a398	0.05313453
91	0x3dc8a6f1	0.097974665
92	0xbd888e91	-0.066678174
93	0x3c5b7bbf	0.013396203
94	0x3d5fa3ef	0.0545997
95	0xbd4d801d	-0.050171006
96	0xbdd6b915	-0.1048452
97	0xbd607021	-0.054794434
98	0x3c65dbfd	0.0140295
99	0x3c190bf2	0.009341227
100	0x3dc351fd	0.095371224
101	0x3cd99e58	0.026564762
102	0x3db44cc9	0.08803708
103	0xbd35d456	-0.044391952
104	0xbdf7e6bd	-0.12104557
105	0xbdde8627	-0.10865431
106	0xbbf9ba98	-0.0076211207
107	0xbd1b4323	-0.037905823
108	0xbda322eb	-0.079656444
109	0xbdb3a969	-0.08772547
110	0x3d986b39	0.07442326
111	0x3c8bb310	0.017053157
112	0x3d8028d5	0.06257788
113	0xbca3d869	-0.020000653
114	0xbd9a04af	-0.075204246
115	0x3d946b98	0.072470844
116	0xbccb5af0	-0.024823636
117	0x3c560103	0.013061765
118	0x3d558936	0.052132808
119	0xbd7f404a	-0.06231717
120	0xbcb80aea	-0.022466142
121	0x3dcdb316	0.100439236
122	0xbe007a12	-0.12546566
123	0x3d4c995a	0.049950935
124	0xbcbf8c25	-0.023382256
125	0x3ddac542	0.10682155
126	0xbd455f13	-0.048186373
127	0xbd53dc47	-0.051723745

fc.weight f4 [5, 128]
0	0x3ddf2b31	0.1089691
1	0xbdcfc2f5	-0.10144607
2	0xbe63c673	-0.22243671
3	0xbc885518	-0.016642138
4	0xbe456f72	-0.19280794
5	0xbc1d2324	-0.009590898
6	0x3e3ec26b	0.18628852
7	0x3c7594d5	0.014989098
8	0xbcb0c47c	-0.021578066
9	0xbe43d6c3	-0.19124894
10	0xbc9009b7	-0.017582757
11	0xbbc371c3	-0.005964489
12	0xbc4756ee	-0.012166722
13	0x3e28c047	0.16479598
14	0x3d25ff15	0.04052647
15	0xbe3bb7b1	-0.18331791
16	0x3cc002c9	0.023438828
17	0xbd204f6e	-0.03913825
18	0xbe02a4d1	-0.12758185
19	0x3ddf2815	0.10896317
20	0xbda708df	-0.08155989
21	0xbe348a19	-0.17630805
22	0x3e1a103c	0.15045255
23	0xbd6d9ce5	-0.058010954
24	0xbde3a3ed	-0.11115251
25	0x3d1bb4d5	0.03801425
26	0xbcbb6b0f	-0.022878198
27	0xbcd26413	-0.025682485
28	0xbd840164	-0.06445578
29	0x3dc7901a	0.09744282
30	0x3e45b6b1	0.19307972
31	0xbda066cb	-0.07832106
32	0x3e071e25	0.13195093
33	0x3d4de2a9	0.050264988
34	0x3b06f012	0.002058987
35	0xbbf4fc83	-0.007476391
36	0xbabb5db3	-0.0014294892
37	0x3e09ed3e	0.13469407
38	0xbe66b55c	-0.2253012
39	0x3c2c6d56	0.010524115
40	0x3e8cca45	0.2749807
41	0xbdf94c6c	-0.121727794
42	0xbe3a5f1e	-0.18200347
43	0x3e179212	0.14801815
44	0xbd647cf8	-0.055783242
45	0xbc992d15	-0.018698255
46	0xbe29a8eb	-0.16568343
47	0xbddd3d11	-0.10802663
48	0xbe213602	-0.15743259
49	0xbe190aa7	-0.1494547
50	0x3e1e885f	0.15481709
51	0x3c0687da	0.0082111005
52	0x3d46b8ca	0.048516072
53	0x3e435ca2	0.19078305
54	0x3e076c0d	0.13224812
55	0x3e919990	0.2843747
56	0x3e87bdd6	0.2651202
57	0x3e337e71	0.17528702
58	0x3c9838ed	0.018581832
59	0xbe3ba0b4	-0.18323022
60	0xbd19099a	-0.037362672
61	0x3d8c6f3d	0.068571545
62	0x3e02becb	0.12768094
63	0x3d07b4e1	0.033131484
64	0xbe1c29e8	-0.15250361
65	0x3d53bd0a	0.051693954
66	0xbbb56600	-0.005535841
67	0xbd84f417	-0.06491869
68	0xbde5364d	-0.11191998
69	0x3e1f23b1	0.15540959
70	0xbd74b9dd	-0.059747566
71	0xbe09ec9e	-0.13469169
72	0x3cda4610	0.026644737
73	0x3e193cef	0.1496465
74	0x3dedd1f1	0.11612309
75	0x3dd39aa9	0.103322335
76	0x3d823edd	0.063596465
77	0x3e29c085	0.16577347
78	0x3e32b6c9	0.1745254
79	0xb9b392fa	-0.00034251047
80	0xbdd56592	-0.104197636
81	0xbc6fe575	-0.014642109
82	0x3c0d7529	0.00863389
83	0x3dd82c97	0.1055538
84	0xbd31fdcd	-0.043454934
85	0x3ce3d1ee	0.027810063
86	0x3e033930	0.12814784
87	0xbdd7e5ed	-0.10541902
88	0x3c6dc304	0.014511827
89	0x3e1412fc	0.14460367
90	0xbc95c332	-0.018281553
91	0x3e1202e4	0.14258915
92	0x3d44134b	0.04786996
93	0xbe49b61b	-0.19698374
94	0xbd8bbe65	-0.06823424
95	0xbdfb4b58	-0.1227023
96	0x3debf925	0.1152213
97	0xbd1ed589	-0.03877786
98	0xbd41e074	-0.047333196
99	0x3e2067f5	0.15664656
100	0x3e27228d	0.16321774
101	0xbc087f14	-0.008331079
102	0xbdb52e3a	-0.08846708
103	0xbd69ef69	-0.057113085
104	0x3e07d055	0.13263066
105	0xbe36e31b	-0.17860071
106	0x3dc5e1f9	0.096622415
107	0xbd8a8c60	-0.06765056
108	0xbd5a66de	-0.053320758
109	0xbe6194a1	-0.22029354
110	0x3d85612f	0.06512677
111	0xbd8f0526	-0.06983404
112	0x3d56f96b	0.052483957
113	0xbca2f67a	-0.01989292
114	0x3d89ab26	0.06722097
115	0x3d9d0cb6	0.0766844
116	0xbe457585	-0.19283111
117	0xbd4f7c62	-0.05065573
118	0x3dd3f63e	0.10349701
119	0xbcd36df9	-0.025809275
120	0xbbadf246	-0.0053084223
121	0x3e13fce4	0.14451939
122	0x3dbf8c28	0.093529046
123	0x3c4ff4a3	0.012692603
124	0x3d24e666	0.040258788
125	0x3e830f2a	0.25597507
126	0x3dab79aa	0.08372815
127	0xbcd1993c	-0.025585763
128	0xbeb11b03	-0.3459092
129	0xbd29fd93	-0.041501593
130	0xbe3cac7d	-0.18425174
131	0xbd394c5a	-0.04523883
132	0xbe12bf0c	-0.14330691
133	0xbd734e5d	-0.059400905
134	0xbe134045	-0.14379986
135	0x3e20d517	0.15706287
136	0xbe812084	-0.2522012
137	0xbe57278e	-0.21011183
138	0xbe2f9d92	-0.17149952
139	0xbdf83bb7	-0.12120765
140	0xbe4a3956	-0.19748434
141	0x3e01d94f	0.12680553
142	0x3d3490b4	0.044083312
143	0xbbcb56c7	-0.006205413
144	0x3db19e92	0.08672823
145	0xbdcab4b3	-0.09897747
146	0x3d1d1788	0.03835252
147	0xbdbcd433	-0.09220161
148	0xbdd28885	-0.10279945
149	0x3e4824c0	0.19545269
150	0x3e811bb0	0.25216436
151	0xbda600c3	-0.08105614
152	0xbe1d6e3b	-0.15374081
153	0x3bf17dc2	0.007369728
154	0x3dee4f50	0.116362214
155	0xbe593698	-0.21212232
156	0x3ec94dbe	0.39317125
157	0xbe80abef	-0.25131175
158	0xbdad48f2	-0.08461179
159	0x3d57f2ff	0.052721974
160	0x3e8d2aad	0.27571622
161	0xbdb46c36	-0.08809702
162	0x3c02328b	0.007946621
163	0x3de25f7e	0.1105337
164	0xbe48f763	-0.1962562
165	0x3db586f6	0.088636324
166	0xbdba8e75	-0.09109203
167	0xbe90c92c	-0.28278482
168	0x3e1081fe	0.14112088
169	0x3e7d72d1	0.2475083
170	0x3e364105	0.1779824
171	0xbe9c6c45	-0.30551353
172	0x3dc1e273	0.0946702
173	0x3db5feb6	0.08886473
174	0xbe0e58e6	-0.139011
175	0x3d205e0e	0.039152198
176	0xbdf8f5e6	-0.121562764
177	0x3e26570e	0.16244146
178	0xbda89a07	-0.082325034
179	0x3d3a2466	0.04544487
180	0xbe871155	-0.2638041
181	0x3e5fa01c	0.2183842
182	0x3d64d60e	0.0558682
183	0xbdb65846	-0.089035556
184	0x3d7685cd	0.060186196
185	0x3e00b809	0.12570204
186	0xbe1e6240	-0.15467167
187	0xbd9e4d6b	-0.0772961
188	0x3d864870	0.06556785
189	0x3dd6d460	0.10489726
190	0x3e25d272	0.1619356
191	0xbcb82061	-0.022476377
192	0xbcec7297	-0.028863234
193	0x3e1b9707	0.15194331
194	0xbeb6f030	-0.35730124
195	0x3e90a25d	0.28248873
196	0x3dce0385	0.10059265
197	0x3d080897	0.033211317
198	0x3e223db4	0.1584385
199	0x3e18288a	0.14859214
200	0xbc575091	-0.013141767
201	0x3d9c121f	0.07620644
202	0xbe0d07d7	-0.13772522
203	0xbe2d2979	-0.16910352
204	0x3d8b1dbc	0.06792781
205	0xbd27a944	-0.04093291
206	0x3ce215ea	0.02759834
207	0x3e05013b	0.1298875
208	0x3e8a8755	0.27056375
209	0x3daeda03	0.08537676
210	0xbeb4738f	-0.35244414
211	0x3cee9ac7	0.029126538
212	0x3defdd65	0.117121495
213	0x3e82a619	0.25517347
214	0xba8d8c79	-0.001079931
215	0x3e4eb8e6	0.2018772
216	0xbddd6ddc	-0.1081197
217	0xbcc6f8c5	-0.024288544
218	0x3e3af716	0.18258318
219	0x3d880809	0.066421576
220	0xbe8d6b8b	-0.2762111
221	0xbdc4e45a	-0.09613867
222	0x3e04e01e	0.12976119
223	0x3db3495a	0.08754225
224	0xbdb7d84a	-0.08976801
225	0xbe040e4a	-0.12896076
226	0xbd14794b	-0.036248486
227	0xbd8c00df	-0.06836104
228	0x3e0bcc20	0.13652086
229	0x3e48c09e	0.19604728
230	0x3d8b7f26	0.06811361
231	0xbce6714d	-0.028130198
232	0xb9d3e6e1	-0.00040417074
233	0xbdf8a373	-0.121405505
234	0x3e40ca1f	0.18827103
235	0x3d848920	0.06471467
236	0xbe23d88c	-0.16000575
237	0xbde2138c	-0.110388845
238	0x3cf84eac	0.030310951
239	0xbdac4e43	-0.08413365
240	0x3d921380	0.071326256
241	0xbd519207	-0.051164653
242	0x3e8713e2	0.26382357
243	0x3e420474	0.18947011
244	0xbdd9768d	-0.10618315
245	0xbe417cba	-0.18895236
246	0x3d3afd12	0.045651503
247	0xbd239bc2	-0.039943464
248	0x3d11d837	0.03560659
249	0x3dbd8d23	0.09255435
250	0xbc3bec7c	-0.0114699565
251	0xbdff98a1	-0.124802835
252	0xbe2193a6	-0.1577898
253	0x3e171248	0.14753067
254	0x3ea42062	0.32055956
255	0x3e4a3856	0.19748053

fc.bias f4 [5]
0	0xbd3059c7	-0.04305437
1	0xbd6429a1	-0.055703763
2	0x3d956a19	0.07295627
3	0xbdc9e882	-0.098588005
4	0xbd811bad	-0.06304107
