models/2.0.1-recurrent-neural-network-model-test-128x2.pth (torch, 204938 bytes, 10 tensors)

rnn.weight_ih_l0 f4 [128, 3]
-0.13411868 -0.3363113 -0.237409 0.05393656 0.08861977 -0.14725402 -0.068316944 -0.24870639
0.0682812 0.06962229 -0.025868688 -0.18520801 -0.122803904 0.2114564 0.1662795 -0.20929787
0.13047472 0.07047636 0.043709777 -0.16388576 -0.04657084 0.40718096 0.054519974 0.047796614
-0.23509136 -0.048490122 -0.08089065 -0.105166145 0.14381978 0.12172829 -0.22682808 -0.16502553
-0.13087675 -0.11107307 -0.17362818 0.20230916 -0.29159352 -0.2070304 0.06321633 -0.36461943
0.075539544 0.24559249 0.24325854 0.020655148 -0.060570117 -0.055360507 -0.30030116 -0.12999295
0.17959453 0.031948596 -0.37184763 0.027758826 0.020042825 0.16351303 0.26156 0.102564074
-0.10839671 -0.07392012 -0.041671768 0.013970506 0.12970757 -0.11523814 -0.05071586 -0.021684172
-0.09715031 0.03619812 -0.032337163 -0.092515156 -0.006326117 0.09639124 0.079709664 0.17092733
0.32972002 0.0960582 -0.05849902 0.14304864 -0.03824485 0.012674015 -0.29110253 0.11767828
0.22855334 0.05178746 0.025098786 0.1367436 -0.24561402 0.20939447 -0.025688235 0.22968946
0.06732847 -0.097195506 -0.35903943 -0.34148595 -0.0529843 0.07729323 -0.30123016 -0.17626859
0.10207125 0.07561949 -0.14899738 -0.19056515 -0.01643741 -0.04942248 -0.06434446 0.18158463
0.06396521 -0.31773424 -0.16460128 0.12972373 0.07877112 0.11816213 -0.03445163 0.007382385
-0.056303643 -0.20223202 -0.15367556 -0.13126579 0.08161328 -0.19599137 0.11160127 0.21074294
-0.08533026 -0.19288655 0.07323901 -0.13313946 -0.09354275 -0.12458725 0.094978705 0.17008932
-0.01899057 -0.06848155 -0.14791574 0.19488743 0.06874154 0.11157775 0.00831079 -0.17754537
-0.072155036 0.03952039 -0.15190026 0.16298415 -0.09015241 0.17509691 -0.32118243 -0.06397146
-0.15494254 0.10791997 0.023786157 0.08855344 -0.0060504973 0.17406769 0.05147605 0.3444413
0.14353186 -0.32343617 -0.18069437 0.1480201 -0.02878717 -0.054942004 -0.13939314 -0.4683687
-0.33021626 -0.19986469 -0.07669336 -0.18616973 0.18005183 0.062797636 0.057263296 0.032045104
-0.07392923 -0.2511256 0.026536738 0.19955996 0.27768615 0.10024947 -0.24026793 -0.049230937
-0.053819038 0.090951875 -0.02727995 -0.0041352566 0.09721163 -0.08816075 0.031768795 -0.0265957
0.13002558 0.050004162 0.19437467 0.12925015 -0.17466801 0.015310077 -0.23723073 -0.08740545
-0.099468224 -0.11448975 0.15826908 -0.16170888 -0.12301719 -0.041959453 0.08754981 0.104939125
0.06753703 -0.0573219 -0.2211718 -0.19070116 -0.16730782 -0.1554099 0.10065008 0.08396825
0.24067132 0.020609746 -0.15674922 -0.1625454 0.048399985 -0.05128304 -0.15284546 0.013309803
-0.060201555 0.084663644 -0.08706137 -0.09853429 0.092337415 0.07679615 0.17060705 -0.147267
0.01927378 0.19824736 0.08383702 0.08215562 -0.14205828 -0.040862035 0.20767808 -0.21686389
-0.084399395 -0.007414004 0.07050691 0.13926432 -0.038194504 0.35342482 0.19464737 -0.01331012
0.04954059 0.08809308 0.101374224 -0.29305896 -0.06972508 -0.23121718 -0.29899356 0.09899357
0.09938214 0.049432162 -0.19128528 -0.13084109 -0.2806649 0.11944632 0.12020614 -0.07987664
00000000: 6856 09be ff30 acbe 581b 73be 95ec 5c3d
00000010: 487e b53d c2c9 16be c1e9 8bbd e3ac 7ebe
00000020: 04d7 8b3d 2296 8e3d 92ea d3bc 2ba7 3dbe
00000030: 9d80 fbbd 0788 583e 2c45 2a3e 2e52 56be
00000040: 2a9b 053e e955 903d 0609 333d abd1 27be
00000050: 11c1 3ebd 067a d03e 5650 5f3d 62c6 433d
00000060: cabb 70be 949d 46bd ffa9 a5bd 5961 d7bd
00000070: 7e45 133e af4c f93d 9f45 68be 74fc 28be
00000080: 8e04 06be 477a e3bd 96cb 31be 222a 4f3e
00000090: bf4b 95be c7ff 53be 9077 813d 66af babe
000000a0: 7ab4 9a3d 997c 7b3e c418 793e fc34 a93c
000000b0: 5f18 78bd b3c1 62bd 13c1 99be df1c 05be
000000c0: a1e7 373e 88dc 023d d062 bebe 7a66 e33c
000000d0: da30 a43c f66f 273e 31eb 853e 1d0d d23d
000000e0: 18ff ddbd 6f63 97bd 04b0 2abd 8de4 643c
000000f0: 10d2 043e f901 ecbd 6fbb 4fbd 01a3 b1bc
00000100: bef6 c6bd 7b44 143d f973 04bd 9678 bdbd
00000110: 514b cfbb c568 c53d d23e a33d 9307 2f3e
00000120: 10d1 a83e 29ba c43d ab9c 6fbd 587b 123e
00000130: a2a6 1cbd aca6 4f3c 640b 95be 4f01 f13d
00000140: e309 6a3e 161f 543d f89b cd3c 8406 0c3e
00000150: 3e82 7bbe 816b 563e 2270 d2bc b733 6b3e
00000160: 82e3 893d 700e c7bd 04d4 b7be 3fd7 aebe
00000170: 1106 59bd ea4b 9e3d d73a 9abe c17f 34be
00000180: bb0a d13d 64de 9a3d c592 18be 8323 43be
00000190: bfa7 86bc 3a6f 4abd 07c7 83bd 52f1 393e
000001a0: 3100 833d 10ae a2be 3d8d 28be 4cd6 043e
000001b0: c152 a13d fdfe f13d 271d 0dbd efe7 f13b
000001c0: a69e 66bd e915 4fbe 205d 1dbe 8a6a 06be
000001d0: dd24 a73d f6b1 48be 358f e43d ffcc 573e
000001e0: a2c1 aebd 0d84 45be 56fe 953d b655 08be
000001f0: 5793 bfbd 9a27 ffbd 3284 c23d e52b 2e3e
00000200: 1d92 9bbc 0e40 8cbd 3977 17be 9290 473e
00000210: 5dc8 8c3d e082 e43d fb29 083c 74ce 35be
00000220: 05c6 93bd 22e0 213d be8b 1bbe 51e5 263e
00000230: d4a1 b8bd 9b4c 333e 0672 a4be 7803 83bd
00000240: 42a9 1ebe 2505 dd3d 30db c23c 825b b53d
00000250: 4043 c6bb cd3e 323e 8dd8 523d 9c5a b03e
00000260: 04fa 123e 6d99 a5be f207 39be 9592 173e
00000270: 12d3 ebbc de0a 61bd 13bd 0ebe 06ce efbe
00000280: 1b12 a9be 54a9 4cbe 6911 9dbd 47a3 3ebe
00000290: 825f 383e 0c9c 803d eb8c 6a3d ba41 033d
000002a0: 3568 97bd 8993 80be 9363 d93c 7259 4c3e
000002b0: e12c 8e3e 984f cd3d cc08 76be 61a6 49bd
000002c0: 5a71 5cbd fa44 ba3d 347a dfbc 0c81 87bb
000002d0: e416 c73d a08d b4bd ff1f 023d 3adf d9bc
000002e0: 6d25 053e 2ad1 4c3d 270a 473e 275a 043e
000002f0: 2cdc 32be 1ed7 7a3c 9dec 72be a101 b3bd
00000300: ffb5 cbbd 9a79 eabd 4a11 223e 0397 25be
00000310: 70f0 fbbd addd 2bbd 514d b33d 53ea d63d
00000320: db50 8a3d 5eca 6abd dc7a 62be 2a47 43be
00000330: be52 2bbe c623 1fbe a121 ce3d 8cf7 ab3d
00000340: 8b72 763e c5d5 a83c de82 20be 4d72 26be
00000350: 103f 463d 2a0e 52bd 8583 1cbe 5c11 5a3c
00000360: e895 76bd 2264 ad3d 3b4d b2bd 59cc c9bd
00000370: 661b bd3d 4d47 9d3d 9db3 2e3e 29cd 16be
00000380: 0ce4 9d3c 5b01 4b3e beb2 ab3d 3541 a83d
00000390: ba77 11be f35e 27bd 90a9 543e 9111 5ebe
000003a0: 97d9 acbd 2cf1 f2bb ed65 903d 4e9b 0e3e
000003b0: d771 1cbd 19f4 b43e a451 473e b112 5abc
000003c0: 13eb 4a3d 256a b43d 4a9d cf3d d30b 96be
000003d0: 06cc 8ebd 32c4 6cbe af15 99be 24bd ca3d
000003e0: dd88 cb3d 6179 4a3d 4ae0 43be 35fb 05be
000003f0: 4fb3 8fbe 46a0 f43d a32e f63d 5d96 a3bd

rnn.weight_hh_l0 f4 [128, 128]
-0.036176555 0.03548036 -0.033764474 0.06933148 0.02728842 0.060393687 -0.04158944 -0.019205622
-0.001629924 -0.080051504 0.06381623 -0.039375924 -0.075906046 -0.034693938 -0.10438426 0.091098554
0.047163587 0.004949087 -0.10862401 0.079347484 0.048230216 0.007133519 0.012649993 -0.06596434
-0.04463846 -0.11703259 -0.02322875 -0.091545835 -0.014286251 -0.010620137 0.055648748 0.10829231
-0.05649695 -0.08661265 0.005196003 0.039583478 -0.03286828 -0.008862791 0.08607955 -0.06077099
0.08175323 0.079128124 -0.004581716 -0.016037622 0.05896717 0.024569562 -0.051461596 -0.0027792032
-0.030196883 0.08056188 0.0092780795 0.01837621 0.04167531 0.0023857648 0.0047030863 -0.032105345
0.0053452086 -0.013921187 -0.035563268 0.041449036 -0.057606284 0.07687551 0.017086226 -0.014809393
-0.0056546493 -0.015933754 0.07755377 -0.058075942 0.0031752049 -0.07531104 0.09871916 0.017780632
0.05805641 -0.08545186 -0.06046928 -0.10375612 -0.027832663 0.035984818 -0.023250245 -0.087599635
-0.009533111 -0.011772872 0.051821273 -0.035652444 0.0126464935 -0.024658835 -0.06179479 0.04404293
0.03294681 0.104464695 -0.039247055 -0.07949375 -0.08426989 -0.0140548255 -0.094180375 -0.044147328
0.06672684 -0.020852799 0.08133124 -0.060710665 -0.0008539331 0.01823008 0.00010996502 -0.03189541
-0.022044474 -0.031062495 0.032329217 -0.03888556 -0.005897532 -0.086906716 -0.08944652 0.07679674
-0.013938132 -0.008695408 0.030720484 0.09854863 0.05048398 0.0040844865 -0.050644215 0.026861114
0.08668347 0.059035514 -0.056511063 0.013646668 0.07062286 0.020170491 -0.037020773 -0.084805846
-0.005285803 0.002760925 0.008713305 -0.042431075 0.028398635 -0.04130931 0.039306477 0.026918504
-0.08462866 0.085948266 -0.083082445 -0.08122491 -0.02298081 -0.077096686 -0.029841606 0.046460092
-0.016626349 -0.019238591 0.08811427 0.059708066 -0.021592386 -0.059170555 0.0010840654 -0.005017481
0.08857883 -0.006923585 0.02328368 -0.019383265 0.037162587 0.07803464 -0.10540106 -0.015249452
0.09331398 -0.08711176 -0.07302665 0.035095852 0.008918924 -0.026263816 0.07139531 0.09465896
-0.035982832 -0.08343054 0.07594579 0.054315288 -0.018769154 -0.0052284 -0.042135976 -0.024865333
0.023056028 0.04384456 -0.043092586 -0.059510425 -0.018727122 -0.05036319 -0.0045219697 -0.01003094
0.02432333 0.07243962 0.012322082 -0.058409568 0.0026445023 -0.0054044393 -0.0040037935 0.08105876
0.051215064 0.017040968 0.029313287 0.015307882 0.012904153 -0.048848823 0.047136713 0.009824813
0.0011199228 0.0083861165 -0.08326979 -0.063763715 -0.07744204 -0.021944692 0.07176523 0.076843284
0.032233253 -0.07958716 0.017259192 0.033221792 0.027869053 0.082734816 -0.054996606 -0.011810049
-0.070227794 0.07450005 -0.08370022 -0.03340969 0.07985572 0.007643073 -0.045640554 0.028600063
-0.021766849 0.0050079715 0.018475663 -0.022932027 0.045226626 0.08396758 -0.051552255 0.052877896
0.06623132 -0.064099975 0.013971072 -0.08772969 -0.04791753 -0.03101436 -0.0007957861 -0.018147768
-0.00041591906 -0.030639527 -0.0224752 0.045364533 0.025809616 -0.03889554 -0.064364426 0.09553722
0.053332023 0.08700291 -0.015970746 0.041392185 0.011637205 -0.0709476 -0.08852475 -0.06450444
00000000: de2d 14bd db53 113d 9e4c 0abd aafd 8d3d
00000010: f78b df3c 5f5f 773d b059 2abd 1c55 9dbc
00000020: 2da3 d5ba 0bf2 a3bd 15b2 823d a648 21bd
00000030: a174 9bbd 3b1b 0ebd 6ac7 d5bd e191 ba3d
00000040: 9b2e 413d f32b a23b 4476 debd ef80 a23d
00000050: 0c8d 453d 4bc0 e93b eb41 4f3c 5018 87bd
00000060: d1d6 36bd c8ae efbd 384a bebc 627c bbbd
00000070: e110 6abc 1500 2ebc f1ef 633d 5cc8 dd3d
00000080: 5969 67bd f961 b1bd 3b43 aa3b 4922 223d
00000090: e4a0 06bd 3d35 11bc 7a4a b03d 00eb 78bd
000000a0: 3d6e a73d ed0d a23d 3822 96bb 5561 83bc
000000b0: 8f87 713d 1b46 c93c 65c9 52bd 4b23 36bb
000000c0: 745f f7bc a0fd a43d 1603 183c b589 963c
000000d0: bbb3 2a3d 7e5a 1c3b 591c 9a3b e580 03bd
000000e0: dc26 af3b b115 64bc caaa 11bd 77c6 293d
000000f0: 91f4 6bbd e870 9d3d 6af8 8b3c 19a3 72bc
00000100: a34a b9bb 8187 82bc 83d4 9e3d 0ae1 6dbd
00000110: 1917 503b ad3c 9abd 452d ca3d b0a8 913c
00000120: 8fcc 6d3d 6301 afbd a3ae 77bd 177e d4bd
00000130: 5301 e4bc d164 133d 4c77 bebc 7067 b3bd
00000140: c430 1cbc 01e3 40bc 8b42 543d 4c08 12bd
00000150: 3d33 4f3c 5301 cabc 891c 7dbd 5c66 343d
00000160: 3cf3 063d 96f1 d53d 85c1 20bd 9fcd a2bd
00000170: b195 acbd 3646 66bc a4e1 c0bd d4d3 34bd
00000180: 15a8 883d 7dd3 aabc fe90 a63d bfab 78bd
00000190: 7bda 5fba 4057 953c 059d e638 c3a4 02bd
000001a0: 9d96 b4bc c676 febc a46b 043d 7746 1fbd
000001b0: 1640 c1bb 26fc b1bd bd2f b7bd 9c47 9d3d
000001c0: c35c 64bc 2f77 0ebc 86a9 fb3c ddd3 c93d
000001d0: 4ac8 4e3d 28d7 853b 4f70 4fbd d70b dc3c
000001e0: 1a87 b13d 39cf 713d 2578 67bd 4696 5f3c
000001f0: b8a2 903d 963c a53c 18a3 17bd b0ae adbd
00000200: 8834 adbb a3f0 343b 40c2 0e3c 35cc 2dbd
00000210: 41a4 e83c f333 29bd d4ff 203d 3284 dc3c
00000220: ca51 adbd a505 b03d 2127 aabd 3f59 a6bd
00000230: 4042 bcbc dee4 9dbd 6276 f4bc f04c 3e3d
00000240: fb33 88bc 409a 9dbc 4175 b43d 7290 743d
00000250: 84e2 b0bc d35c 72bd 3317 8e3a ae69 a4bb
00000260: d168 b53d 3edf e2bb 6bbd be3c a7c9 9ebc
00000270: cc37 183d a0d0 9f3d 83dc d7bd d6d8 79bc
00000280: 661b bf3d a767 b2bd ff8e 95bd abc0 0f3d
00000290: ae20 123c 3727 d7bc b437 923d 8fdc c13d
000002a0: bc62 13bd a2dd aabd 7789 9b3d b579 5e3d
000002b0: c5c1 99bc 0053 abbb c696 2cbd 62b2 cbbc
000002c0: ffdf bc3c 5a96 333d da81 30bd 34c1 73bd
000002d0: 9f69 99bc a249 4ebd 082d 94bb d058 24bc
000002e0: b841 c73c 395b 943d 8fe2 493c df3e 6fbd
000002f0: 634f 2d3b b917 b1bb 4132 83bb 2302 a63d
00000300: e3c6 513d 8099 8b3c 6b22 f03c e9cd 7a3c
00000310: f16b 533c b415 48bd 6d12 413d 41f8 203c
00000320: 60ca 923a ec65 093c 5a89 aabd 8d96 82bd
00000330: ef99 9ebd 5bc5 b3bc a6f9 923d 0360 9d3d
00000340: 0407 043d 98fe a2bd 2663 8d3c 9313 083d
00000350: a44d e43c df70 a93d 1f44 61bd f07e 41bc
00000360: 97d3 8fbd 7b93 983d 056b abbd 99d8 08bd
00000370: 658b a33d be72 fa3b 97f1 3abd ae4a ea3c
00000380: 6450 b2bc e919 a43b 465a 973c f2db bbbc
00000390: 8e3f 393d 32f7 ab3d 7528 53bd 7e96 583d
000003a0: 49a4 873d d946 83bd ece6 643c a0ab b3bd
000003b0: 2c45 44bd d411 febc 4d9c 50ba a1aa 94bc
000003c0: b60f dab9 bfff fabc e91d b8bc 29d0 393d
000003d0: b06e d33c ee50 1fbd 7fd1 83bd 05a9 c33d
000003e0: ae72 5a3d 952e b23d 15d5 82bc da8a 293d
000003f0: faa9 3e3c fa4c 91bd 774c b5bd e71a 84bd

rnn.bias_ih_l0 f4 [128]
0.011155299 0.0006694495 -0.05421099 0.026024086 -0.03616059 0.020461109 -0.014007742 -0.002967434
-0.023126073 -0.033951398 -0.07055636 -0.03306527 -0.100318186 -0.05668294 0.012276689 0.01150507
0.06444117 -0.035727903 0.0060525513 -0.056308683 -0.039650045 -0.007693395 -0.01666697 0.02092642
-0.00200091 -0.0266916 0.0010523807 0.05731176 0.07729371 -0.0041706045 0.018320462 -0.021995869
-0.020205114 -0.052275535 0.004693002 0.066012256 -0.009691016 0.0017330572 0.051969517 6.1597995e-05
-0.004643108 -0.073086545 0.064508475 -0.04093353 0.028381757 0.032049354 -0.013464282 -0.013463593
0.028504886 0.026314663 0.025483513 -0.07654487 0.096982315 -0.046171486 0.09974261 0.017396374
-0.038052928 -0.05695222 0.026771069 0.019060794 0.0127280615 0.044434946 -0.014847505 0.03177287
-0.067976944 -0.008337707 -0.02163918 0.008799589 -0.01697747 0.052778754 -0.030388627 -0.05840986
-0.014410584 0.030397033 -0.028957972 -0.004078124 0.041531876 -0.030207202 0.023317931 -0.021308774
-0.035827406 -0.022616856 -0.097823024 -0.041400604 0.039010298 0.009448842 -0.024692664 0.062682845
0.013413503 -0.041476563 -0.044908877 -0.02224778 -0.009648676 -0.044822596 -0.033067808 -0.06819763
-0.007199018 -0.02712327 -0.0030029751 -0.030987835 0.022272741 0.0409181 -0.05282783 -0.030660141
-0.0476413 -0.019970028 -0.026319375 -0.013972688 -0.022558218 0.04253112 -0.0030554994 0.04124795
-0.036922418 -0.05270165 0.055545 -0.095518425 -0.0027953726 -0.04028289 0.043325555 -0.10897933
0.037628006 -0.021135185 -0.07669555 0.037536956 -0.075651005 0.09933572 -0.091008894 0.008759367
00000000: b7c4 363c ff7d 2f3a 580c 5ebd 7730 d53c
00000010: 201d 14bd 0e9e a73c ba80 65bc 4879 42bb
00000020: e472 bdbc 9f10 0bbd da7f 90bd 736f 07bd
00000030: 9f73 cdbd 5f2c 68bd 2a24 493c c37f 3c3c
00000040: bbf9 833d 6c57 12bd 7b54 c63b efa3 66bd
00000050: 1668 22bd e018 fcbb 2b89 88bc e26d ab3c
00000060: b321 03bb 58a8 dabc 09f0 893a bcbf 6a3d
00000070: 2a4c 9e3d 91a9 88bb cb14 963c ae30 b4bc
00000080: 3285 a5bc df1e 56bd c1c7 993b 6f31 873d
00000090: 11c7 1ebc c027 e33a fddd 543d 2c2e 8138
000000a0: 3725 98bb 66ae 95bd 051d 843d eba9 27bd
000000b0: dc80 e83c 2f46 033d 4b99 5cbc 6796 5cbc
000000c0: 1483 e93c d991 d73c cdc2 d03c 8fc3 9cbd
000000d0: aa9e c63d 501e 3dbd da45 cc3d d782 8e3c
000000e0: 63dd 1bbd bb46 69bd 004f db3c 6225 9c3c
000000f0: 5c89 503c 6b01 363d f342 73bc 4524 023d
00000100: 7f37 8bbd e19a 08bc a644 b1bc 272c 103c
00000110: 5614 8bbc 892e 583d 92f1 f8bc 2d3f 6fbd
00000120: 5f1a 6cbc 3303 f93c 4539 edbc c9a1 85bb
00000130: 541d 2a3d 1875 f7bc 3f05 bf3c bd8f aebc
00000140: c2bf 12bd fc46 b9bc 7057 c8bd ae93 29bd
00000150: 43c9 1f3d 51cf 1a3c 4548 cabc dd5f 803d
00000160: 4fc4 5b3c 54e3 29bd 5ff2 37bd fa40 b6bc
00000170: 7b15 1ebc e697 37bd 1c72 07bd 33ab 8bbd
00000180: bde5 ebbb 9f31 debc 90cd 44bb 33da fdbc
00000190: 5375 b63c bd99 273d ff61 58bd fa2a fbbc
000001a0: 8623 43bd 2f98 a3bc bb9b d7bc b3ed 64bc
000001b0: 03cc b8bc 1d35 2e3d c63e 48bb 9cf3 283d
000001c0: f63b 17bd afdd 57bd 2783 633d 2a9f c3bd
000001d0: 9232 37bb acff 24bd 2376 313d 8e30 dfbd
000001e0: d31f 1a3d b223 adbc 8e12 9dbd 5ac0 193d
000001f0: eaee 9abd 8770 cb3d df62 babd 7383 0f3c

rnn.bias_hh_l0 f4 [128]
-0.02552974 0.038189113 -0.090605065 -0.02559626 0.014458049 0.04412214 -0.011958316 0.08079226
-0.08939974 0.058692046 -0.014884867 0.0022239257 0.030662792 0.08217487 -0.07249078 -0.06363745
0.012248842 0.04101177 0.007317288 0.058711834 -0.017665647 0.056982428 -0.04994595 0.1036217
0.07448096 0.0180703 0.02420809 -0.0066853873 -0.016915468 0.02881595 0.003363905 -0.06892582
0.08631017 -0.025845394 0.052316707 -0.011264163 0.015289197 -0.11681785 -0.04288827 0.011859721
-0.10611986 0.020529736 0.056759365 0.022529608 0.015422786 -0.0152537525 -0.042853486 -0.08529026
0.068834916 0.07554169 0.03957876 0.021216333 -0.02971215 -0.031571154 -0.026596077 0.0102202995
-0.09333309 0.008054693 -0.03873506 -0.026578888 -0.038474396 0.014715071 0.07615976 -0.08567387
-0.036709603 -0.040692136 -0.0115447035 -0.065546334 -0.0045732753 -0.006867676 -0.0070803342 1.547876e-05
-0.009356886 0.03442597 -0.012282451 0.025946522 -0.09770496 -0.046543334 0.05550411 -0.07305622
0.046687666 -0.11549409 0.026483044 0.046763238 -0.0073640323 0.016395887 0.08310239 0.013967777
-0.03833655 -0.007503986 0.0698042 0.025366269 0.008540947 0.050358757 -0.05730452 0.06827862
-0.03715329 -0.049728803 -0.05953178 0.013651771 0.0063144914 0.061803095 -0.060887825 0.0331248
-0.027659591 0.12985756 0.027596315 0.0773574 -0.05630372 0.103952885 0.018247997 -0.017624384
0.05012822 0.08499866 -0.04609235 -0.015859103 0.08993514 0.050439104 -0.07004831 0.005472435
-0.05948934 -0.042512048 -0.058279138 0.052963305 -0.023738155 -0.02791709 -0.08805874 -0.0471185
00000000: bf23 d1bc 306c 1c3d 268f b9bd 3faf d1bc
00000010: 74e1 6c3c 6bb9 343d d0ec 43bc 6a76 a53d
00000020: 3617 b7bd 1267 703d a8df 73bc 48bf 113b
00000030: 8930 fb3c 4c4b a83d 0c76 94bd 5a54 82bd
00000040: 5eaf 483c f5fb 273d dcc5 ef3b d27b 703d
00000050: 8cb7 90bc 6866 693d 2094 4cbd 9d37 d43d
00000060: 7989 983d 2a08 943c 0b50 c63c 1811 dbbb
00000070: 4f92 8abc 6d0f ec3c f674 5c3b fb28 8dbd
00000080: 63c3 b03d b8b9 d3bc 0b4a 563d 538d 38bc
00000090: 8a7f 7a3c 323e efbd 9cab 2fbd 464f 423c
000000a0: 5f55 d9bd fa2d a83c 827c 683d 0390 b83c
000000b0: daaf 7c3c e0ea 79bc 2387 2fbd a9ac aebd
000000c0: 52f9 8c3d 9ab5 9a3d 561d 223d e0cd ad3c
000000d0: e566 f3bc c150 01bd 04e0 d9bc 0b73 273c
000000e0: 6b25 bfbd d5f7 033c a7a8 1ebd f8bb d9bc
000000f0: 5497 1dbd 7b17 713c a6f9 9b3d c875 afbd
00000100: cf5c 16bd ccac 26bd ff25 3dbc 283d 86bd
00000110: 6adb 95bb 3e0a e1bb 2602 e8bb 62d8 8137
00000120: a04d 19bc 3f02 0d3d 553c 49bc cd8d d43c
00000130: 8a19 c8bd 39a4 3ebd 4758 633d 809e 95bd
00000140: 913b 3f3d 2a88 ecbd f8f2 d83c cf8a 3f3d
00000150: fb4d f1bb ab50 863c 9631 aa3d 1ad9 643c
00000160: c906 1dbd ffe3 f5bb 81f5 8e3d eccc cf3c
00000170: 54ef 0b3c fc44 4e3d 25b8 6abd a9d5 8b3d
00000180: 0c2e 18bd 6eb0 4bbd 99d7 73bd adab 5f3c
00000190: cbe9 ce3b 3e25 7d3d 8365 79bd dfad 073d
000001a0: 5e96 e2bc 61f9 043e ab11 e23c 8e6d 9e3d
000001b0: bb9e 66bd 40e5 d43d d37c 953c 0361 90bc
000001c0: 4053 4d3d c713 ae3d 55cb 3cbd f3ea 81bc
000001d0: ea2f b83d 3c99 4e3d 7d75 8fbd 1d52 b33b
000001e0: 18ab 73bd 1d21 2ebd 1bb6 6ebd 0df0 583d
000001f0: 8576 c2bc 62b2 e4bc 2458 b4bd 54ff 40bd

rnn.weight_ih_l1 f4 [128, 128]
-0.060438223 0.08919222 -0.14912918 0.057595994 0.051877227 -0.03716546 0.0069737164 0.058483817
-0.060713094 0.12836315 -0.11431374 -0.0589302 -0.10265538 -0.099645376 -0.100761205 -0.041908097
0.075247094 0.06316209 0.018462233 -0.019786922 0.044751197 -0.029115615 -0.10208152 -0.08937811
-0.026287597 -0.01784487 -0.007037702 -0.0020062216 0.06830081 0.07315046 -0.10658568 0.056149673
0.08520275 -0.06659594 -0.0018233875 0.041971482 -0.042287394 0.0096326815 -0.109939195 0.028577182
-0.06940579 0.023250144 0.031454075 -0.0016309673 0.114703834 0.09855287 0.08341497 -0.11882406
0.047455776 0.08105693 0.0019366286 -0.11242381 -0.02348608 -0.0021522476 -0.050369177 -0.071727596
-0.13161996 -0.03947677 -0.13477796 0.024126705 -0.08019977 0.03975584 0.14138325 -0.020372195
-0.016489727 -0.060399786 0.114204206 0.09871321 -0.026984653 0.08784456 -0.043844413 0.04278834
-0.033088684 0.108572245 0.016737204 0.009588093 0.0061801034 -0.0037945975 0.07444704 0.1556317
0.08270099 -0.052155644 -0.014698183 0.041864116 0.01117148 -0.05061745 -0.031083113 -0.027077237
-0.033896893 -0.06421712 0.08444731 -0.11823945 -0.07848258 -0.058490764 -0.14215942 -0.0030158686
0.0033079367 -0.024489677 0.06043759 0.1204766 0.020529076 0.08016953 0.01632371 0.11981143
-0.12002374 0.10893096 -0.044968184 0.051389378 0.027248714 -0.021561554 -0.031948563 -0.045597013
0.11053115 -0.068318926 -0.08664508 0.040616132 -0.0057119457 0.031117901 -0.02905845 -0.017957319
0.022152992 -0.09451506 -0.072283365 0.001981388 -0.054188166 0.12003404 0.10167768 -0.06407884
0.01754201 -0.08630384 -0.030449346 0.025196433 -0.06410433 0.06703097 -0.0525413 -0.046382748
-0.07638127 0.08597758 0.05675311 0.033816915 0.008736252 -0.017852876 0.0127516035 -0.017367655
0.081871405 -0.052295215 -0.06897506 0.048436075 0.0846903 -0.063962854 0.090882994 -0.04202798
-0.057061646 0.055897944 -0.0669962 -0.07922463 -0.037301246 -0.08912236 0.0587483 -0.010716901
-0.016830375 -0.08486572 -0.08315403 -0.022116045 -0.0041395123 -0.03475462 -0.049569707 -0.03327094
0.06806813 0.0007924637 0.026538843 -0.02448459 0.015694957 0.029901342 0.013320803 -0.007704881
-0.07701726 0.06265638 0.041187163 -0.019245801 -0.08587422 -0.05998828 0.012647021 0.038099807
-0.041440934 0.034424197 -0.04698477 -0.08765718 0.0426058 0.018550694 0.070282035 -0.08910478
-0.023543192 0.015985545 0.07456387 -0.06966436 0.087278284 -0.042365473 -0.025752166 0.02433843
-0.049211103 0.02377578 0.051408574 0.064753294 0.05022837 -0.068141066 0.0775097 -0.035015956
-0.033835366 -0.021285035 -0.07157446 -0.014958307 0.04006439 0.012537998 -0.06608503 0.034602996
0.088669166 -0.0012288974 -0.013528832 -0.025147606 0.0017134969 0.053937547 -0.03194228 -0.019347627
0.024975052 -0.0591263 0.011794269 0.0829097 -0.024732037 -0.02284074 -0.07795531 -0.04417666
-0.049376518 -0.026046446 -0.07565797 -0.08062508 -0.08350093 -0.05283272 0.015493487 -0.06025144
-0.055856083 -0.023590848 -0.015816774 0.10424497 0.04138083 -0.04006702 0.002054324 0.07951491
-0.08421701 -0.007956051 -0.011797992 -0.035816498 -0.020065455 0.028153317 -0.074548475 0.030741798
00000000: 128e 77bd 69aa b63d 52b5 18be c7e9 6b3d
00000010: 377d 543d cf3a 18bd c683 e43b ba8c 6f3d
00000020: 4bae 78bd a171 033e 521d eabd cb60 71bd
00000030: fc3c d2bd e012 ccbd e45b cebd d3a7 2bbd
00000040: 261b 9a3d 205b 813d 1c3e 973c 2f18 a2bc
00000050: 084d 373d df83 eebc 1e10 d1bd df0b b7bd
00000060: 1659 d7bc 682f 92bc 869c e6bb d07a 03bb
00000070: 4ce1 8b3d e9cf 953d 9849 dabd 33fd 653d
00000080: c87e ae3d 7463 88bd bbfe eeba 4aea 2b3d
00000090: 8c35 2dbd 65d2 1d3c cd27 e1bd b21a ea3c
000000a0: 9f24 8ebd 1677 be3c fdd5 003d 2ec6 d5ba
000000b0: d8e9 ea3d 16d6 c93d 78d5 aa3d 075a f3bd
000000c0: fd60 423d 2d01 a63d 79d6 fd3a 743e e6bd
000000d0: e165 c0bc b90c 0dbb e94f 4ebd ebe5 92bd
000000e0: 62c7 06be 65b2 21bd 3c03 0abe 5ea5 c53c
000000f0: c73f a4bd 05d7 223d c5c6 103e 97e3 a6bc
00000100: 7715 87bc c465 77bd e5e3 e93d 272a ca3d
00000110: eb0e ddbc d9e7 b33d 3396 33bd d442 2f3d
00000120: 0088 07bd 205b de3d 761c 893c 6017 1d3c
00000130: 7782 ca3b c8ae 78bb b177 983d eb5d 1f3e
00000140: 235f a93d 28a1 55bd a6d0 70bc b579 2b3d
00000150: 9508 373c 3e54 4fbd 03a2 febc 15d1 ddbc
00000160: 78d7 0abd 4484 83bd b6f2 ac3d 8627 f2bd
00000170: 7abb a0bd 0394 6fbd 3d92 11be e1a5 45bb
00000180: f8c9 583b 939e c8bc 688d 773d 70bc f63d
00000190: 982c a83c ec2f a43d 4db9 853c b25f f53d
000001a0: 02cf f5bd 3217 df3d 8f30 38bd ab7d 523d
000001b0: b238 df3c dba1 b0bc 7fdc 02bd efc3 3abd
000001c0: 285e e23d cbea 8bbd fa72 b1bd 1a5d 263d
000001d0: 462b bbbb f8ea fe3c fd0b eebc 3a1b 93bc
000001e0: 317a b53c 1d91 c1bd 4d09 94bd 2dda 013b
000001f0: 69f4 5dbd 68d4 f53d 633c d03d c43b 83bd
00000200: 43b4 8f3c 11c0 b0bd e870 f9bc c068 ce3c
00000210: 2249 83bd 8847 893d 8c35 57bd d6fb 3dbd
00000220: c96d 9cbd 0315 b03d f375 683d 9b83 0a3d
00000230: 7f22 0f3c 3240 92bc 1aec 503c 9d46 8ebc
00000240: 32ac a73d 8233 56bd cc42 8dbd e864 463d
00000250: 1c72 ad3d f5fe 82bd dd20 ba3d 8825 2cbd
00000260: 79b9 69bd 3ef5 643d 4e35 89bd 8640 a2bd
00000270: 31c9 18bd c985 b6bd 0fa2 703d f195 2fbc
00000280: dbdf 89bc 14ce adbd a94c aabd b52c b5bc
00000290: bfa4 87bb dc5a 0ebd 9b09 4bbd 1c47 08bd
000002a0: 4e67 8b3d 57bd 4f3a fd67 d93c e893 c8bc
000002b0: b692 803c a9f3 f43c 7f3f 5a3c 3a79 fcbb
000002c0: 3abb 9dbd fd51 803d dfb3 283d 5fa9 9dbc
000002d0: d3de afbd 45b6 75bd 7335 4f3c 8b0e 1c3d
000002e0: f8bd 29bd 6300 0d3d 1a73 40bd 9c85 b3bd
000002f0: 6b83 2e3d a0f7 973c 07f0 8f3d 917c b6bd
00000300: a7dd c0bc 1ef4 823c f1b4 983d 30ac 8ebd
00000310: f5be b23d 6b87 2dbd 35f6 d2bc 6361 c73c
00000320: 9591 49bd 6dc5 c23c cc91 523d 609d 843d
00000330: 43bc 4d3d 8b8d 8bbd 68bd 9e3d e46c 0fbd
00000340: f496 0abd f45d aebc a195 92bd b013 75bc
00000350: 8f1a 243d 2d6c 4d3c 9757 87bd dfbb 0d3d
00000360: 2e98 b53d f412 a1ba 09a8 5dbc 5a02 cebc
00000370: 6a97 e03a 9eed 5c3d e8d5 02bd ea7e 9ebc
00000380: 7b98 cc3c 6b2e 72bd c03c 413c 90cc a93d
00000390: d79a cabc 811c bbbc 09a7 9fbd 96f2 34bd
000003a0: 083f 4abd 5b5f d5bc 91f2 9abd c31e a5bd
000003b0: 8902 abbd 1f67 58bd 65d8 7d3c 37ca 76bd
000003c0: 59c9 64bd 9841 c1bc 2e92 81bc 637e d53d
000003d0: f27e 293d 511d 24bd d6a1 063b b7d8 a23d
000003e0: f879 acbd 195a 02bc 5d4c 41bc 52b4 12bd
000003f0: 4f60 a4bc c9a1 e63c dfac 98bd 39d6 fb3c

rnn.weight_hh_l1 f4 [128, 128]
0.16893868 -0.03592349 -0.024854984 -0.03416236 0.04236769 0.020351117 -0.032680463 -0.04851528
0.090930216 -0.08071926 -0.10255757 -0.001788873 -0.024674712 0.0604913 0.01568009 0.021172015
0.011267789 0.10030437 0.022934847 0.012881513 -0.1377722 0.03316798 -0.07208941 -0.013364449
0.14129424 0.10673497 -0.061979074 0.007270753 0.04255037 0.0088805705 0.048394833 0.0062318966
-0.04917805 -0.008718916 -0.068188205 0.08111118 0.070447 0.007069346 -0.0817307 -0.050180994
0.057530273 0.004758353 -0.017667783 -0.024892889 0.097393006 0.10505005 -0.068232685 -0.006610358
-0.07415494 -0.026806556 -0.07539872 0.066850826 -0.018907245 0.009303068 0.069100715 -0.095657
0.06924356 -0.07255336 0.04409621 -0.022274073 -0.049107194 -0.07445129 0.042574655 0.09151997
0.045747686 -0.0018686696 0.015074992 0.087125674 0.039080475 -0.005727652 0.057194382 0.11466883
0.055528726 -0.01325822 0.024072465 0.045583166 -0.043595266 0.00985752 0.057163104 0.025222331
0.002874391 0.02218974 -0.082745306 0.08380591 0.026831603 0.052708555 0.010331141 0.030892756
-0.010410419 0.04653615 -0.055773053 -0.039384764 -0.07465611 -0.062414724 -0.066739716 0.058969297
0.09560038 0.10429701 0.051219802 0.037018113 -0.023429912 -0.037726354 -0.014323588 0.011519473
-0.04456103 0.0400871 -0.0372964 0.09389471 0.06135341 0.011232054 0.06501604 -0.07755655
0.034205094 -0.034934808 0.01862036 -0.100588225 -0.063105196 0.08426637 -0.070144236 0.015255645
-0.056780644 -0.06971286 0.0021306782 0.082644515 0.0072286623 0.09281048 0.0560634 0.0018379723
-0.03860046 -0.019362938 0.049422696 -0.013491937 -0.018247152 -0.07085476 -0.070068255 -0.00074857706
-0.0038055526 -0.004087712 -0.056177445 -0.06595955 0.04462576 -0.05466851 -0.04907514 -0.08077721
0.06270229 0.018532107 0.036966927 0.098252006 0.062122427 -0.077769615 -0.027556153 -0.051113356
0.0032096657 -0.08021784 0.06057099 -0.07439487 -0.077363014 -0.026973251 0.0110667925 -0.086520694
0.008020853 0.08403471 -0.054674115 -0.034832086 -0.02460948 0.06998596 -0.024544058 -0.05351943
0.017686106 -0.026501512 0.0815558 -0.009321771 -0.052706294 -0.07873846 -0.08644803 -0.008606633
0.009570743 0.034101255 0.07959232 0.040164758 -0.04660883 -0.057533737 0.014874611 -0.037138607
0.06454248 -0.03662674 0.024249129 0.059015363 0.06549121 0.057674438 -0.018584343 -0.042449396
0.06693325 -0.053355195 -0.07139359 -0.014055548 -0.016850477 -0.07435701 -0.017667873 0.024760492
0.017656442 0.0001850996 0.07960245 0.04276496 0.0763352 -0.082609706 0.005174235 -0.01709102
-0.01796181 0.010709239 0.08117836 -0.03392872 0.03083184 -0.06342764 0.008029914 -0.038592458
-0.079733394 -0.021926593 0.050261192 0.038938798 -0.009527051 -0.07810584 0.034948763 0.08402485
-0.07351383 0.010522253 0.024512637 -0.09156379 0.019554524 0.009191865 -0.024777653 0.0698853
0.059508905 0.08964536 0.07992792 0.0742057 -0.020494184 0.0034113026 0.044348203 -0.09176403
0.060811773 0.039918475 0.06698161 -0.04641698 0.0038712393 -0.036193125 0.07203053 0.038220618
-0.019344913 -0.080529414 0.022029229 0.013079687 0.0701485 0.07700263 -0.11271189 0.016246434
00000000: 43fe 2c3e 8224 13bd ae9c cbbc d5ed 0bbd
00000010: be89 2d3d 63b7 a63c f3db 05bd f5b7 46bd
00000020: 9f39 ba3d 2450 a5bd b409 d2bd 9e78 eaba
00000030: 9f22 cabc bac5 773d 8873 803c ef70 ad3c
00000040: 889c 383c 616c cd3d dce1 bb3c fb0c 533c
00000050: 2814 0dbe 26db 073d 9da3 93bd 90f6 5abc
00000060: 70af 103e dd97 da3d c5dd 7dbd 7f3f ee3b
00000070: 4c49 2e3d d07f 113c a939 463d f034 cc3b
00000080: ec6e 49bd c9d9 0ebc 42a6 8bbd 9e1d a63d
00000090: 8446 903d f9a5 e73b 6d62 a7bd 968a 4dbd
000000a0: dda4 6b3d f5eb 9b3b 07bc 90bc 2cec cbbc
000000b0: fc75 c73d 7b24 d73d 94bd 8bbd b49b d8bb
000000c0: 8cde 97bd 6c99 dbbc a56a 9abd 16e9 883d
000000d0: 5ee3 9abc e56b 183c ad84 8d3d d1e7 c3bd
000000e0: 91cf 8d3d db96 94bd 3a9e 343d 1e78 b6bc
000000f0: a024 49bd eb79 98bd c362 2e3d d26e bb3d
00000100: ed61 3b3d 26ee f4ba 19fd 763c f26e b23d
00000110: d912 203d 07af bbbb a844 6a3d 7ed7 ea3d
00000120: 1772 633d 0139 59bc 9e33 c53c 6ab5 3a3d
00000130: f390 32bd 7081 213c dc23 6a3d 109f ce3c
00000140: 4760 3c3b 42c7 b53c 5f76 a9bd 6fa2 ab3d
00000150: f3cd db3c ede4 573d f243 293c ce12 fd3c
00000160: 7690 2abc b19c 3e3d 4972 64bd eb51 21bd
00000170: 4de5 98bd 95a6 7fbd d5ae 88bd ca89 713d
00000180: 22ca c33d ac99 d53d dbcb 513d 4ea0 173d
00000190: 16f0 bfbc f386 1abd 7cad 6abc 2cbc 3c3c
000001a0: a085 36bd 5f32 243d 1cc4 18bd df4b c03d
000001b0: b74d 7b3d a606 383c 2127 853d f8d5 9ebd
000001c0: a41a 0c3d cd17 0fbd ba89 983c 3301 cebd
000001d0: 4c3d 81bd d993 ac3d c8a7 8fbd d0f2 793c
000001e0: d292 68bd 9ec5 8ebd d9a2 0b3b 8741 a93d
000001f0: 6ade ec3b 6c13 be3d bca2 653d 1ee8 f03a
00000200: 841b 1ebd 069f 9ebc 746f 4a3d 490d 5dbc
00000210: 0d7b 95bc 4d1c 91bd f27f 8fbd 283c 44ba
00000220: 9466 79bb 37f2 85bb 521a 66bd cd15 87bd
00000230: 80c9 363d 16ec 5fbd 0403 49bd 866e a5bd
00000240: 0f6a 803d a5d0 973c a26a 173d 5938 c93d
00000250: 1674 7e3d ad45 9fbd 71bd e1bc 3d5c 51bd
00000260: 4159 523b 4049 a4bd 4919 783d 565c 98bd
00000270: 8070 9ebd 02f7 dcbc 7e51 353c c331 b1bd
00000280: e569 033c 641a ac3d f7f1 5fbd 17ac 0ebd
00000290: d299 c9bc cd54 8f3d 9f10 c9bc 3137 5bbd
000002a0: 74e2 903c b319 d9bc ba06 a73d 57ba 18bc
000002b0: 8ee2 57bd a141 a1bd aa0b b1bd d602 0dbc
000002c0: 9bce 1c3c c2ad 0b3d 4c01 a33d cd83 243d
000002d0: e7e8 3ebd 7fa8 6bbd a4b4 733c a71e 18bd
000002e0: d92e 843d ec05 16bd 1ca6 c63c 18ba 713d
000002f0: 4120 863d 083c 6c3d 313e 98bc 6bdf 2dbd
00000300: 4d14 893d fa8a 5abd cd36 92bd 3e49 66bc
00000310: 030a 8abc 7d48 98bd 37bc 90bc 84d6 ca3c
00000320: 3ea4 903c 4c17 4239 9c06 a33d 502a 2f3d
00000330: a155 9c3d 472f a9bd a18c a93b 7702 8cbc
00000340: a524 93bc ce75 2f3c d740 a63d d7f8 0abd
00000350: 0e93 fc3c 5ae6 81bd e78f 033c 2013 1ebd
00000360: 434b a3bd 669f b3bc aede 4d3d 4a7e 1f3d
00000370: 5917 1cbc f4f5 9fbd 6f26 0f3d 3815 ac3d
00000380: 6b8e 96bd 8765 2c3c bace c83c cc85 bbbd
00000390: cf30 a03c 7a99 163c 81fa cabc 0620 8f3d
000003a0: 9cbf 733d fd97 b73d 40b1 a33d 28f9 973d
000003b0: 6be3 a7bc 2990 5f3b 76a6 353d c8ee bbbd
000003c0: c415 793d 8e81 233d a82d 893d bb1f 3ebd
000003d0: 9eb4 7d3b 3e3f 14bd be84 933d 398d 1c3d
000003e0: 3979 9ebc 9bec a4bd a476 b43c 2f4c 563c
000003f0: 04aa 8f3d 8eb3 9d3d 7ed5 e6bd 3e17 853c

rnn.bias_ih_l1 f4 [128]
0.08065847 -0.07419118 0.0786754 -0.041009527 -0.0297114 0.0068914983 0.02601752 -0.10443787
0.086186305 -0.08730675 0.07022903 -0.096811704 0.022266673 0.068097375 0.05650113 -0.072355375
0.08017171 -0.023910113 0.05581124 -0.03538464 -0.058496896 -0.01851587 -0.0724517 0.07694055
0.10686729 -0.076360375 0.09346132 0.07962402 -0.021549417 0.03796865 0.016796863 0.009944041
0.047191642 0.020754546 0.063483454 0.0112793185 -0.07593114 0.084724076 -0.08824173 0.070491366
-0.04052309 -0.057070512 0.016348902 -0.06645997 0.085395455 0.0813308 -0.07242667 0.040221225
-0.034266885 -0.07745341 -0.013465556 -0.018160978 0.06915847 -0.01739909 -0.08371921 0.10478137
0.06721624 -0.09398926 -0.047608912 -0.05642775 0.068927266 0.051432915 -0.01635167 0.039508227
0.027232498 0.00662796 0.009185121 0.116880976 -0.0010962411 -0.03205931 0.01760734 -0.012877386
0.0043767137 0.12596363 0.004033967 0.08966654 -0.11231855 0.04871488 -0.07591488 0.020236736
-0.034490243 -0.032763794 -0.086958416 0.0550159 -0.040583048 -0.0008902974 0.0003092826 -0.105784446
0.073083535 -0.08840142 -0.045168333 0.08669906 -0.11019733 -0.034640044 0.071268044 -0.031033754
-0.025481047 -0.06096084 -0.0864704 0.01839202 0.043919336 -0.007633106 -0.04571186 0.05551976
-0.12298441 -0.00953783 -0.056766696 0.0571893 0.008494395 0.030083869 -0.016077371 -0.0013414094
0.07254658 0.07176126 -0.038461093 0.035517626 0.054356135 -0.011385096 -0.031147633 0.07345988
-0.059115227 0.034694392 -0.02164407 0.04143329 -0.016540831 0.055985846 0.051545996 0.007620845
00000000: 4530 a53d 8cf1 97bd 9120 a13d 9bf9 27bd
00000010: 5265 f3bc 14d2 e13b b222 d53c 86e3 d5bd
00000020: 7282 b03d e2cd b2bd 3dd4 8f3d 3745 c6bd
00000030: 9968 b63c a376 8b3d bb6d 673d 0e2f 94bd
00000040: 1131 a43d 24df c3bc 549a 643d 7cef 10bd
00000050: 719a 6fbd 98ae 97bc 8f61 94bd 0293 9d3d
00000060: 3ddd da3d d462 9cbd a668 bf3d eb11 a33d
00000070: 6788 b0bc 0485 1b3d 9399 893c 55ec 223c
00000080: 064c 413d 7005 aa3c 9d03 823d e4cc 383c
00000090: c981 9bbd d183 ad3d 15b8 b4bd c75d 903d
000000a0: 8afb 25bd c5c2 69bd 22ee 853c 2a1c 88bd
000000b0: d0e3 ae3d c390 a63d 6f54 94bd 03bf 243d
000000c0: 6f5b 0cbd e59f 9ebd a39e 5cbc 55c6 94bc
000000d0: f5a2 8d3d 8988 8ebc fa74 abbd 9d97 d63d
000000e0: aba8 893d 717d c0bd 9001 43bd c920 67bd
000000f0: bd29 8d3d 52ab 523d f0f3 85bc 61d3 213d
00000100: b016 df3c 5c2f d93b 317d 163c 4b5f ef3d
00000110: bfaf 8fba 9f50 03bd 453d 903c acfb 52bc
00000120: 896a 8f3b 9cfc 003e 5e2f 843b 17a3 b73d
00000130: 4507 e6bd 4189 473d 4379 9bbd 83c7 a53c
00000140: a445 0dbd 5433 06bd 4117 b2bd 5a58 613d
00000150: 693a 26bd d962 69ba 3527 a239 84a5 d8bd
00000160: d2ac 953d ce0b b5bd 6e02 39bd 478f b13d
00000170: 23af e1bd b8e2 0dbd fbf4 913d 803a febc
00000180: a1bd d0bc 13b2 79bd 6517 b1bd ddaa 963c
00000190: c3e4 333d 221f fabb 5c3c 3bbd b068 633d
000001a0: 40df fbbd 8f44 1cbc 3284 68bd 543f 6a3d
000001b0: 132c 0b3c 7272 f63c b1b4 83bc 3bd2 afba
000001c0: 4d93 943d 91f7 923d 6189 1dbd ee7a 113d
000001d0: 8aa4 5e3d 8e88 3abc 5229 ffbc 2272 963d
000001e0: cf22 72bd b51b 0e3d e84e b1bc f4b5 293d
000001f0: a380 87bc 6a51 653d e521 533d 48b8 f93b

rnn.bias_hh_l1 f4 [128]
-0.0004938289 -0.08182762 0.040338706 -0.00058344885 -0.0018228672 0.074669264 0.055461984 -0.04231999
0.03277086 -0.02418823 0.04186729 0.012500409 -0.091812916 0.067686535 0.023610715 -0.038930807
-0.075031824 -0.035727296 -0.033382587 -0.076140985 -0.07291085 -0.039585713 0.08007489 -0.008398423
0.089530125 -0.055060506 0.09629829 0.04980278 0.06121213 -0.07151999 0.024526643 0.051397283
-0.06501392 0.086043455 -0.043051165 0.01558645 -0.012276042 0.08501482 -0.03229386 -0.034828264
0.037653327 -0.07166357 0.04355998 -0.030023716 -0.035456248 0.015855312 -0.0042976514 -0.08773845
-0.053274076 0.077848464 -0.010617529 -0.015197961 -0.07984999 -0.028327867 -0.049190488 -0.013525225
0.0040733553 -0.098701306 0.055908386 -0.03236948 0.0042943866 -0.06827794 -0.064762905 0.014121839
0.05947201 -0.030417556 0.13664529 0.023871759 -0.017228313 -0.06824673 -0.011543856 -0.017454073
-0.0068102563 0.11171788 -0.0695073 -0.02230089 -0.099587925 -0.008836073 -0.07964512 0.023602974
-0.058376797 0.08111724 0.033292193 0.07904107 -0.025075976 -0.0063120774 0.117102355 -0.0804271
-0.053678706 -0.0007849683 -0.072321825 -0.06830792 -0.023466019 0.0959097 -0.025399107 0.017435031
0.04158852 0.0111907525 0.030798215 0.032088116 -0.08610735 0.0073773046 0.00034780015 -0.025436489
-0.05877731 -0.05782851 -0.021453772 0.034347177 -0.043116983 -0.062911205 -0.08525888 -0.040696133
0.08861016 0.07753969 0.008744927 -0.00799701 0.09261539 0.024622465 0.057360895 -0.061770905
0.028078612 -0.013258171 0.07093103 0.07281371 0.08318916 -0.046797536 -0.035353493 0.11388845
00000000: 4c74 01ba 3d95 a7bd 333a 253d 97f2 18ba
00000010: 46ed eeba 33ec 983d 1b2c 633d ba57 2dbd
00000020: bd3a 063d 6526 c6bc 097d 2b3d 84ce 4c3c
00000030: 6908 bcbd 3d9f 8a3d 426b c13c e975 1fbd
00000040: 49aa 99bd c956 12bd 2ebc 08bd ceef 9bbd
00000050: 4952 95bd a124 22bd 4efe a33d 8a99 09bc
00000060: 925b b73d 2087 61bd 0a38 c53d 00fe 4b3d
00000070: 92b9 7a3d 1379 92bd 19ec c83c f585 523d
00000080: 0526 85bd 8d37 b03d 6b56 30bd 4f5e 7f3c
00000090: 7421 49bc 401c ae3d 9146 04bd 15a8 0ebd
000000a0: 603a 1a3d 5ac4 92bd f36b 323d 4cf4 f5bc
000000b0: 923a 11bd 00e3 813c 50d3 8cbb 37b0 b3bd
000000c0: eb35 5abd 046f 9f3d 25f5 2dbc de00 79bc
000000d0: 6488 a3bd d80f e8bc f77b 49bd e898 5dbc
000000e0: c879 853b e923 cabd 3100 653d dc95 04bd
000000f0: edb7 8c3b 4ed5 8bbd 6aa2 84bd 495f 673c
00000100: ec98 733d 3d2e f9bc beec 0b3e b58e c33c
00000110: 6422 8dbc f1c4 8bbd 7122 3dbc d8fb 8ebc
00000120: 9228 dfbb 58cc e43d d859 8ebd 5bb0 b6bc
00000130: c1f4 cbbd 2dc5 10bc fb1c a3bd 065b c13c
00000140: 821c 6fbd cc20 a63d 655d 083d 49e0 a13d
00000150: 226c cdbc 8bd5 cebb 5cd3 ef3d f7b6 a4bd
00000160: 34de 5bbd 55c6 4dba 771d 94bd 06e5 8bbd
00000170: cf3b c0bc 4e6c c43d ca11 d0bc e9d3 8e3c
00000180: b958 2a3d 6b59 373c 8a4c fc3c d46e 033d
00000190: 0d59 b0bd 51bd f13b f258 b639 2f60 d0bc
000001a0: 7ac0 70bd 96dd 6cbd d2bf afbc a0af 0c3d
000001b0: 6f9b 30bd 97d7 80bd 359c aebd fdb0 26bd
000001c0: 3e79 b53d 21cd 9e3d e246 0f3c e405 03bc
000001d0: 23ad bd3d 0db5 c93c 42f3 6a3d 7d03 7dbd
000001e0: 1e05 e63c cd38 59bc 4a44 913d 5b1f 953d
000001f0: 145f aa3d c6ae 3fbd d3ce 10bd 593e e93d

fc.weight f4 [5, 128]
0.1839252 0.06093072 -0.08804508 -0.060699843 0.21683085 0.045800135 0.10297125 -0.1328769
0.25853568 -0.010022204 -0.04240517 0.071058914 0.10775343 -0.096737094 -0.084689915 0.09024194
-0.11404853 -0.1314984 0.046706427 0.0677459 -0.19643448 -0.20737596 -0.06815841 -0.17445505
-0.03462542 -0.045243766 -0.13653958 -0.14883278 -0.18144313 -0.13028647 0.1505577 0.07839716
-0.12942588 0.031384133 0.1636658 -0.016778385 0.041103713 0.1300962 -0.2376209 -0.070509136
0.0683738 0.043894343 0.13946031 0.1615096 -0.044951044 0.04993654 0.0495052 0.121564634
-0.00086659787 0.021062963 -0.13246752 -0.21659705 -0.087923475 0.08140659 0.016492128 -0.14904587
0.17773876 -0.08672548 0.21674398 -0.113005035 0.14344794 0.13668646 0.10279998 -0.090446554
0.116447985 -0.20731 0.15663694 0.16538277 0.041636858 0.10192045 -0.108548015 -0.14959551
-0.12559801 0.17601976 -0.013127084 -0.16097958 0.11263001 -0.043447576 0.032137103 -0.05319665
0.10971297 0.046333127 -0.2293172 0.06825678 -0.09045635 0.21139762 -0.19662705 0.07612642
-0.050340753 -0.1159501 -0.05152655 0.087897114 0.043929663 -0.017252095 0.025526997 0.074149475
-0.13769977 -0.083750725 -0.07987578 -0.15111008 -0.07384428 -0.25732306 0.140039 -0.23307563
-0.019967986 -0.04871124 0.057551462 0.029441444 0.011635134 -0.1224974 -0.0831569 0.030809216
-0.0678126 0.108046316 0.1410146 -0.070147485 -0.15968345 0.15442486 -0.08235288 -0.055057816
0.19287464 -0.014297228 0.08271657 0.14380851 0.04899696 -0.06674191 -0.103705965 0.22256953
0.14361617 0.016684284 0.073307425 0.15408923 -0.038990103 -0.01945357 0.060964692 0.06089489
0.07675276 0.04068509 -0.0014581543 0.13563238 -0.1633751 -0.0806575 -0.046777587 -0.054244988
-0.025941795 0.080154605 0.17061275 0.15223867 -0.13068207 -0.036131658 -0.093821175 0.19099975
0.12141673 -0.052319266 0.0926918 0.027835326 0.24867855 -0.044109363 0.033226416 0.094877444
0.15050566 -0.038460176 0.10535558 -0.043879393 0.11064347 0.070871614 -0.034029678 0.12862371
0.17757277 0.016967632 0.03314987 -0.10796276 0.084896244 0.013404145 -0.06864974 0.11780927
0.1938957 0.12550409 0.08120445 0.12234246 0.007292161 -0.011590125 -0.04241326 -0.18902214
-0.059898287 0.025812663 -0.00065172114 -0.16580795 -0.18791457 -0.09807985 -0.24816695 -0.027825106
-0.02664642 -0.076490656 -0.26548377 0.001409063 0.077967025 0.20337078 0.18785618 -0.056305375
-0.13629806 -0.27018076 0.08887452 -0.10136089 0.07197731 -0.08503843 -0.10058181 -0.1669953
0.1957186 -0.009048865 -0.012216185 0.12125665 -0.20208232 0.033659592 0.20277108 0.23122187
0.10796824 -0.13649991 0.18866321 0.10805443 -0.11555396 -0.13070934 -0.15281478 -0.083967164
0.03486018 0.124670394 -0.10912081 -0.18950844 -0.037278414 0.09816865 -0.16090421 0.003689865
-0.123192415 0.048203688 -0.10641174 0.20391102 -0.20772055 0.092751175 -0.18132426 0.044511136
-0.20153585 0.0412693 0.052561615 -0.039793458 0.16930555 0.1351547 0.12905698 -0.14810641
-0.0109284995 0.013213791 -0.02332206 -0.003524189 0.08718885 0.08464602 0.094034545 0.023512967
00000000: e356 3c3e 7e92 793d fb50 b4bd 66a0 78bd
00000010: e808 5e3e ec98 3b3d 97e2 d23d e210 08be
00000020: ca5e 843e 2c34 24bc 0bb1 2dbd 5687 913d
00000030: d5ad dc3d 191e c6bd e871 adbd c4d0 b83d
00000040: 4792 e9bd 84a7 06be 3d4f 3f3d 5dbe 8a3d
00000050: 1f26 49be 5d5a 54be a396 8bbd 58a4 32be
00000060: 62d3 0dbd 8751 39bd 08d1 0bbe 9f67 18be
00000070: 3acc 39be d169 05be cc2b 1a3e b18e a03d
00000080: 3888 04be a68c 003d 0298 273e d372 89bc
00000090: 5e5c 283d f037 053e e552 73be 1867 90bd
000000a0: 9007 8c3d 8eca 333d afce 0e3e c662 253e
000000b0: 961e 38bd 428a 4c3d f7c5 4a3d e1f6 f83d
000000c0: 662c 63ba 3c8c ac3c 91a5 07be 9ecb 5dbe
000000d0: 3911 b4bd 80b8 a63d 801a 873c 7b9f 18be
000000e0: 2601 363e 219d b1bd 22f2 5d3e 2f6f e7bd
000000f0: 04e4 123e 89f7 0b3e cc88 d23d 0b3c b9bd
00000100: 487c ee3d 1349 54be 6f65 203e 1a5a 293e
00000110: 698b 2a3d abbb d03d 6c4e debd 912f 19be
00000120: c49c 00be 863e 343e fb12 57bc d5d7 24be
00000130: 90aa e63d 16f6 31bd 32a2 033d bbe4 59bd
00000140: 32b1 e03d cec7 3d3d 21d2 6abe 36ca 8b3d
00000150: 2e41 b9bd 9e78 583e 9a58 49be 2be8 9b3d
00000160: 1b32 4ebd 3f77 edbd 810d 53bd 6703 b43d
00000170: 97ef 333d 4454 8dbc fe1d d13c aedb 973d
00000180: 2b01 0dbe 8085 abbd ea95 a3bd 9abc 1abe
00000190: ab3b 97bd d9bf 83be 6266 0f3e 61ab 6ebe
000001a0: e793 a3bc 7085 47bd 15bb 6b3d 2f2f f13c
000001b0: 4aa1 3e3c ebdf fabd 2a4e aabd 9c63 fc3c
000001c0: 55e1 8abd 6347 dd3d 2266 103e 7ca9 8fbd
000001d0: 0f84 23be 8d21 1e3e a0a8 a8bd 4e84 61bd
000001e0: ee80 453e ec3e 6abc 4e67 a93d 8a42 133e
000001f0: 09b1 483d fcaf 88bd cb63 d4bd 44e9 633e
00000200: 1e10 133e 7bad 883c 3422 963d 91c9 1d3e
00000210: 16b4 1fbd 185d 9fbc 1db6 793d ec6c 793d
00000220: 8d30 9d3d 69a5 263d 8a1f bfba 37e3 0a3e
00000230: cd4b 27be c22f a5bd db99 3fbd fe2f 5ebd
00000240: e383 d4bc 1928 a43d 1cb5 2e3e 74e4 1b3e
00000250: 85d1 05be cafe 13bd 5125 c0bd 7095 433e
00000260: 56a9 f83d ba4c 56bd 33d5 bd3d e906 e43c
00000270: 97a5 7e3e 05ac 34bd 6c18 083d 1b4f c23d
00000280: 281e 1a3e 6b88 1dbd abc4 d73d e1ba 33bd
00000290: 0b99 e23d 2325 913d b462 0bbd efb5 033e
000002a0: a3d5 353e b4ff 8a3c 28c8 073d 941b ddbd
000002b0: 15de ad3d 0f9d 5b3c 3c98 8cbd fd45 f13d
000002c0: 988c 463e 2584 003e 854e a63d af8e fa3d
000002d0: 15f3 ee3b 82e4 3dbc 87b9 2dbd 058f 41be
000002e0: e857 75bd 1475 d33c 44d8 2aba 8fc9 29be
000002f0: ad6c 40be 17de c8bd 7a1f 7ebe 7af1 e3bc
00000300: 9849 dabc 22a7 9cbd 7ded 87be 4fb0 b83a
00000310: 2dad 9f3d 6e40 503e 5f5d 403e 77a0 66bd
00000320: b891 0bbe 2255 8abe d803 b63d 4c96 cfbd
00000330: d768 933d a128 aebd d6fd cdbd d100 2bbe
00000340: 756a 483e b141 14bc 6526 48bc 6855 f83d
00000350: abee 4ebe a4de 093d 39a3 4f3e 6dc5 6c3e
00000360: 741e dd3d a2c6 0bbe ee30 413e a44b dd3d
00000370: 8ea7 ecbd abd8 05be 7a7b 1cbe faf6 abbd
00000380: 8cc9 0e3d 3153 ff3d bb7a dfbd 800e 42be
00000390: 40b1 18bd a50c c93d 13c4 24be aad1 713b
000003a0: 4e4c fcbd 3b71 453d 66ee d9bd 0dce 503e
000003b0: b2b4 54be 54f4 bd3d 11ad 39be 4f51 363d
000003c0: 6a5f 4ebe ff09 293d d94a 573d 77fe 22bd
000003d0: 6f5e 2d3e fe65 0a3e 8327 043e 35a9 17be
000003e0: 730d 33bc a87e 583c e80d bfbc 14f6 66bb
000003f0: 1190 b23d e45a ad3d 2f95 c03d 449e c03c

fc.bias f4 [5]
0.14253756 -0.021636631 0.015321404 -0.04526402 -0.11575128
00000000: 5ef5 113e 4e3f b1bc a006 7b3c c466 39bd
00000010: 020f edbd
