models/2.0.1-recurrent-neural-network-model-test-4x1.pth (torch, 1994 bytes, 6 tensors)

rnn.weight_ih_l0 f4 [4, 3]
-0.6283885 -0.0737263 1.029226 0.78618515 0.011954798 0.2302045 -0.59962136 -0.5094968
-0.5264335 0.5289382 0.5787334 0.46565878
00000000: 12de 20bf d0fd 96bd adbd 833f 6e43 493f
00000010: 0fde 433c baba 6b3e c980 19bf 626e 02bf
00000020: 59c4 06bf 7e68 073f df27 143f d46a ee3e

rnn.weight_hh_l0 f4 [4, 4]
-0.17608853 -0.35042027 -0.32906485 -0.4817606 0.47173682 1.3457507 -0.115250394 0.6739143
0.43220446 -0.7315378 1.4124721 -0.45151034 -0.343993 0.7759767 0.22150525 -0.32557338
00000000: 8d50 34be 496a b3be 307b a8be 53a9 f6be
00000010: 7d87 f13e 8f41 ac3f 6608 ecbd a685 2c3f
00000020: e749 dd3e 1046 3bbf e3cb b43f 5d2c e7be
00000030: da1f b0be 69a6 463f 46d2 623e 8eb1 a6be

rnn.bias_ih_l0 f4 [4]
-0.11836245 0.14616053 -0.07979543 0.40311387
00000000: 0368 f2bd 1bab 153e c96b a3bd f164 ce3e

rnn.bias_hh_l0 f4 [4]
-0.05900545 -0.15427467 -1.0043453 -0.12791808
00000000: b3af 71bd 2efa 1dbe 638e 80bf f5fc 02be

fc.weight f4 [5, 4]
0.7736514 -0.10163537 -1.112074 -0.19611292 -0.33932194 2.4977844 -1.6781747 0.32509455
0.17236793 -0.36126962 0.14429152 0.29584175 -0.49996603 -0.05850826 1.5683503 0.49716327
-0.6176901 -0.50531685 0.9792999 -0.48684898
00000000: 050e 463f 3426 d0bd 7158 8ebf d3d1 48be
00000010: 9bbb adbe b3db 1f40 6ece d6bf cb72 a63e
00000020: 3881 303e 55f8 b8be 28c1 133e 9278 973e
00000030: 8cfb ffbe 5ba6 6fbd b4bf c83f 2f8c fe3e
00000040: f020 1ebf 725c 01bf 66b3 7a3f 4544 f9be

fc.bias f4 [5]
0.24643736 -0.25608355 0.31211036 -0.12907049 -0.5891784
00000000: 135a 7c3e 621d 83be eecc 9f3e 0e2b 04be
00000010: 65d4 16bf
