models/2.0.1-recurrent-neural-network-model-test-28x2.pth (torch, 12874 bytes, 10 tensors)

rnn.weight_ih_l0 f4 [28, 3]
0.030748326 0.3027451 0.292085 -0.07162794 0.0035914497 0.06332737 0.24745844 0.19398217
-0.15272962 0.29401028 0.36834404 -0.23303846 0.17389217 -0.15159695 0.23053238 -0.12305385
-0.33501375 -0.46573618 -0.4573816 0.027991835 0.2808269 0.36995044 0.24635622 -0.0020886138
-0.21139497 0.25585312 0.2118465 0.251061 0.10785383 -0.13187853 -0.23911974 -0.3438275
0.07915675 -0.5070913 0.107251704 -0.31574962 0.25873384 0.35808662 0.17920569 0.24819098
0.47821745 0.26923677 -0.07735476 -0.40781772 -0.20692435 0.22178955 0.2731447 -0.095862634
0.567984 0.460866 0.3222148 0.056456603 0.020592205 -0.3370888 -0.31008875 0.005235487
-0.09411195 -0.5005844 -0.28320515 0.18114732 -0.5763239 -0.8339514 -0.52693486 -0.2558079
-0.1701607 -0.21344467 0.021419449 0.047235657 -0.25712174 0.4974449 0.69463533 -0.0022197042
0.14466135 -0.3383955 -0.16966006 0.67025733 0.19608335 -0.75320464 0.50465447 0.031031573
-0.24759412 0.018768 -0.2708481 0.15886657
00000000: eae3 fb3c 6801 9b3e 2a8c 953e abb1 92bd
00000010: 875e 6b3b c8b1 813d bf65 7d3e 43a3 463e
00000020: 2765 1cbe 8488 963e 9797 bc3e a2a1 6ebe
00000030: ca10 323e 3b3c 1bbe ae10 6c3e a803 fcbd
00000040: ec86 abbe f974 eebe ec2d eabe 224f e53c
00000050: 8bc8 8f3e 256a bd3e ce44 7c3e 20e1 08bb
00000060: ec77 58be 2eff 823e 4aee 583e 118b 803e
00000070: 78e2 dc3d 2a0b 07be cedb 74be 280a b0be
00000080: ef1c a23d bcd0 01bf c8a6 db3d efa9 a1be
00000090: c378 843e 2157 b73e b281 373e c725 7e3e
000000a0: ebd8 f43e 67d9 893e 2c6c 9ebd 7ccd d0be
000000b0: fae3 53be cd1c 633e 9fd9 8b3e a153 c4bd
000000c0: 6667 113f a1f6 eb3e 57f9 a43e 0a3f 673d
000000d0: fcb0 a83c e796 acbe f4c3 9ebe 738e ab3b
000000e0: c4bd c0bd 4d26 00bf 4400 91be af7e 393e
000000f0: f789 13bf d77d 55bf 34e5 06bf 41f9 82be
00000100: 9b3e 2ebe 3d91 5abe d777 af3c 2d7a 413d
00000110: 76a5 83be 19b1 fe3e 9fd3 313f 7578 11bb
00000120: 1b22 143e 2d42 adbe 5ebb 2dbe fc95 2b3f
00000130: 13ca 483e 05d2 40bf 0931 013f ed35 fe3c
00000140: 5089 7dbe 59bf 993c 9aac 8abe ebad 223e

rnn.weight_hh_l0 f4 [28, 28]
0.123168394 -0.062408995 0.12676018 -0.084699385 -0.02096666 -0.06291638 -0.123449005 0.12694071
0.24693555 -0.0793903 -0.16678052 0.243413 -0.10788171 -0.08456867 -0.058701172 0.12633015
-0.118356615 0.11298806 0.15642777 -0.04898871 -0.19160992 -0.0087848455 -0.03158555 0.044379883
-0.10859702 -0.19148682 0.07998854 -0.13136293 0.17871392 0.02332529 -0.18618232 0.109920286
-0.042653043 -0.024082268 0.033037618 0.10093198 0.049389515 -0.015925882 -0.006442921 -0.15208822
0.059424877 -0.14004889 0.10991925 0.04736368 -0.036756072 -0.20390283 0.104164705 -0.024241611
0.14438187 -0.04544177 0.010598358 -0.15397799 -0.16333887 0.03545535 -0.041912407 0.07817378
-0.10448363 -0.17243221 -0.16042538 -0.12537205 -0.065935716 0.16057253 0.10988638 -0.06326479
0.045381512 0.14097205 0.015814956 0.100910656 -0.22075367 -0.08847391 0.03166389 -0.11840011
-0.102741964 0.07879675 -0.13706444 -0.12365783 -0.021092722 0.18033607 0.14335105 0.031872313
0.0009789995 -0.054198746 0.06653384 -0.14689034 0.13727964 -0.13336797 0.1431557 0.12356137
0.022263596 -0.06524373 0.03959367 0.14059205 0.06679133 -0.18727131 0.06608828 0.009420048
-0.16626742 -0.057584535 -0.010355527 -0.1551651 0.03264332 -0.15511373 0.013814081 -0.26784542
-0.21563886 0.14772122 -0.19628333 0.084587224 -0.041871794 0.06386505 0.17829362 -0.020954978
0.034632776 -0.23253037 0.1731114 0.16339399 0.1936707 -0.1011545 0.16797537 -0.14996868
0.1263181 -0.15668668 -0.23152094 0.024979593 -0.022395018 -0.03381477 -0.23311596 -0.16921823
0.22656408 -0.20654324 0.009983158 -0.26572242 0.13620093 0.17271313 -0.21542358 0.05832271
0.2078035 0.100220256 0.0019003471 0.09185301 -0.035324533 0.0003718297 -0.0014211627 -0.053321376
0.2167509 -0.047468085 0.044958703 0.13289456 0.2023092 -0.2367991 0.13759625 0.14974129
-0.070971176 -0.079662874 -0.079404734 -0.02239998 0.10304375 -0.011728319 0.15288092 -0.043210216
0.10894069 0.18563865 -0.008184385 0.099148415 0.0043806965 -0.047210228 -0.17510131 0.12557971
0.012443748 0.106249176 -0.20105529 0.0095803235 0.17900822 0.19643511 0.01944433 -0.1328451
0.054690123 -0.07308243 -0.032534584 0.26540494 -0.15869214 0.13296399 -0.007955403 0.004951677
-0.052387193 -0.050182715 0.08191162 -0.09349484 0.06313838 0.03174629 -0.0096896365 0.17006738
0.20964746 0.17149806 -0.06872221 -0.013997138 -0.10217443 0.12049117 0.22693999 -0.042684946
-0.08138835 -0.09024243 -0.15724555 -0.0048264167 0.12721965 0.035460517 0.111145824 0.03783035
0.15476729 0.043457795 -0.06711322 -0.06312994 -0.08230092 -0.0667577 -0.09004224 -0.13606067
0.13256952 0.09595527 0.14111938 0.06948261 0.055738732 0.046325605 -0.10684596 0.13183182
0.11322046 -0.18779361 0.1479885 -0.06940665 -0.012829312 -0.13537253 0.059428692 -0.08927289
0.16221942 0.0959974 -0.2199306 0.17633584 0.037853643 0.16355807 -0.032704335 0.0038300056
-0.15531237 -0.16754328 -0.11630508 0.14657012 -0.22399215 8.152396e-05 -0.09534874 0.0003921382
0.1028821 -0.20395869 -0.20322913 0.0090089375 -0.1678645 -0.048410926 0.03595594 0.08513123
00000000: b63f fc3d 93a0 7fbd 6ccd 013e df76 adbd
00000010: 46c2 abbc 4eda 80bd d5d2 fcbd bffc 013e
00000020: acdc 7c3e 6297 a2bd 83c8 2abe 4241 793e
00000030: 16f1 dcbd 5732 adbd a470 70bd b15c 013e
00000040: f464 f2bd 4966 e73d 9a2e 203e 63a8 48bd
00000050: 6435 44be 50ee 0fbc da5f 01bd aec7 353d
00000060: 1d68 debd 1f15 44be 08d1 a33d 0184 06be
00000070: c800 373e ae14 bf3c 94a6 3ebe e31d e13d
00000080: f5b4 2ebd 2d48 c5bc 7452 073d 6db5 ce3d
00000090: a94c 4a3d ff76 82bc 231f d3bb 04bd 1bbe
000000a0: 8067 733d fa68 0fbe 581d e13d 6b00 423d
000000b0: 898d 16bd e7cb 50be 4e54 d53d 5896 c6bc
000000c0: d7d8 133e 2621 3abd bca4 2d3c 68ac 1dbe
000000d0: 4e42 27be a139 113d 58ac 2bbd 9319 a03d
000000e0: 83fb d5bd 1292 30be 8d46 24be 8861 00be
000000f0: 4e09 87bd 206d 243e 1c0c e13d f890 81bd
00000100: f7e1 393d fa5a 103e 5e8e 813c 3faa ce3d
00000110: 400d 62be cf31 b5bd ffb1 013d c27b f2bd
00000120: 616a d2bd 3160 a13d 9f5a 0cbe 5140 fdbd
00000130: a5ca acbc 05aa 383e 9eca 123e 8b8c 023d
00000140: c651 803a 81ff 5dbd e542 883d 6c6a 16be
00000150: 0993 0c3e 9d91 08be 6897 123e be0d fd3d
00000160: 2562 b63c 819e 85bd f92c 223d 5df7 0f3e
00000170: e5c9 883d 0dc4 3fbe 4b59 873d 8c56 1a3c
00000180: 0242 2abe c3dd 6bbd 3aaa 29bc 9ae3 1ebe
00000190: 00b5 053d 22d6 1ebe 7554 623c 0923 89be
000001a0: 6fd0 5cbe 3b44 173e 7ffe 48be 113c ad3d
000001b0: c281 2bbd aecb 823d 9a92 363e c6a9 abbc
000001c0: 19db 0d3d 711c 6ebe 1d44 313e c150 273e
000001d0: 9d51 463e 172a cfbd bc01 2c3e 6491 19be
000001e0: 8859 013e 7972 20be d313 6dbe 01a2 cc3c
000001f0: c275 b7bc 5b81 0abd f3b5 6ebe 8b47 2dbe
00000200: 6a00 683e 1280 53be 6690 233c c50c 88be
00000210: 4278 0b3e b6db 303e 0098 5cbe cbe3 6e3d
00000220: 71ca 543e 4740 cd3d 1115 f93a 6e1d bc3d
00000230: 75b0 10bd 23f2 c239 4f46 baba 8467 5abd
00000240: f3f3 5d3e e56d 42bd 9e26 383d 8315 083e
00000250: 252a 4f3e 777b 72be 08e6 0c3e c855 193e
00000260: 5659 91bd 4a26 a3bd f39e a2bd 2a80 b7bc
00000270: 9a08 d33d 2328 40bc d18c 1c3e 32fd 30bd
00000280: 4c1c df3d 0f18 3e3e cc17 06bc 530e cb3d
00000290: f28b 8f3b 835f 41bd c24d 33be f897 003e
000002a0: dde0 4b3c 2b99 d93d 70e1 4dbe caf6 1c3c
000002b0: ee4d 373e 4926 493e b749 9f3c 8c08 08be
000002c0: c002 603d 3eac 95bd fc42 05bd 28e3 873e
000002d0: 3180 22be b627 083e 6157 02bc ad41 a23b
000002e0: f493 56bd 648c 4dbd 48c1 a73d 397a bfbd
000002f0: b24e 813d 6608 023d 48c1 1ebc 2526 2e3e
00000300: d3ad 563e 309d 2f3e 3bbe 8cbd 4054 65bc
00000310: d440 d1bd 13c4 f63d f562 683e 69d6 2ebd
00000320: efae a6bd 06d1 b8bd fa04 21be eb26 9ebb
00000330: de45 023e 0c3f 113d 6ca0 e33d fff3 1a3d
00000340: 517b 1e3e cd00 323d a872 89bd 454a 81bd
00000350: 628d a8bd 43b8 88bd 1168 b8bd 7d53 0bbe
00000360: 4ec0 073e 3284 c43d 9981 103e e64c 8e3d
00000370: 4c4e 643d ebbf 3d3d 0ed2 dabd ecfe 063e
00000380: 21e0 e73d f84c 40be 4c8a 173e 1325 8ebd
00000390: 0932 52bc 199f 0abe 806b 733d b4d4 b6bd
000003a0: d91c 263e 499a c43d 7d35 61be 6291 343e
000003b0: 6c0c 1b3d c47b 273e fbf4 05bd d500 7b3b
000003c0: 350a 1fbe 7790 2bbe 5c31 eebd 7a16 163e
000003d0: 335e 65be d8f7 aa38 3346 c3bd e697 cd39
000003e0: dab3 d23d 8cda 50be 4c1b 50be 399a 133c
000003f0: ace4 2bbe 894a 46bd 8946 133d 4859 ae3d

rnn.bias_ih_l0 f4 [28]
-0.0049597854 0.07584617 -0.16152263 0.021802722 0.047005456 -0.053370386 0.09376382 0.118171126
0.04894007 -0.07570409 -0.21189435 -0.20899056 -0.13515176 -0.12535118 0.08460067 0.0031358094
0.054091763 -0.09232069 0.040048346 0.09718167 -0.2783584 -0.025980232 0.112544514 0.41051337
-0.0908523 -0.04368469 0.087371655 -0.09018874
00000000: b285 a2bb 3d55 9b3d 3066 25be 9f9b b23c
00000010: cb88 403d e89a 5abd 3f07 c03d b403 f23d
00000020: 6275 483d bf0a 9bbd d5fa 58be 9f01 56be
00000030: 3965 0abe 0f5c 00be 1e43 ad3d 2782 4d3b
00000040: 538f 5d3d a112 bdbd bc09 243d 2f07 c73d
00000050: fe84 8ebe 7fd4 d4bc bd7d e63d cf2e d23e
00000060: c510 babd b8ee 32bd e9ef b23d e0b4 b8bd

rnn.bias_hh_l0 f4 [28]
-0.06465938 0.07403253 0.123826966 0.14046353 0.061271347 -0.1078475 -0.109328106 -0.0072530736
0.09208185 -0.008235383 0.13913198 0.11745253 0.14268331 -0.12882055 0.05803309 0.19995622
0.06933851 -0.002739582 0.04137117 -0.08877086 -0.08278624 -0.06099818 0.18075016 0.1260188
-0.06361661 -0.10531317 0.09642006 0.045963988
00000000: 236c 84bd 5e9e 973d fe98 fd3d acd5 0f3e
00000010: aaf7 7a3d 26df dcbd 6ae7 dfbd 31ab edbb
00000020: 6995 bc3d b3ed 06bc 9d78 0e3e f48a f03d
00000030: 931b 123e 89e9 03be 1bb4 6d3d 53c1 4c3e
00000040: 5901 8e3d 8f8a 33bb d174 293d 7fcd b5bd
00000050: d58b a9bd 3ad9 79bd 9216 393e 130b 013e
00000060: 6d49 82bd 6eae d7bd e177 c53d bc44 3c3d

rnn.weight_ih_l1 f4 [28, 28]
-0.05942119 -0.1471575 -0.015237301 -0.1009478 0.10685609 0.04550138 0.14216213 0.14009897
0.052788876 0.19141462 0.05484776 0.10862566 0.0535083 -0.14072892 -0.119252734 -0.17012458
0.20482709 -0.03963607 0.08196519 -0.15785927 0.15727066 -0.146856 0.15451795 -0.15837212
0.026982551 0.18811417 0.19915575 -0.19302987 -0.022029597 -0.08829794 0.17519805 0.07131985
-0.16323823 0.21463157 -0.06984963 0.18223707 -0.13535 0.19631341 0.07647841 0.21601763
0.09224802 -0.21860072 0.16957787 -0.11277411 -0.35445943 0.2565693 0.043498937 0.2068915
0.32554635 0.15724066 -0.12426018 -0.07161752 -0.015848527 0.1264151 0.16282514 0.13946643
-0.024527617 -0.12375442 -0.0544397 0.13839392 -0.13367605 -0.12631005 0.046232663 -0.0018898763
-0.06270515 0.16783412 -0.056182314 0.021739269 -0.13198513 -0.012492991 0.07934726 -0.1820819
-0.23224065 0.19872554 0.0857957 0.17933457 0.22979021 -0.14010403 0.15028828 -0.08826179
0.20576218 0.005323323 0.07587131 -0.04837039 -0.041037858 -0.09829623 -0.13749228 -0.17369686
0.120138586 0.23709792 0.1257974 -0.13499463 -0.102118984 -0.090815805 0.2819912 -0.033259816
0.046151076 -0.051188644 0.16306576 -0.19013439 -0.046460267 0.11015167 0.10758943 -0.11907901
0.29890603 0.100024596 -0.09095019 -0.036167145 -0.07773797 -0.13533352 0.08779767 0.1280985
-0.22874564 -0.070276015 -0.11889759 -0.06600426 0.10744388 0.10300472 -0.033589985 0.1050367
-0.19665985 -0.06193985 -0.039727416 -0.026946943 0.14121325 0.030994479 0.20599441 -0.16261955
-0.113612294 -0.09858816 0.17742658 -0.06636674 0.07528169 -0.1528623 -0.12940273 -0.16667129
0.09917691 0.105661556 0.08031494 0.08494017 0.16870022 -0.088637725 0.035482977 -0.15885045
-0.10946244 0.21328823 -0.13594954 -0.14599973 -0.044417102 0.10984027 0.06128613 0.3051353
0.06570113 0.073968 -0.06368933 0.05664392 -0.09303943 -0.0449468 0.15113828 -0.0001931864
0.35001037 -0.09367043 -0.10320793 -0.00088157575 0.2128545 -0.26639643 0.14755535 -0.10440298
-0.33477005 -0.12926099 -0.015902562 -0.13999064 -0.029114239 -0.07966804 -0.11125221 0.041769538
-0.33921075 -0.048679806 -0.09194854 -0.22287191 -0.2894502 -0.3106076 0.32722253 0.11167553
-0.15625283 0.089657396 -0.11941865 0.08294798 0.26329753 0.16744861 0.06503755 -0.37690818
0.09314082 0.22629356 -0.017319918 0.23535857 -0.29840988 0.14372091 0.06014273 0.14986685
0.13426615 0.25750542 -0.22757742 0.09926749 -0.09803552 0.20740569 0.2004408 -0.1569975
0.006356374 -0.28653827 0.24263938 0.0016890817 -0.12832199 -0.022060499 0.0032041941 0.07178181
0.24662705 0.025442094 0.13090931 -0.31018266 0.18189241 0.09481999 -0.05727998 0.19443728
-0.15390559 -0.093577616 0.05948624 -0.0031017514 -0.09595027 0.1682894 -0.13616452 0.1065374
0.098085545 0.15864114 -0.08744141 -0.08518819 -0.12099433 0.020681975 0.036760114 0.03420692
-0.03745078 0.11442084 0.12619846 0.095067956 0.064967476 0.12238529 0.13767213 0.089076355
-0.19013825 0.0042977734 -0.0068570813 0.1287527 -0.075084195 0.06106922 -0.1968307 -0.14998542
00000000: a263 73bd 75b0 16be dfa5 79bc b8bd cebd
00000010: 5ed7 da3d a85f 3a3d f392 113e 1b76 0f3e
00000020: 2639 583d 3202 443e 0ba8 603d 2177 de3d
00000030: 852b 5b3d 3e1b 10be c73a f4bd 2335 2ebe
00000040: 31be 513e 6f59 22bd 5edd a73d dca5 21be
00000050: 8f0b 213e 6b61 16be f439 1e3e 4d2c 22be
00000060: 830a dd3c 00a1 403e 7cef 4b3e 9fa9 45be
00000070: 6a77 b4bc 8dd5 b4bd 1e67 333e 2410 923d
00000080: ec27 27be 61c8 5b3e 530d 8fbd 5b9c 3a3e
00000090: 3199 0abe 6206 493e b6a0 9c3d ba33 5d3e
000000a0: 88ec bc3d ded8 5fbe d2a5 2d3e 1df6 e6bd
000000b0: b57b b5be 0d5d 833e f12b 323d 5edb 533e
000000c0: 03ae a63e b203 213e 1f7c febd 35ac 92bd
000000d0: c5d4 81bc f672 013e a2bb 263e 4ad0 0e3e
000000e0: 24ee c8bc f572 fdbd 2afc 5ebd 23b7 0d3e
000000f0: 60e2 08be 6c57 01be 765e 3d3d bab5 f7ba
00000100: 8f6b 80bd b5dc 2b3e 6d1f 66bd 8d16 b23c
00000110: 1c27 07be 67af 4cbc d180 a23d ad73 3abe
00000120: 7ed0 6dbe b57e 4b3e a8b5 af3d 7ba3 373e
00000130: 204e 6b3e 6e77 0fbe 2ce5 193e 99c2 b4bd
00000140: 52b3 523e 456f ae3b 6b62 9b3d 0820 46bd
00000150: 5017 28bd 894f c9bd c7ca 0cbe 97dd 31be
00000160: 380b f63d ccc9 723e 09d1 003e 083c 0abe
00000170: c223 d1bd a3fd b9bd 2761 903e 723b 08bd
00000180: e908 3d3d 2fab 51bd b6fa 263e 97b2 42be
00000190: 1f4d 3ebd 3397 e13d d957 dc3d b2df f3bd
000001a0: 360a 993e b2d9 cc3d 1844 babd 0024 14bd
000001b0: 1635 9fbd df94 0abe 44cf b33d 412c 033e
000001c0: 4c3c 6abe dfec 8fbd 9480 f3bd 3e2d 87bd
000001d0: 890b dc3d 23f4 d23d a795 09bd 7b1d d73d
000001e0: 3361 49be a4b4 7dbd 37b9 22bd d6bf dcbc
000001f0: 359a 103e 22e8 fd3c 33f0 523e bd85 26be
00000200: 90ad e8bd 97e8 c9bd 50af 353e 49eb 87bd
00000210: 492d 9a3d ef87 1cbe 2682 04be e1ab 2abe
00000220: 441d cb3d 1665 d83d 297c a43d 1df5 ad3d
00000230: c0bf 2c3e b287 b5bd 9956 113d b1a9 22be
00000240: d82d e0bd 3b68 5a3e 5b36 0bbe f480 15be
00000250: b5ee 35bd eff3 e03d 2a07 7b3d b23a 9c3e
00000260: 508e 863d 897c 973d 8d6f 82bd 7403 683d
00000270: 758b bebd 231a 38bd fec3 1a3e 1492 4ab9
00000280: 8f34 b33e 48d6 bfbd ae5e d3bd 8c19 67ba
00000290: 88f6 593e 1d65 88be c018 173e 3bd1 d5bd
000002a0: fb66 abbe fe5c 04be 1746 82bc b559 0fbe
000002b0: fc80 eebc ff28 a3bd 33d8 e3bd 8916 2b3d
000002c0: 08ad adbe 7a64 47bd 844f bcbd 8938 64be
000002d0: d132 94be f607 9fbe b689 a73e 24b6 e43d
000002e0: be00 20be 4c9e b73d c491 f4bd a1e0 a93d
000002f0: efce 863e a677 2b3e 6832 853d 1cfa c0be
00000300: 9dc0 be3d 80b9 673e 80e2 8dbc d601 713e
00000310: 2ec9 98be 932b 133e 3958 763d b276 193e
00000320: 117d 093e c0d7 833e 0e0a 69be c14c cb3d
00000330: d9c6 c8bd 2862 543e 5a40 4d3e f4c3 20be
00000340: 2149 d03b 25b5 92be 7576 783e 2d64 dd3a
00000350: d766 03be 38b8 b4bc 75fd 513b 5702 933d
00000360: cd8b 7c3e f06b d03c 170d 063e 43d0 9ebe
00000370: 0142 3a3e fc30 c23d 6a9e 6abd 911a 473e
00000380: 6d99 1dbe 9fa5 bfbd d8a7 733d c146 4bbb
00000390: 9381 c4bd 0e54 2c3e b66e 0bbe 4830 da3d
000003a0: 13e1 c83d d372 223e 7b14 b3bd 2577 aebd
000003b0: e0cb f7bd 3f6d a93c c691 163d 8e1c 0c3d
000003c0: fd65 19bd 7955 ea3d 2b3a 013e fdb2 c23d
000003d0: ab0d 853d 24a5 fa3d ecf9 0c3e aa6d b63d
000003e0: 9ab3 42be 56d4 8c3b 5eb1 e0bb bfd7 033e
000003f0: bec5 99bd b823 7a3d fd8d 49be c795 19be

rnn.weight_hh_l1 f4 [28, 28]
0.054350868 0.0320937 -0.05018409 -0.231276 0.18524744 -0.036428794 0.1536107 0.10975356
-0.19298808 0.03698931 -0.17652717 -0.1305172 0.0041915313 0.09523111 0.1379317 0.1223635
-0.0024429413 -0.18531059 0.0069637876 0.01314965 -0.14747323 -0.13329309 -0.16708925 -0.037449334
0.055158548 0.12955724 -0.1835954 0.20995227 0.114233956 0.30290022 -0.05246774 -0.122882344
0.085537374 0.31050023 -0.032808945 0.1441711 -0.03713887 0.06902316 -0.21259229 -0.13723531
0.15607004 -0.057313565 -0.032743104 0.09131137 -0.12027533 -0.09217769 0.06510753 -0.08078491
0.15072145 0.064048946 -0.37009594 0.0027860613 -0.08248384 -0.031582426 -0.018410513 0.04901962
-0.081505485 0.18528591 0.10046182 0.14892466 -0.20997487 0.20541383 -0.105417445 -0.15887116
0.07227896 0.039215636 -0.17673692 0.046285305 -0.108231165 0.0007987477 -0.22776955 -0.17940888
0.1544841 0.025060695 0.2195473 -0.06106654 -0.11359051 -0.14139012 0.109318465 0.08965806
-0.2657304 0.04585931 -0.1224254 -0.12255855 -0.010793649 -0.0990546 0.18668623 -0.040995926
-0.18970239 0.27846345 -0.1493541 0.007655913 -0.01850482 0.24942988 -0.043080043 0.033575706
-0.19405144 -0.09814193 -0.19678769 0.032935705 -0.015695699 0.17601372 -0.041374967 0.110630535
-0.10290797 0.09453956 -0.16235664 -0.082505316 -0.21094418 -0.087355584 0.16641665 0.02091587
0.08850473 0.07411449 -0.16244948 -0.046608057 0.24857572 0.018546218 0.015733108 0.18139428
-0.1901623 -0.01213133 0.089746684 -0.16543275 0.11232003 0.1011305 -0.08045615 0.20851561
0.1238023 -0.081684835 0.17370763 -0.042025473 0.052227557 0.021824183 -0.25113136 0.024818137
0.010063998 -0.09673407 0.037975445 0.065482154 0.15531403 0.18467087 -0.0540998 0.04626269
-0.034826957 0.42152622 -0.26954436 0.16302384 -0.1974612 -0.07880108 0.06221934 0.01651326
0.06431944 -0.066004395 -0.11723466 -0.08555263 -0.27885175 0.11125336 0.16386774 0.15036154
-0.0134066045 -0.21926117 -0.34464383 -0.10164797 0.15635931 -0.22085091 0.03172791 0.0488876
-0.14551136 -0.20938705 0.037449382 -0.07441489 0.071249045 -0.25998932 0.35500258 0.009246308
-0.016092137 0.33205932 0.21738288 -0.10604417 -0.046804205 0.1513455 -0.0051083905 -0.115007706
-0.0012339214 0.022065062 -0.15351586 -0.04856996 0.061608527 0.03281281 -0.11175991 -0.12025372
0.009204253 0.2169448 0.23462518 -0.11140032 0.16684826 0.18981904 -0.10141208 0.016833618
0.22567903 0.2446136 -0.08060698 0.23717412 0.014786416 -0.107785136 -0.058259975 -0.123894155
0.16126098 0.0057041664 0.14131534 -0.0015130527 -0.18881223 0.024024049 0.13511062 -0.034150224
0.123561166 -0.20443764 -0.34976032 0.20916864 0.16118439 0.17843473 0.14058156 0.19904698
-0.16438398 -0.09985335 0.09752876 -0.13158736 -0.22994803 0.04301467 0.06887247 0.07168499
0.01233001 0.09512187 0.07221945 -0.10954633 -0.19740832 -0.10420822 -0.266357 -0.18518333
0.034503438 0.039318554 0.15510924 0.049788248 -0.18950246 -0.061749652 0.0463096 0.16650373
-0.19092964 -0.12717162 0.22575098 -0.1832677 0.017449418 -0.21432096 0.08616735 0.18478246
00000000: 049f 5e3d af74 033d d58d 4dbd 9ed3 6cbe
00000010: 81b1 3d3e 5c36 15bd 204c 1d3e 79c6 e03d
00000020: ab9e 45be 1a82 173d 8ac3 34be 4da6 05be
00000030: 1d59 893b 8708 c33d f83d 0d3e b799 fa3d
00000040: c119 20bb 0fc2 3dbe 7c30 e43b a171 573c
00000050: 3903 17be fc7d 08be 7219 2bbe 7964 19bd
00000060: eeed 613d a7aa 043e 6f00 3cbe bafd 563e
00000070: 7ef3 e93d bd15 9b3e 6ae8 56bd bda9 fbbd
00000080: 382e af3d e3f9 9e3e ac62 06bd 97a1 133e
00000090: ee1e 18bd 045c 8d3d cbb1 59be 6a87 0cbe
000000a0: d3d0 1f3e a1c1 6abd a21d 06bd 7501 bb3d
000000b0: ea52 f6bd a8c7 bcbd 1957 853d 8f72 a5bd
000000c0: b956 1a3e 182c 833d 377d bdbe 5a96 363b
000000d0: 4aed a8bd 935c 01bd a5d1 96bc ccc8 483d
000000e0: 59ec a6bd 97bb 3d3e edbe cd3d b57f 183e
000000f0: a703 57be 0158 523e 1ae5 d7bd 1faf 22be
00000100: fe06 943d 93a0 203d 86fa 34be a995 3d3d
00000110: 4da8 ddbd 0d63 513a 6c3c 69be f6b6 37be
00000120: 1431 1e3e 164c cd3c 02d1 603e e920 7abd
00000130: 24a2 e8bd 92c8 10be 5ce2 df3d a59e b73d
00000140: d10d 88be f9d6 3b3d 2bba fabd faff fabd
00000150: d8d7 30bc 23dd cabd ad2a 3f3e 58eb 27bd
00000160: 5841 42be c392 8e3e 48f0 18be 74de fa3b
00000170: 6c97 97bc 8c6a 7f3e b374 30bd ae86 093d
00000180: 6cb5 46be a3fe c8bd b682 49be 97e7 063d
00000190: 4494 80bc f13c 343e cc78 29bd 4392 e23d
000001a0: 6ac1 d2bd f59d c13d d240 26be 8cf8 a8bd
000001b0: c001 58be 7ce7 b2bd 2069 2a3e c257 ab3c
000001c0: f841 b53d 56c9 973d 2859 26be 17e8 3ebd
000001d0: a28a 7e3e 3dee 973c b8e2 803c 6cbf 393e
000001e0: e8b9 42be 7cc2 46bc 1ccd b73d 3467 29be
000001f0: 0b08 e63d 821d cf3d 32c6 a4bd 1e85 553e
00000200: 0f8c fd3d 614a a7bd 6ae0 313e e722 2cbd
00000210: 90ec 553d a1c8 b23c 4a94 80be 684f cb3c
00000220: 78e3 243c 831c c6bd 248c 1b3d 821b 863d
00000230: a40a 1f3e 5c1a 3d3e c097 5dbd f27d 3d3d
00000240: b6a6 0ebd 49d2 d73e b801 8abe b9ef 263e
00000250: 4533 4abe 7662 a1bd b5d9 7e3d d146 873c
00000260: e9b9 833d 502d 87bd ba18 f0bd 3836 afbd
00000270: a8c5 8ebe cdd8 e33d f2cc 273e 60f8 193e
00000280: 60a7 5bbc 0086 60be 2875 b0be d02c d0bd
00000290: a81c 203e be26 62be 20f5 013d 5d3e 483d
000002a0: ee00 15be 8f69 56be 8664 193d d566 98bd
000002b0: 05eb 913d 521d 85be e6c2 b53e d47d 173c
000002c0: a8d3 83bc ae03 aa3e 9e99 5e3e b02d d9bd
000002d0: c4b5 3fbd 51fa 1a3e 4964 a7bb 2989 ebbd
000002e0: 88bb a1ba cac1 b43c 4333 1dbe 4bf1 46bd
000002f0: 3959 7c3d ba66 063d 61e2 e4bd 9547 f6bd
00000300: 6fcd 163c c726 5e3e 9541 703e da25 e4bd
00000310: 45da 2a3e ec5f 423e 23b1 cfbd a8e6 893c
00000320: 6718 673e fd7b 7a3e 4615 a5bd c6dd 723e
00000330: b942 723c 74be dcbd 03a2 6ebd 38bc fdbd
00000340: 9921 253e 04ea ba3b f8b4 103e a051 c6ba
00000350: fe57 41be 15ce c43c 705a 0a3e 1be1 0bbd
00000360: a30d fd3d 1a58 51be c913 b3be 4e30 563e
00000370: 850d 253e 98b7 363e 9df4 0f3e f9d2 4b3e
00000380: 4654 28be ea7f ccbd 29bd c73d d6be 06be
00000390: 7f77 6bbe 2730 303d 020d 8d3d 94cf 923d
000003a0: cf03 4a3c 41cf c23d cae7 933d d459 e0bd
000003b0: 6825 4abe 1f6b d5bd f25f 88be b3a0 3dbe
000003c0: 7a53 0d3d 7e0c 213d f5d4 1e3e c3ee 4b3d
000003d0: ef0c 42be 34ed 7cbd 23af 3d3d f47f 2a3e
000003e0: 0f83 43be 4739 02be 442b 673e 87aa 3bbe
000003f0: 15f2 8e3c f476 5bbe 8278 b03d 9d37 3d3e

rnn.bias_ih_l1 f4 [28]
-0.14270808 0.067455105 0.067315206 0.125137 -0.06140805 -0.17869474 -0.039872155 -0.056083728
0.16677688 -0.25048172 0.055528868 -0.10435585 -0.015509867 0.10322137 0.094621554 -0.17147014
-0.14673263 -0.081416845 0.0039774557 -0.16647673 0.049060106 0.10303328 -0.01554202 0.16718085
-0.057455815 0.057923358 0.056094956 0.01716878
00000000: 1122 12be e725 8a3d 8edc 893d ea23 003e
00000010: 0287 7bbd c1fb 36be fc50 23bd 0db8 65bd
00000020: 8fc7 2a3e 243f 80be 3d72 633d 85b8 d5bd
00000030: 191d 7ebc ba65 d33d f2c8 c13d de95 2fbe
00000040: 1441 16be e0bd a6bd 5155 823b e078 2abe
00000050: 40f3 483d 1d03 d33d f5a3 7ebc 7531 2b3e
00000060: ca56 6bbd 0b41 6d3d d3c3 653d 8ba5 8c3c

rnn.bias_hh_l1 f4 [28]
0.051657476 -0.040463526 -0.10460528 -0.20427154 0.12113469 -0.21857764 -0.122685924 0.109445244
0.06626883 -0.16594589 -0.006920652 0.06324526 -0.17427504 -0.026720712 -0.17856465 -0.17856203
0.08180573 0.08909558 0.031296894 0.01839413 -0.034132406 -0.08162392 0.15119126 -0.08109088
-0.028939389 0.15157376 -0.031880308 0.08384584
00000000: ca96 533d 15bd 25bd 4b3b d6bd 8f2c 51be
00000010: 7715 f83d d1d2 5fbe c242 fbbd d424 e03d
00000020: f4b7 873d b8ed 29be a3c6 e2bb bb86 813d
00000030: 2875 32be 65e5 dabc a7d9 36be f7d8 36be
00000040: c389 a73d be77 b63d 2c31 003d 49af 963c
00000050: 6cce 0bbd 712a a7bd e2d1 1a3e fa12 a6bd
00000060: 4c12 edbc 2736 1b3e ed94 02bd 5eb7 ab3d

fc.weight f4 [5, 28]
-0.37374175 -0.63903445 -0.35403994 -0.36413416 -0.12263228 -0.2554021 -0.076141626 -0.50779986
0.17785212 -0.11262439 0.62675226 0.055283733 0.27591926 0.07876146 -0.052293744 -0.094842
0.01955406 -0.012967362 -0.47638866 -0.348045 -0.15183485 0.08721442 0.41720957 -0.14969286
0.3344822 0.22984232 0.29963347 -0.3721631 0.26484215 -0.2866817 -0.46324086 -0.50384897
0.23739372 -0.3658051 0.058419507 0.09993031 -0.4103258 -0.121340804 0.3059033 -0.21385683
0.45053732 0.4775034 0.54618186 0.5272677 0.058372024 -0.3544006 -0.2977584 -0.3298801
-0.15990064 -0.121683 0.14997797 -0.20744985 0.40956548 0.0088171195 -0.37378043 0.3623423
-0.05498085 -0.3289056 0.18269964 0.098030925 -0.2606705 -0.09629168 -0.45726252 -0.45558512
-0.006525218 -0.084088564 -0.3881429 -0.07983306 -0.17603365 -0.14217389 -0.24872108 -0.037709795
0.259961 0.11029249 -0.23277725 0.13806932 -0.08633351 0.40267593 0.16081987 -0.023572944
-0.39180356 -0.16990131 0.11685682 -0.3407618 -0.055756897 0.68518454 0.0895288 0.282734
-0.07951856 0.64139396 -0.47293565 0.5242845 0.08871314 -0.2158852 -0.3627474 -0.21143053
-0.1441054 -0.20790592 0.037102845 -0.06696218 -0.07980001 0.24685887 0.3782845 0.08810005
0.32689905 0.0020135618 -0.26668036 0.15959609 -0.16029452 -0.20835876 -0.4824659 0.5034483
-0.060913324 0.24459375 0.09389661 0.26477662 0.055663265 0.05200592 0.6705411 0.5556057
0.035547137 0.6927744 -0.061236545 0.31621194 -0.20621848 -0.24281596 -0.26986644 -0.26231074
-0.030297799 0.02321145 0.38470772 0.28612828 -0.11188909 -0.3227256 -0.15636022 0.3252542
-0.35363236 -0.05340755 0.20502965 -0.14651377
00000000: 145b bfbe c397 23bf b944 b5be cb6f babe
00000010: a226 fbbd 10c4 82be 24f0 9bbd 2cff 01bf
00000020: de1e 363e 9ea7 e6bd d672 203f 3271 623d
00000030: 4a45 8d3e b04d a13d f731 56bd 863c c2bd
00000040: d62f a03c 0f75 54bc 37e9 f3be f432 b2be
00000050: 987a 1bbe 799d b23d 7e9c d53e 1649 19be
00000060: 4041 ab3e c95b 6b3e 8f69 993e 298c bebe
00000070: 6499 873e f2c7 92be e82d edbe 3ffc 00bf
00000080: 5717 733e ce4a bbbe 4b49 6f3d 43a8 cc3d
00000090: 3916 d2be 8781 f8bd 5b9f 9c3e 49fd 5abe
000000a0: d4ac e63e 537b f43e 93d2 0b3f 04fb 063f
000000b0: 8117 6f3d ff73 b5be ca73 98be 0be6 a8be
000000c0: febc 23be f034 f9bd d393 193e bc6d 54be
000000d0: 91b2 d13e ae75 103c 2660 bfbe ee84 b93e
000000e0: 9a33 61bd 5166 a8be 9d15 3b3e 70c4 c83d
000000f0: 9b76 85be 9334 c5bd 501e eabe 7442 e9be
00000100: 7fd1 d5bb a036 acbd abba c6be 847f a3bd
00000110: 2a42 34be 0896 11be bdb0 7ebe 9675 1abd
00000120: 9c19 853e 07e1 e13d 295d 6ebe 0b62 0d3e
00000130: a0cf b0bd 8a2b ce3e f7ad 243e 0c1c c1bc
00000140: 7a9a c8be 9cfa 2dbe a152 ef3d 5578 aebe
00000150: 5861 64bd 4168 2f3f e05a b73d 83c2 903e
00000160: a0da a2bd 6532 243f 9f24 f2be 8237 063f
00000170: 3caf b53d 0311 5dbe 07ba b9be 3f81 58be
00000180: 5e90 13be 4ae5 54be 27f9 173d 7823 89bd
00000190: 306e a3bd 92c8 7c3e 82ae c13e cd6d b43d
000001a0: 505f a73e f6f5 033b 548a 88be 286d 233e
000001b0: 3f24 24be 005c 55be c505 f7be fde1 003f
000001c0: 4080 79bd c976 7a3e de4c c03d cd90 873e
000001d0: 2aff 633d 2904 553d 95a8 2b3f 2d3c 0e3f
000001e0: e099 113d aa59 313f 2cd3 7abd 88e6 a13e
000001f0: f02a 53be bfa4 78be ef2b 8abe 984d 86be
00000200: 1733 f8bc f025 be3c 69f8 c43e 687f 923e
00000210: 1b26 e5bd 4a3c a5be e51c 20be b887 a63e
00000220: 4d0f b5be e0c1 5abd 4bf3 513e b507 16be

fc.bias f4 [5]
0.008865454 0.20730688 0.14789674 -0.051094584 -0.06757405
00000000: 6940 113c 4148 543e 3e72 173e 8e48 51bd
00000010: 4364 8abd
