models/2.0.1-recurrent-neural-network-model-test-4x2.pth (torch, 2506 bytes, 10 tensors)

rnn.weight_ih_l0 f4 [4, 3]
000000 0b 1f 30 bf fd 4f 07 3e 21 1d 16 3d 26 80 33 bf
       -0.6879737 0.13214107 0.036648873 -0.70117414
000010 f8 b4 36 bf cd 4b 04 bf f9 55 0e bf 4b 0c 17 bd
       -0.71369886 -0.5167816 -0.55599934 -0.036876958
000020 63 1b 42 3f 1f 77 a2 3e 30 e9 18 3f 16 97 2b 3f
       0.7582304 0.31731507 0.59730816 0.67027414

rnn.weight_hh_l0 f4 [4, 4]
000000 28 f4 94 be d5 d4 db 3e 95 59 77 bd 79 90 98 3e
       -0.29092526 0.42935815 -0.060388166 0.29797724
000010 14 c8 47 bd f5 18 bf 3e aa 83 60 3f c7 44 6b bd
       -0.048774794 0.37323728 0.87700903 -0.057438638
000020 17 8a c4 3e 0e 0c c8 3e e6 f6 71 3f 9a e7 d1 be
       0.38386604 0.39071697 0.9451736 -0.4099701
000030 75 07 14 be d3 99 38 bf fd 24 d8 3e 16 0d 2c ba
       -0.1445597 -0.7210972 0.4221572 -0.0006563229

rnn.bias_ih_l0 f4 [4]
000000 65 d0 ad be 8b 40 ed bd d4 a5 3a 3e f9 5a 05 3f
       -0.33948055 -0.11584576 0.18227321 0.5209194

rnn.bias_hh_l0 f4 [4]
000000 64 54 a0 3e 27 7d d5 be 94 1e 71 bd d2 f4 a2 be
       0.31314385 -0.41697046 -0.058867052 -0.31827408

rnn.weight_ih_l1 f4 [4, 4]
000000 fc 92 80 be 62 39 68 bf 84 4f 1d 3e 07 c9 5c 3f
       -0.2511214 -0.9071256 0.15362364 0.86244243
000010 b8 29 73 be 68 69 b1 3c 85 b2 81 3d ca 9b be be
       -0.23746383 0.021656707 0.06332878 -0.37228233
000020 36 28 bb be 9c c1 3b bf be b4 a3 be dd 57 51 3d
       -0.36554116 -0.733423 -0.31973833 0.051109184
000030 5f b6 85 3e 0b a6 4b bf f8 08 fd bc b7 da f6 3c
       0.261157 -0.79550236 -0.030888066 0.030133588

rnn.weight_hh_l1 f4 [4, 4]
000000 ea b8 6c 3d da e8 01 3f 49 ba af 3e e1 37 13 3f
       0.057793535 0.5074593 0.34321812 0.5750714
000010 0b d8 b9 3e 0f 6e 81 bd a0 36 19 3f 94 66 cf 3e
       0.3629764 -0.0631982 0.59848976 0.40507948
000020 3d 24 3a bd a0 fc 8a 3e 35 18 e8 3f e0 20 8d 3d
       -0.045444716 0.27145863 1.8132387 0.06891036
000030 5d 3d 4b 3f 7a e4 95 be 96 ad e2 bd ea 66 ca 3e
       0.7939051 -0.29275876 -0.11068265 0.39531642

rnn.bias_ih_l1 f4 [4]
000000 85 8a 9e 3d c1 3d f6 3e b8 1f 19 bf 07 c9 53 be
       0.07741264 0.4809399 -0.59814024 -0.20682155

rnn.bias_hh_l1 f4 [4]
000000 85 b0 42 3e e7 bd e8 3d 11 ad a7 be f7 c9 1c 3e
       0.1901265 0.11364346 -0.32749227 0.15311418

fc.weight f4 [5, 4]
000000 11 12 29 3f be 3a bc 3e 03 74 db be bb c2 f2 3e
       0.6604319 0.36763567 -0.42861947 0.47414193
000010 28 65 5f 3f 8d c8 58 3f 9e bd 1f 40 1b 89 db 3d
       0.8726373 0.84681016 2.4959483 0.1071951
000020 37 de fb 3e 5f d9 dc be a2 69 72 bf 69 fc 20 be
       0.49192974 -0.4313459 -0.9469243 -0.15721287
000030 b6 f4 73 bf 5d 8c ef bd ea e6 72 bf 67 3d 5c bf
       -0.95295274 -0.11696694 -0.94883597 -0.8603119
000040 1c e0 7b bf ab 92 87 3e 83 12 11 bf 54 e5 28 bf
       -0.9838884 0.26479086 -0.5666887 -0.65974927

fc.bias f4 [5]
000000 93 03 3f be 25 48 8c bd ee 7d 81 be a3 5c 22 bf
       -0.18653707 -0.06849698 -0.2529139 -0.634226
000010 e5 58 c4 bd
       -0.09587268
