models/2.0.1-recurrent-neural-network-model-test-28x1.pth (torch, 5962 bytes, 6 tensors)

rnn.weight_ih_l0 f4 [28, 3]
000000 ee 2e ad be 6c 05 a7 be c4 7a 61 be a6 92 04 be
       -0.33824867 -0.32621324 -0.22019488 -0.12946567
000010 a3 fc 5d be 36 f1 b4 3c 71 fe c8 bd c3 ac 40 bf
       -0.21678405 0.022087675 -0.09814156 -0.75263613
000020 4f 31 a0 be 1c c9 23 3f a6 0a 36 3f ff f6 e0 3e
       -0.3128762 0.63978744 0.7111 0.43938443
000030 e6 f7 0a be b0 fb 32 3f 78 6c 2b 3e 5d 6e 06 bf
       -0.13571128 0.69915295 0.16740596 -0.5251215
000040 21 f4 88 be 0a de ba be 64 03 af 3e db b7 2c be
       -0.26748756 -0.36497527 0.34182274 -0.1686701
000050 e1 81 0f 3e 89 2f cb be 56 dd f4 3d 50 b4 20 3f
       0.14014389 -0.39684704 0.11956279 0.62775135
000060 73 fd 93 be 95 fa aa bd ed b9 6f 3e ec a6 0d 3e
       -0.28904304 -0.08348576 0.23410769 0.13833207
000070 4b 37 90 bd fe 19 2b bd a5 a1 0e be 46 cc e4 be
       -0.07041796 -0.041772835 -0.1392885 -0.44687098
000080 60 03 88 be ee 92 94 bd cd 15 aa be d3 0c 88 3d
       -0.26565075 -0.07254587 -0.33219758 0.06643071
000090 60 88 45 be 7b 17 e5 3d 33 3d c1 bd 54 2b 89 3e
       -0.19290304 0.11186119 -0.09435501 0.2679087
0000a0 45 9d 87 be ac 6d 9b bd 94 ae ab bc 79 46 1b be
       -0.26487175 -0.075892776 -0.020957269 -0.15163602
0000b0 11 fb ec be 9e ea d9 be ce 5a 68 bd 4a 7b 27 be
       -0.46285298 -0.4256181 -0.056727223 -0.16355625
0000c0 b7 6b f7 be 2b 07 9e be f2 ec b8 3e d9 4f f5 be
       -0.48324367 -0.30864844 0.36118275 -0.4791248
0000d0 d7 e9 e8 bd 2d 11 14 3f cf 57 ab 3d 06 4a 9f 3d
       -0.113727264 0.5783871 0.083663575 0.07777791
0000e0 3c 0e 40 be 1d 31 4b bf 6a f9 8d be 76 62 b6 be
       -0.1875543 -0.79371816 -0.2772935 -0.35621995
0000f0 a2 22 d3 3d 73 25 a3 3e 83 ae 49 bd c1 d1 05 bd
       0.1030934 0.3186451 -0.049238693 -0.03267074
000100 8c c9 25 be 9c 1f 3c 3e ee db 51 bb 3d 3c 97 3e
       -0.16190165 0.18371433 -0.0032021957 0.29538146
000110 01 c4 7d 3d 96 11 a9 3e ac 65 97 3e 3a 74 93 bc
       0.061954502 0.3302123 0.29569757 -0.017999757
000120 aa f5 fa be 68 81 f1 be 8f c6 cb be 88 7b e2 be
       -0.49015552 -0.47169042 -0.39799926 -0.44234872
000130 92 97 c5 be f9 d9 0e 3f 25 c7 03 3f 87 bb de 3e
       -0.385922 0.5580135 0.51475745 0.43502447
000140 31 83 d9 be 10 b7 b7 3e 32 c7 f8 3c bb 65 0c 3e
       -0.42482904 0.35881853 0.030368421 0.13710682

rnn.weight_hh_l0 f4 [28, 28]
000000 ff 28 c2 3e 8e 5c 1b 3d 0a 36 87 bd 74 d0 12 be
       0.37921903 0.037930064 -0.06602104 -0.14337331
000010 6c 20 59 3e d4 76 8e 3e b1 4c 44 3c 36 af b1 bd
       0.21203774 0.27825034 0.011981175 -0.08675997
000020 e9 d4 aa 3e ca 57 55 be fc a9 ca 3d a4 dc 82 3d
       0.33365563 -0.2083427 0.09895703 0.0638974
000030 c2 6c 9e 3e 3c 03 89 bb 12 4f 2a 3e c8 07 0d 3d
       0.3094235 -0.004181294 0.16631725 0.03443125
000040 e3 69 5d 3e 59 19 5a bd 9b d3 3d bd 40 c1 71 3e
       0.21622424 -0.05324683 -0.04634438 0.23608875
000050 47 ca 2c bc 42 61 b9 bd 3b af b0 bd c1 55 1d 3b
       -0.010546274 -0.090517536 -0.086271726 0.0024007412
000060 4b 49 e0 3d d0 dd 28 bd f4 0d 5e be 3f 63 ef bc
       0.109514795 -0.041227162 -0.2168501 -0.029222129
000070 5a 5d 4a 3d 8b f3 99 3d a4 d6 84 3e b2 bf 20 3e
       0.049405433 0.07517155 0.25945008 0.15698126
000080 71 3c 73 be b3 89 9e bd 35 fa 2b 3d 77 35 81 be
       -0.23753525 -0.07741108 0.041986663 -0.25236103
000090 70 78 a2 3a 7d cc 45 3d a5 39 f8 3d 96 06 47 3d
       0.0012395512 0.04829072 0.1212037 0.048590265
0000a0 80 2a c9 3c 53 53 8c 3e 84 a1 a2 3d e5 92 5a bc
       0.024556398 0.2740732 0.07940963 -0.013340686
0000b0 8c a3 ca 3d aa c8 39 be 46 26 56 3d 44 99 f1 3d
       0.09894475 -0.18142954 0.052282594 0.11796811
0000c0 35 ca 24 3d 8f bf 08 be 2b bc cc bc 68 3a 32 be
       0.040231902 -0.13354324 -0.02499207 -0.17405093
0000d0 fa 35 32 bd 3e 1d 06 3e 3f 45 8d 3e 49 22 d2 39
       -0.043508507 0.13097093 0.27591893 0.00040079866
0000e0 98 da 1e bd 3e f3 22 3e ed ef d1 3e d5 bc a8 be
       -0.038782686 0.15913102 0.4100336 -0.32956567
0000f0 56 20 c3 be 42 5e 8d be 8d 02 34 3e 66 9a 07 be
       -0.38110608 -0.27610976 0.17579098 -0.13242492
000100 6b bd 34 be 8a 20 f2 3c 59 a2 9f 3e 97 4b 84 3e
       -0.17650382 0.029556531 0.3117855 0.2583892
000110 8a 85 30 be 6b 66 10 3e 39 37 06 be 2b 34 14 be
       -0.17238441 0.1410157 -0.13107003 -0.14473026
000120 7e ce 8b bc 22 0d 9a 3c f5 ae 19 bd 84 09 6e 3e
       -0.017066237 0.01880509 -0.037520368 0.23245817
000130 0f 5b 8f be 2c 1e fe b9 34 4b ed bd 74 96 43 be
       -0.2799916 -0.00048469135 -0.115866095 -0.19100362
000140 1b 1b 15 be 74 9f ae 3e 62 af 30 be 25 ec d9 bd
       -0.14561121 0.34106028 -0.17254403 -0.10640744
000150 fa 51 45 3a ad a6 d8 bd a8 11 6e bd 70 7d d9 3e
       0.0007527169 -0.10578666 -0.058122307 0.42478514
000160 7e f9 e5 3d 74 7e c2 bc d6 09 82 be 53 f3 44 be
       0.112292275 -0.023741938 -0.2539813 -0.19233446
000170 fb ec b3 be f2 a4 57 be fa 71 4b 3d 00 13 f4 bd
       -0.3514174 -0.21059015 0.049669243 -0.119176865
000180 b0 df 42 be d3 34 6a bd b9 cc a7 bd fd 49 0b be
       -0.19030643 -0.057179283 -0.081933446 -0.13602443
000190 ae 0e 79 be bd bf b3 be 7d c3 34 3e 7d 96 57 be
       -0.24322006 -0.35107222 0.17652698 -0.210535
0001a0 3e c0 32 3c b6 e4 06 be 0c da a3 be d8 5d fe 3d
       0.010910092 -0.13173184 -0.32002294 0.12420243
0001b0 e3 92 4f 3d 8c 06 d3 be 5c 63 e2 3e 0c bb 4d be
       0.05067719 -0.41215932 0.4421643 -0.20090884
0001c0 9e db 95 3e 4d ec 5f bd 2b 0f 8b be 3a 1f 1f be
       0.29269117 -0.054668713 -0.2716001 -0.15539256
0001d0 6a 2d 09 3e 4d 23 8d 3e cf 58 cc bd aa 4b 64 3e
       0.1339623 0.27565995 -0.099778764 0.22294489
0001e0 86 db 6a 3e f4 b7 0b 3e 78 ca bc bc 3a c4 62 bd
       0.22935304 0.13644391 -0.023045763 -0.055362917
0001f0 f8 2a b3 3d 8d 16 02 be dd d3 a7 bb b1 75 5b 3e
       0.0874843 -0.12703915 -0.0051216916 0.21431614
000200 96 8f 10 be b8 63 b4 3d ba 49 1d bd dd 15 ac bd
       -0.14117274 0.08808082 -0.03840039 -0.084026076
000210 db fd 0f be 9b ad ce 3c 5b 2f 16 be 53 aa 0b bd
       -0.14061682 0.025229266 -0.14666502 -0.03409798
000220 5d 88 73 3e 8b 36 e3 3d 64 bc 8a bc 76 85 6b bd
       0.23782487 0.110943876 -0.016935535 -0.057500325
000230 cd d5 58 3e 1f 2a 1b bc 9c 77 c9 bc 8e 4e 5e be
       0.21175309 -0.009470492 -0.024593167 -0.21709654
000240 97 a9 b5 3d 4b b8 e8 3e 3f 54 6f bd 6a ed 91 3e
       0.08870237 0.45453104 -0.058429953 0.28501445
000250 85 42 b8 3e 18 40 1f 3e 1a f0 70 be 97 7e 18 be
       0.3598825 0.15551794 -0.23529091 -0.1489204
000260 69 fc ef 3d 1b 30 6f 3d e7 42 99 3e a2 57 de 3e
       0.11718065 0.058395486 0.29933855 0.43426234
000270 1b 5c 15 3d f5 9e a6 bd de aa 4f bc a8 16 4f 3d
       0.03646479 -0.081357874 -0.012675015 0.050558716
000280 9a 81 88 3d 55 b6 d9 bc 9a 08 82 3e 01 ca f7 bb
       0.066653445 -0.0265762 0.25397187 -0.0075619225
000290 f7 a4 9c 3e d0 87 ad 3d 8d ba b4 bd 82 76 ff 3d
       0.30594608 0.0847317 -0.08824644 0.124737754
0002a0 ac 04 e7 3d 62 1e fc bd 08 9f 29 3e e2 2d 8e be
       0.11280188 -0.123104826 0.16564572 -0.2776938
0002b0 9f 14 46 3d 86 25 54 be 02 a3 b1 3c a2 66 5f bc
       0.04835951 -0.20717439 0.021684173 -0.013635309
0002c0 50 0c 78 3d b3 b9 be 3d 67 c2 a0 3d dd 5e e3 bd
       0.060558617 0.09312763 0.07849579 -0.11102078
0002d0 32 45 77 bd 76 6f 84 3c 8c 17 71 bd bb a5 71 be
       -0.060368724 0.01616643 -0.058860347 -0.23598377
0002e0 1a ad 71 3e 47 a7 11 be 5a 51 4f 3e 4d 50 6d 3d
       0.2360119 -0.14223967 0.20245877 0.05793791
0002f0 93 1b 96 bd 78 86 85 bd da eb 4a 3e 00 68 e1 bd
       -0.07329478 -0.065197885 0.19816533 -0.110061646
000300 5d be 49 be b6 63 7a bd 2c 2b 15 3d 66 3a 82 3e
       -0.19701524 -0.061130248 0.036418125 0.2543518
000310 d3 12 46 3e ec e7 c7 3d 0b 7b 1c 3d fb 46 1a 3f
       0.19343118 0.097610325 0.03820328 0.6026456
000320 90 3a 8e 3e cf 24 ff 3c 4c e2 2e be 2d 4b 5f 3e
       0.27779055 0.031145481 -0.17078513 0.21806021
000330 a5 95 57 3e b6 e8 03 3d dc c2 f8 bd e5 57 0b 3e
       0.21053179 0.032204352 -0.121465415 0.13607748
000340 68 f0 15 bd 5a 8d 30 be 91 40 c5 be c5 3a a5 bb
       -0.036606222 -0.17241421 -0.38525823 -0.0050424063
000350 dc 95 1b be 70 44 c5 bc d3 7c 9d 3d f7 ae ea bd
       -0.15193886 -0.024080485 0.07689824 -0.11459153
000360 83 5f 8c 3d 4d 62 96 3d 2b 43 df 3d 0a 5c 27 be
       0.06854155 0.07342968 0.10901483 -0.16343704
000370 b4 67 ed bd 9f 97 ae bd ca 87 46 3e a8 e3 36 bc
       -0.115920454 -0.08525013 0.19387737 -0.011162676
000380 50 42 9e 3e 7c 74 ad 3d b8 60 ac be eb bf b1 3e
       0.30909967 0.08469483 -0.3366754 0.34716734
000390 22 47 a5 3e 24 46 05 3e bc f3 d0 bd 78 69 60 3e
       0.32280833 0.13015038 -0.10202739 0.21915233
0003a0 27 50 a2 3d ba cf 04 be 92 1e 34 be 87 bb cc bd
       0.07925444 -0.12969866 -0.17589787 -0.099967055
0003b0 3f f6 b5 3c 33 8a 98 bd 37 2a 22 be b2 56 4b 3e
       0.022212146 -0.074482344 -0.15836416 0.1985729
0003c0 15 59 b7 bd ed 07 0a 3e 2f 27 8b 3d ea c3 64 bd
       -0.08952538 0.13479586 0.06794583 -0.0558509
0003d0 df 0c 8a bd 24 de 07 bd 5e 93 c6 3d a0 47 66 be
       -0.06740736 -0.033170834 0.09696077 -0.2248826
0003e0 5d 9b 2b be f4 d2 3e bd e4 ae 0e be 10 2b 2c 3e
       -0.16758485 -0.0465879 -0.13933903 0.16813302
0003f0 1b f7 b4 bd 55 38 d6 3d 62 bb 53 3e a7 59 4e bd
       -0.08836194 0.10459963 0.2067695 -0.050378468

rnn.bias_ih_l0 f4 [28]
000000 1b b7 9b 3d 22 14 bd bd e6 46 35 be e5 d9 56 3e
       0.07603284 -0.09232356 -0.17702827 0.20981558
000010 c7 d4 98 3d b2 2e a6 3e e9 67 bd bd 36 4e a5 3e
       0.07462459 0.324575 -0.09248335 0.32286233
000020 a5 54 49 be 80 d3 49 be 82 86 88 3d 97 40 cc 3d
       -0.19661196 -0.19709587 0.0666628 0.09973257
000030 60 3d 31 3d f3 b1 cb 3d 52 d5 07 3d a7 2c 95 3d
       0.043271422 0.099460505 0.033162422 0.072839074
000040 7b 54 81 3d 57 3c 19 3e 72 b5 38 3d 9c ce 8d bd
       0.063149415 0.14964424 0.045094915 -0.06924173
000050 50 d6 6d 3d 5f 12 85 3e 50 71 1a be aa 8f 86 be
       0.058065712 0.2599058 -0.15082288 -0.26281482
000060 d5 a3 45 3e 61 fb 0c 3e 6e 7d 25 be 52 2f 10 3e
       0.19300778 0.13767768 -0.16161129 0.14080551

rnn.bias_hh_l0 f4 [28]
000000 1d dd 51 3d a1 e7 ca bd df b2 1a 3c f6 16 1d 3e
       0.05123626 -0.09907461 0.00944206 0.1534079
000010 47 73 6a bd 74 3f 32 3e f8 d6 dc bd ef 7b 7d 3e
       -0.057238843 0.17407018 -0.107831895 0.24754308
000020 ac 00 84 bd b7 8a 5a be f7 bd 8d be b2 fc 00 3e
       -0.06445441 -0.21341978 -0.27683994 0.12596396
000030 f7 0f cf bd b2 3b 0f 3e aa 09 13 3e b5 51 ef ba
       -0.10110467 0.13987616 0.14359155 -0.0018258604
000040 0d 6a dd bd e0 01 29 bd 1e 3b 10 be 73 e3 9e be
       -0.10811243 -0.041261554 -0.14085051 -0.31032905
000050 8c 1e a1 bd d5 cd 84 3e 25 4b 30 be 88 11 01 bf
       -0.078671545 0.25938287 -0.17216165 -0.50417376
000060 5d 43 89 3d 4c e5 a4 3c f0 29 ff bc fa 2d 50 be
       0.06702302 0.020128869 -0.031147927 -0.20330039

fc.weight f4 [5, 28]
000000 1b 31 41 be 69 05 81 be e7 47 c0 be 23 cb 05 3f
       -0.18866388 -0.2519944 -0.37554857 0.5226309
000010 29 74 75 3d 6c a2 df bc 63 b7 d5 bd 96 db b5 3e
       0.059925232 -0.027299128 -0.10435369 0.35519093
000020 34 ed 76 3e 1c 56 cc bd 75 cc 0f be e9 e0 3f 3d
       0.24113923 -0.099773616 -0.14042838 0.04684535
000030 49 a5 42 be 7b 90 ca be 2a db 81 be 1f f3 54 be
       -0.19008364 -0.39563355 -0.2536252 -0.20795868
000040 11 2f 96 3c 80 c5 0d 3f 17 5e 71 bd a3 56 cd be
       0.01833299 0.55379486 -0.05892762 -0.4010516
000050 b0 48 00 3d 9f f5 47 bb 95 ea 8b 3d 38 04 ef be
       0.03131932 -0.0030511392 0.06831852 -0.46682906
000060 f6 52 89 be ac a8 dc bd 1a fd 0b be 23 e4 83 bd
       -0.26821107 -0.10774359 -0.1367077 -0.06439998
000070 6e 87 62 bf 06 d1 52 3e 06 df b1 3e 31 66 0c 3f
       -0.884879 0.20587549 0.34740466 0.5484343
000080 0b d3 ff be 87 ec 86 bf 6d 42 0a 3e da 71 5b 3e
       -0.499657 -1.0540932 0.13501902 0.2143015
000090 8a 63 30 bc 6f f6 aa 3e 63 0c 64 be a6 06 04 3f
       -0.010765919 0.3339114 -0.2227035 0.51572645
0000a0 b8 e6 38 bf af b9 e4 3e a6 d9 1e 3d ec df a0 bd
       -0.7222705 0.44672915 0.038781784 -0.0785521
0000b0 09 f9 cd be f7 e0 72 be a4 d3 91 be 5d f4 25 bf
       -0.4022906 -0.2371863 -0.2848178 -0.64825994
0000c0 cd ad 8d 3d 2a 8f 26 be c7 11 51 be b3 ec 71 3e
       0.069179155 -0.1626555 -0.20416938 0.2362545
0000d0 12 c5 ac be 5b 40 e4 be 5a 06 b3 3e a0 f6 a5 bc
       -0.33744103 -0.4458035 0.34965783 -0.020259202
0000e0 6a 2b 8d 3e f4 69 e7 3c 82 73 fa be d3 d8 a7 3e
       0.27572185 0.028248765 -0.4891625 0.3278261
0000f0 31 b3 76 3e 53 7f 8e 3e 0c b7 83 be 6f c0 b3 3e
       0.24091794 0.27831516 -0.2572559 0.35107753
000100 1c 31 96 3e b6 37 63 be 98 dc 55 3d 3f 4c c6 be
       0.29334342 -0.22189221 0.052212328 -0.38730046
000110 7b 13 42 3e 33 53 10 3e b0 c5 af bd 69 bf cc 3d
       0.18952744 0.14094238 -0.08582628 0.09997446
000120 3e 6f 5b 3e fe d9 39 3e f1 6e a5 3b d3 a7 93 3c
       0.21429154 0.18149564 0.0050486256 0.01802436
000130 79 bc 69 bd e4 1e f3 3d aa cf 93 be 1a 2a a3 3e
       -0.057064507 0.11871126 -0.28869373 0.31868058
000140 fb b5 1e bd db 87 09 3f b6 18 79 3d 3d 37 1f be
       -0.03874777 0.53722924 0.06081458 -0.15548415
000150 8c a6 0e 3e 0c 31 55 bd 4d 95 81 be 09 9c b7 be
       0.1393072 -0.052048728 -0.2530922 -0.35861233
000160 00 4f fb 3e d9 c3 ea 3e ee 01 f3 3c 5b 63 24 bf
       0.4908371 0.45852545 0.029664006 -0.64214104
000170 06 0b a2 be 5b f9 00 bc db d2 d9 3c fd d2 ca be
       -0.31649035 -0.007871951 0.026589802 -0.39614096
000180 98 ec 08 3f ba 75 3e be 0b 59 f0 bc d5 06 6a 3b
       0.53486013 -0.18599597 -0.029339334 0.0035709639
000190 4d 28 1f be 88 35 b4 be 42 a6 59 3d c7 91 26 3f
       -0.15542717 -0.3519709 0.05313707 0.6506619
0001a0 e8 79 65 3e 35 da 41 bd 79 30 8c 3e ec 94 5d 3e
       0.22409785 -0.04732724 0.27380732 0.2163884
0001b0 2e 59 c0 3e 61 65 26 be fc 7d 42 3e f1 79 ba 3e
       0.3756804 -0.1624961 0.18993372 0.3642116
0001c0 a5 18 c2 3e 0d 5d 60 3e a9 e1 16 3f ec fc 47 bf
       0.37909427 0.21910496 0.5893808 -0.78120303
0001d0 71 de ca be 2c 27 a6 3e bf 48 2c bd ce 52 a2 be
       -0.39622834 0.3245176 -0.042061564 -0.317038
0001e0 d2 8d 58 3c 61 2a a5 3c 2b ff 98 3e 53 ce bb 3d
       0.013217406 0.02016181 0.29882178 0.091702126
0001f0 af 61 23 3c 27 26 d3 bd 2c ab c5 3c 11 3b 3b 3e
       0.00997202 -0.10310011 0.024129473 0.18284251
000200 81 ea 27 bd 3a 53 2c be 23 1a 1d 3e 61 b2 cc 3e
       -0.040995125 -0.16828623 0.15342002 0.39979842
000210 dc 4b 16 3c 1b a8 08 3e 6c bc f2 bd f7 c4 69 be
       0.00917336 0.13345377 -0.11852345 -0.22829042
000220 51 a3 1c 3f 0b 5d 1b 3d 93 dc 82 be e7 5a 14 3e
       0.611867 0.03793053 -0.2555891 0.14487801

fc.bias f4 [5]
000000 cb 5f 85 3e fe 92 39 3d 36 08 8a bd 97 de 25 be
       0.26049647 0.0453062 -0.06739847 -0.16198193
000010 08 f1 a0 be
       -0.31433892
