models/2.1-recurrent-neural-network-model.pth (torch, 71939 bytes, 4 tensors)

i2h.weight f4 [128, 131]
0	0xbe35ef9a	-0.17767182
1	0x3d3c6125	0.04599108
2	0xbde11047	-0.10989433
3	0x3c4bc694	0.012437481
4	0x3b927873	0.004469925
5	0xbc6591bc	-0.014011797
6	0x3cbb284a	0.02284636
7	0x3da3edbd	0.08004329
8	0xbd97e7d4	-0.074172646
9	0x3d9ba51a	0.0759985
10	0xbb831760	-0.0040005893
11	0xbdbd431d	-0.092413165
12	0x3d336661	0.043798808
13	0xbd6ac100	-0.057312965
14	0xbdac8a32	-0.08424796
15	0xbd6aefae	-0.057357483
16	0xbc8fc96e	-0.017552104
17	0x3d0d50ff	0.034501072
18	0x3ddeeb27	0.108846955
19	0x3de843af	0.113410346
20	0xbc2c3b77	-0.010512224
21	0xbd7fec49	-0.0624812
22	0xbc8ea7ac	-0.017413937
23	0xbdceea68	-0.10103303
24	0x3aeafee0	0.0017928742
25	0x3cc26567	0.023729993
26	0x3c8b12f2	0.016976807
27	0x3d2491ac	0.040177986
28	0xbc235c42	-0.009970726
29	0x3dca1161	0.09866596
30	0xbc11bdb8	-0.00889533
31	0xbbb2ad57	-0.0054527926
32	0xbbe8190e	-0.007083065
33	0x3d661f71	0.05618233
34	0x3d811533	0.063028716
35	0xbd846903	-0.06465342
36	0x3d9b4450	0.07581389
37	0x3d38b8db	0.045098167
38	0xbdb2eb90	-0.08736336
39	0xbc605dcb	-0.013694237
40	0xbc873e24	-0.016509123
41	0xbca3bc2c	-0.019987188
42	0x3dd75386	0.10513978
43	0x3d06cd49	0.03291062
44	0xbdb495eb	-0.08817657
45	0xbd94d207	-0.07266622
46	0xbb988174	-0.004654104
47	0x3ceebd5f	0.029143034
48	0xbd3e4bba	-0.046458937
49	0x3c552f14	0.013011713
50	0xbc4e65a3	-0.012597474
51	0xbdb3ed34	-0.08785477
52	0x3d9e7825	0.077377595
53	0x3bc7f453	0.0061021238
54	0x3dc9808b	0.09838971
55	0xbdbb7338	-0.091528356
56	0x3d1f4edb	0.03889356
57	0xbdc608ef	-0.09669673
58	0xbd4afdb4	-0.049558356
59	0x3d028810	0.03186804
60	0xbd7edede	-0.06222426
61	0x3dd8e252	0.10590042
62	0xbd9396de	-0.0720651
63	0x3dc18e3c	0.09450957
64	0xbc801aac	-0.015637718
65	0xbdbec571	-0.09315003
66	0x3ccc0143	0.024902945
67	0xbdd4114c	-0.103548616
68	0xbd2d0790	-0.04224354
69	0xbda5af8c	-0.080901235
70	0xbd6f61ba	-0.05844281
71	0x3dab7258	0.08371419
72	0x3ce8647e	0.02836823
73	0xbd8db315	-0.06918923
74	0x3cef16a4	0.0291856
75	0xbdc9e248	-0.09857613
76	0xbd8eb35e	-0.06967805
77	0x3d8fc408	0.07019812
78	0x3d034029	0.03204361
79	0x3d076383	0.033053886
80	0xbd24cf25	-0.04023661
81	0xbd0dd8b3	-0.03463049
82	0xbd332bf2	-0.04374308
83	0x3da52c0d	0.08065043
84	0xbd4efc7b	-0.050533753
85	0xbddb3606	-0.107036635
86	0x3cebae5c	0.028769664
87	0xbcb50cdc	-0.022100858
88	0x3d20ac71	0.039226953
89	0x3d4b517c	0.049638256
90	0xbd2c32bb	-0.042040568
91	0x3d9ca671	0.07648934
92	0xbd47e7ce	-0.04880505
93	0xbcc644c9	-0.024202721
94	0x3af14758	0.0018408103
95	0x3d95910a	0.07303055
96	0x3dc8bf51	0.09802116
97	0x3d5a80cd	0.05334549
98	0x3d58b59a	0.052907564
99	0xbcc3aca3	-0.02388603
100	0x3d738fe8	0.05946341
101	0xbc05175a	-0.008123243
102	0xbd554c4c	-0.052074715
103	0x3da34c03	0.079734825
104	0x3c93b7c2	0.018031958
105	0xbd7c0396	-0.061526857
106	0x3bc958d9	0.0061446247
107	0xbd1f02df	-0.038821097
108	0x3d7772fc	0.060412392
109	0xbd94f7e7	-0.07273846
110	0x3d215b9b	0.039394002
111	0x3de253d7	0.110511474
112	0x3d2c402f	0.042053398
113	0xbbc9ee5f	-0.0061624493
114	0x3cbb231e	0.022843894
115	0xbdd65dd1	-0.10467113
116	0x3b5a80f4	0.0033341022
117	0xbd80158d	-0.062541105
118	0x3d91a312	0.07111181
119	0x3d1243b8	0.035709113
120	0x3d0677f9	0.03282926
121	0x3c7afd5e	0.0153191965
122	0xbd2b27cc	-0.041786
123	0xbd4ef80c	-0.050529525
124	0x3da49450	0.08036101
125	0xbd4c7163	-0.04991282
126	0xbd58ed20	-0.052960515
127	0x3d24fe28	0.040281445
128	0x3b5d33dc	0.0033752834
129	0xbd0c7d32	-0.034299083
130	0xbd3b07fe	-0.04566192
131	0xbe544859	-0.20730723
132	0x3d5a47c0	0.053291082
133	0xb951f4d5	-0.00020023
134	0xbd7efb54	-0.062251404
135	0xbe0d54eb	-0.13801925
136	0x3d8882bb	0.0666556
137	0x3ca4c295	0.020112315
138	0x3c7bb495	0.015362878
139	0x3da73a09	0.08165366
140	0xbd892a22	-0.06697489
141	0x3d701d3e	0.058621638
142	0x3d111259	0.03541789
143	0x3ca61a6d	0.020276273
144	0x3d823ad1	0.063588746
145	0xbd45869f	-0.048224088
146	0xbd84fac0	-0.06493139
147	0x3d703c21	0.058651093
148	0xbcb4c6fd	-0.022067541
149	0x3ccd3132	0.025047872
150	0x3d4ed731	0.05049819
151	0x3be9cbfb	0.007134912
152	0xbde4e2d5	-0.11176077
153	0x3ce68cc1	0.028143289
154	0xbd19d301	-0.037554745
155	0x3d4e564c	0.050375268
156	0x3ca412c7	0.020028485
157	0x3b45e2fc	0.0030195108
158	0x3d9dcf46	0.0770555
159	0x3d1f9014	0.038955763
160	0xbd0a1a29	-0.033716355
161	0xbb349564	-0.0027554864
162	0xbce8b075	-0.028404454
163	0xbbf44699	-0.007454705
164	0xbc3a1838	-0.011358313
165	0x3c673dbc	0.01411384
166	0xbd17e2f6	-0.03708168
167	0xbcd8c2be	-0.026460048
168	0x3da6ad5c	0.081385344
169	0xbc8454b5	-0.016153673
170	0x3d07af08	0.033125907
171	0xbdafdc90	-0.08586991
172	0x3c117ca8	0.008879818
173	0x3dda8b59	0.1067111
174	0x3d1a329f	0.037645932
175	0xbce0a9eb	-0.027424773
176	0xbcb19d78	-0.021681532
177	0x3dd9e378	0.10639089
178	0x3d0b3bef	0.033992704
179	0x3cd31296	0.025765698
180	0xbdb5edb9	-0.088832326
181	0xbd1a75a8	-0.037709862
182	0x3d981838	0.07426494
183	0xbd48881b	-0.048957925
184	0xbda28a38	-0.079365194
185	0xbc9ef7d2	-0.01940528
186	0x3c8a74d1	0.016901406
187	0xbcd4174c	-0.025890015
188	0x3d7308ee	0.059334688
189	0x3da7aa80	0.08186817
190	0xbd9549db	-0.072894774
191	0x3ca2e968	0.019886687
192	0x3dc99b7a	0.09844108
193	0xbc069105	-0.008213286
194	0x3dbb8fb0	0.091582656
195	0xbd1ce4a0	-0.03830397
196	0xbda133e7	-0.07871228
197	0xbd83fdc5	-0.06444887
198	0xbdde0954	-0.10841623
199	0x3cfb0368	0.030641273
200	0xbdeb6a5d	-0.114948966
201	0xbddf914b	-0.10916384
202	0x3db681e8	0.089114964
203	0x3d2fea76	0.04294821
204	0xbd84bc14	-0.064811856
205	0x3bd149a2	0.0063869515
206	0xbd19fe71	-0.03759617
207	0xbccb8e2a	-0.024848063
208	0xbcdc5385	-0.026895294
209	0xbd6c8b72	-0.057750173
210	0xbdc1a06c	-0.09454426
211	0xbd5f09b2	-0.054452606
212	0x3d3f24da	0.046666004
213	0x3cd4cc80	0.02597642
214	0xbbda6f50	-0.0066661015
215	0x3dcb1d38	0.099176824
216	0xbdc35530	-0.095377326
217	0x3c135f57	0.008994899
218	0x3d8ad222	0.06778361
219	0xbd83ace6	-0.06429462
220	0xbcb8e23f	-0.02256882
221	0xbd35967a	-0.04433296
222	0x3baa74e2	0.005201922
223	0xbd88bbc4	-0.066764385
224	0x3db1cb2a	0.086813286
225	0x3c97d68f	0.018534927
226	0xbc883cb9	-0.016630517
227	0x3d165f8f	0.036712226
228	0x3ce5a46b	0.028032502
229	0x3dc5b524	0.096536905
230	0xbd3f3da8	-0.04668966
231	0xbd010ce6	-0.03150644
232	0x3cb74eaa	0.022376377
233	0x3c97bdda	0.018523145
234	0x3daf3c91	0.08556474
235	0xbd188f26	-0.037245892
236	0xbcbe38ac	-0.023220383
237	0x3d4b5a15	0.049646456
238	0x3cf51af2	0.029920075
239	0x3bfdeafa	0.0077489587
240	0x3d36e557	0.04465231
241	0x3ce2ca73	0.027684426
242	0x3c316d58	0.010829292
243	0xbddb29fc	-0.10701367
244	0x3c88b55f	0.016688047
245	0xbbb4ea68	-0.0055211075
246	0xbe129b56	-0.14317068
247	0x3d0ea16b	0.03482191
248	0x3d1f071b	0.038825136
249	0x3ca7f153	0.020500815
250	0xbc942787	-0.018085254
251	0x3a97bda8	0.0011576908
252	0xbd1934a2	-0.03740371
253	0x3cdf2290	0.02723816
254	0x3c0305d7	0.007996998
255	0x3d3d4db6	0.04621669

i2h.bias f4 [128]
0	0x3d84016f	0.06445586
1	0xbcc460e8	-0.02397199
2	0x3d932885	0.07185463
3	0x3c6cf0bb	0.0144616915
4	0x3a0dfdd6	0.00054165476
5	0x3d898d7a	0.06716438
6	0xbcaae456	-0.020860832
7	0xb9fb15d4	-0.00047890714
8	0xbd6111b0	-0.05494851
9	0xbd560ccd	-0.0522583
10	0xbdbb1023	-0.09133937
11	0xbdd48f66	-0.103789136
12	0xbd64cee6	-0.055861376
13	0x3a32f241	0.000682626
14	0x3ceabb77	0.028653843
15	0xbd196710	-0.037451804
16	0xbdce9878	-0.10087675
17	0x3d9a5831	0.075363524
18	0xbde66b8b	-0.11250981
19	0xbd18ec41	-0.037334684
20	0x3d030f36	0.03199693
21	0xbc9701b9	-0.018433439
22	0x3da3ec26	0.08004026
23	0x3d29a67b	0.041418534
24	0xbc9ae781	-0.018909218
25	0x3b884249	0.0041582924
26	0x3cf8220d	0.030289674
27	0x3d26b3e7	0.040698912
28	0xbc95e926	-0.01829965
29	0x3d49ea36	0.049295627
30	0xbd8c413f	-0.06848382
31	0xbda2d798	-0.079512775
32	0x3d369718	0.044577688
33	0xbd6de7f3	-0.058082532
34	0x3bd490c8	0.006486986
35	0xbdc475ff	-0.095928185
36	0x3d8a4e14	0.067531735
37	0x3d67ddc9	0.056607995
38	0x3dd0831d	0.10181258
39	0xbd5c278d	-0.053748656
40	0x3d2787e1	0.04090107
41	0xbdca58a2	-0.098801866
42	0xbd452327	-0.048129227
43	0x3c85677b	0.016284695
44	0x3d8fc76c	0.070204586
45	0x3d3de712	0.046362944
46	0x3c9c04fe	0.01904535
47	0x3d4a2d53	0.04935963
48	0xbe0aff48	-0.13573945
49	0xbd8665c9	-0.06562383
50	0x3dd0cfc0	0.10195875
51	0xbda27076	-0.079316065
52	0xbda24c9a	-0.07924767
53	0x3d983a48	0.07432991
54	0x3c6ea7f9	0.014566415
55	0x3d329ad4	0.043604687
56	0x3bc95845	0.0061445558
57	0x3c512102	0.012764217
58	0x3b3fadc5	0.0029247862
59	0x3d9859f2	0.07439031
60	0x3d2c0cd4	0.04200442
61	0x3cc9e192	0.024643693
62	0x3cf90414	0.030397452
63	0xbb2272c5	-0.0024787646
64	0x3d1feead	0.03904598
65	0xbc1f0dc4	-0.009707872
66	0x3a8a8d15	0.001057061
67	0xbb9e8f76	-0.004838879
68	0xbbf6b11a	-0.0075284364
69	0xbcd8332b	-0.026391586
70	0x3d613f5a	0.054992057
71	0x3cb8c8d4	0.0225567
72	0x3d076506	0.033055328
73	0xbd83d87e	-0.06437777
74	0xbd7971f9	-0.06089971
75	0xbdf36e39	-0.11886258
76	0xbc034513	-0.008012074
77	0xbd7d0c6b	-0.06177942
78	0xbd4062d9	-0.04696927
79	0xbd4cb64d	-0.049978543
80	0xbd0be0d9	-0.03414998
81	0xbda6aa77	-0.08137982
82	0xbd56f7d7	-0.052482452
83	0xbd61f770	-0.055167615
84	0xbd72d856	-0.059288345
85	0x3db106a5	0.086438455
86	0x3a906876	0.001101746
87	0xbd15a52b	-0.03653447
88	0x3c0015b0	0.007817671
89	0xbd76dc1f	-0.060268518
90	0x3be1e182	0.0068933377
91	0xbd936323	-0.07196643
92	0xbcfebb5a	-0.031095196
93	0xbd82ac75	-0.0638055
94	0xbd420993	-0.047372412
95	0x3dc24c5a	0.09487219
96	0x3cbd89bf	0.023136972
97	0x3d0e2ed9	0.034712646
98	0x3cff30d9	0.031151222
99	0x3d910dd9	0.07082719
100	0xbdededb4	-0.11617604
101	0xbd69bdf9	-0.057065938
102	0xbd9e458f	-0.07728111
103	0xbc8777d5	-0.016536633
104	0xbd283e9c	-0.041075334
105	0x3c9ea331	0.019364925
106	0xbdb25fd2	-0.087096825
107	0xbd99212e	-0.07477032
108	0xbc9c3010	-0.019065887
109	0xbd24c73e	-0.040229075
110	0x3d948d42	0.07253505
111	0xbd8422ee	-0.06451975
112	0xbcb2e6cc	-0.021838568
113	0xbd3691d0	-0.04457265
114	0x3d5dc030	0.054138362
115	0x3d3a075e	0.045417182
116	0x3d448893	0.04798181
117	0x3d5d6010	0.05404669
118	0xbcf4d165	-0.029885003
119	0xbd122f63	-0.035689723
120	0xbd97e682	-0.07417013
121	0x3c71532d	0.014729303
122	0xbd209624	-0.039205685
123	0xbc6bf433	-0.014401483
124	0xbda65ed2	-0.08123554
125	0x3dbb102c	0.09133944
126	0x3c9daced	0.019247497
127	0xbcd924dc	-0.026506834

i2o.weight f4 [5, 131]
0	0x3cf133fc	0.029443733
1	0x3e8212e3	0.25405034
2	0x3eb8713a	0.36023885
3	0x3c037579	0.008023613
4	0xbd22d6fb	-0.039755803
5	0x3caca07c	0.021072619
6	0x3db23e02	0.08703233
7	0x3dafd27b	0.08585068
8	0x3dcb4d1a	0.09926815
9	0xbbb49d70	-0.005511932
10	0xbda4b2bf	-0.080419056
11	0xbd22b87e	-0.039726727
12	0xbdad7a9f	-0.08470654
13	0x3d25a3b1	0.04043931
14	0xbc454b04	-0.012041811
15	0x3d06f67a	0.032949902
16	0x3db41153	0.08792367
17	0xbd3ee33c	-0.046603426
18	0xbd9e94af	-0.07743203
19	0x3d0a4564	0.033757582
20	0x3d316a50	0.043314278
21	0xbd062395	-0.032748777
22	0xbdb65322	-0.08902575
23	0xbdb2b6a4	-0.08726242
24	0xbdb40d50	-0.08791602
25	0x3b83a3c3	0.0040173247
26	0xbcdf2500	-0.027239323
27	0xbd1ee356	-0.038791023
28	0xbdc21f0e	-0.094785795
29	0xbd122416	-0.035678945
30	0xbbe63bc9	-0.00702617
31	0x3c3c1cd6	0.011481484
32	0x3cffe15b	0.031235388
33	0xbc8cde7a	-0.017195929
34	0xbd81c2e5	-0.06336001
35	0x3dc9e866	0.098587796
36	0x3d5dfc17	0.05419549
37	0xbda88a24	-0.08229473
38	0xbc8c44ee	-0.017122712
39	0xbd748462	-0.059696563
40	0x3c24f6e0	0.010068625
41	0x3dd85a7a	0.10564132
42	0x3d17df8d	0.03707843
43	0x3d065fb7	0.032806125
44	0x3d3f9ff0	0.046783388
45	0xbcfe71a0	-0.03106004
46	0xbde46727	-0.11152487
47	0xbd2b065a	-0.041754104
48	0x3cc4679f	0.023975192
49	0x3cf802a6	0.0302747
50	0x3c93f7e8	0.018062547
51	0xbdd1afc1	-0.102386005
52	0x3d3d90cd	0.04628067
53	0x3cfef725	0.031123707
54	0xbe0786d8	-0.13235033
55	0xbc3f0086	-0.01165784
56	0x3deb4b95	0.114890255
57	0xbcabcf51	-0.02097288
58	0x3d8938cc	0.06700286
59	0x3d4ecc52	0.050487824
60	0x3cfc68a8	0.030811623
61	0x3c9270e6	0.0178761
62	0xbd273694	-0.040823534
63	0x3cfdbcc7	0.030973805
64	0x3cb2cde6	0.021826696
65	0x3dc233cc	0.09482536
66	0x3c4537e6	0.012037253
67	0xbcc2a77a	-0.0237615
68	0x3d5c19f9	0.053735707
69	0xbd96530e	-0.0734006
70	0x3cb913ef	0.022592513
71	0xbcd5dbc1	-0.026105763
72	0xbd45ca73	-0.048288774
73	0xbb1e29a2	-0.0024133702
74	0xbd29ad6e	-0.04142516
75	0xbd2c9191	-0.04213101
76	0x3d1d404b	0.038391393
77	0x3c97b3b9	0.018518316
78	0xbd2ccac9	-0.04218558
79	0xbd765d4d	-0.060147572
80	0x3c3d7766	0.011564111
81	0xbd4f4c70	-0.050610006
82	0x3c9bf3f7	0.01903723
83	0x3d0278de	0.03185355
84	0xbc8e83b5	-0.017396787
85	0x3d0510d5	0.032486755
86	0xbd81447a	-0.06311889
87	0xbd95ae25	-0.07308606
88	0x3d7db595	0.06194075
89	0x3d998e63	0.07497861
90	0x3cceeef5	0.025260428
91	0xbd107de6	-0.035276316
92	0x3d83159c	0.06400606
93	0xbd41eea0	-0.04734671
94	0x3d7f9a15	0.062402803
95	0x3cb1d593	0.021708285
96	0x3d3a26eb	0.04544727
97	0x3d2f096e	0.042733602
98	0x3dbf9d98	0.093562305
99	0x3db811bb	0.08987757
100	0x3d159f4d	0.036528874
101	0xbd66fc5c	-0.056393012
102	0x3db2f194	0.087374836
103	0x3dee3524	0.116312295
104	0xbdd0fe0c	-0.102047056
105	0xbcff156b	-0.031138143
106	0xbb5e1a96	-0.0033890358
107	0x3cdcbc8d	0.026945377
108	0xbd8bff94	-0.06835857
109	0xbdc528f9	-0.096269555
110	0x3d076e0b	0.03306393
111	0x3dc823c8	0.0977245
112	0x3d03b00a	0.032150306
113	0x3c16b77f	0.009199022
114	0x3cf0459f	0.029330073
115	0x3d4c4775	0.049872834
116	0xbda4e9d5	-0.080524124
117	0x3da01755	0.0781695
118	0x3d3b27e1	0.04569233
119	0x38f29823	0.00011567797
120	0x3d53ec22	0.051738866
121	0xbdb6b7ec	-0.08921799
122	0x3c94c755	0.018161455
123	0x3da54ed7	0.08071678
124	0xbc5d9090	-0.013523236
125	0x3c7b835f	0.0153511455
126	0x3c5bca51	0.013414935
127	0xbd42d54e	-0.047566704
128	0xbc74d48e	-0.014943255
129	0x3d65e0d3	0.056122612
130	0xbdc83d58	-0.097773254
131	0x3ef4e765	0.4783279
132	0xbcc9632b	-0.02458342
133	0x3ddd0524	0.10791996
134	0xbda1f70a	-0.07908447
135	0xbe55bb02	-0.20872119
136	0xbd84b9fc	-0.06480786
137	0xbde0bd6d	-0.1097363
138	0xbdb91716	-0.090376064
139	0x3db29a2e	0.08720814
140	0x3cfa2231	0.030533882
141	0xbe22758a	-0.1586515
142	0xbdd34e87	-0.10317712
143	0xbe9aff91	-0.30273107
144	0xbdedfff9	-0.116210885
145	0x3df403b9	0.119147725
146	0x3d00efdc	0.031478748
147	0x3ddb3709	0.107038565
148	0xbe1f9d5e	-0.15587375
149	0x3e04762a	0.12935701
150	0x3e88f58d	0.2674984
151	0xbe6b8343	-0.22999291
152	0xbcff68c1	-0.03117788
153	0x3d3ffa95	0.046869833
154	0xbc8a00a0	-0.016846001
155	0xbd73716b	-0.059434336
156	0x3d473887	0.048637893
157	0x3c236de9	0.009974935
158	0xbc254ca3	-0.010089072
159	0xbd9972e6	-0.07492618
160	0x3c8f2f61	0.017478647
161	0xbe044dc2	-0.12920287
162	0x3d180c0a	0.037120856
163	0xbe10ad47	-0.141286
164	0x3e42fc26	0.190415
165	0xbc87ffa0	-0.016601384
166	0x3e06e6c3	0.13173966
167	0x3e051826	0.12997493
168	0x3e7eb616	0.24874148
169	0xbb9edfdd	-0.004848464
170	0x3e78ee63	0.24309687
171	0x3b4de357	0.0031416023
172	0xbc1d09f9	-0.009584897
173	0xbd13cec3	-0.036085855
174	0xbe436ebb	-0.19085209
175	0x3d92bc2b	0.071647964
176	0xbe0e2ed8	-0.13885057
177	0x3e12128e	0.1426489
178	0xbde55592	-0.11197962
179	0xbc4c06e8	-0.012452818
180	0xbde1f0a5	-0.110322274
181	0x3e7838c0	0.24240398
182	0x3e47f4c4	0.19526964
183	0x3dab67d3	0.08369412
184	0xbdb2ee3d	-0.087368466
185	0xbd53e500	-0.051732063
186	0xbe4f1dd1	-0.20226218
187	0x3dbf4c63	0.093407415
188	0x3dbf1433	0.093300246
189	0x3df5d9eb	0.12004455
190	0xbdb36ff6	-0.08761589
191	0xbde13227	-0.10995894
192	0x3e1d31ff	0.15351103
193	0x3dae2cb7	0.085046224
194	0x3ca6e31d	0.020371968
195	0x3d5a7d08	0.053341895
196	0xbe235edf	-0.15954159
197	0x3d39f4f0	0.045399606
198	0xbcdc71d8	-0.026909754
199	0xbe160360	-0.14649725
200	0xbe276544	-0.16347224
201	0xbe57b30f	-0.21064399
202	0xbdad7d95	-0.084712185
203	0xbc4b8fc7	-0.012424416
204	0x3e1cce4a	0.15313068
205	0x3e1da945	0.15396602
206	0x3e0ffeec	0.14062089
207	0xbdb323c7	-0.08747058
208	0x3d3645d5	0.04450019
209	0xba5da2a8	-0.00084547186
210	0x3d1d9273	0.038469743
211	0xbcd595cb	-0.026072403
212	0x3e403f10	0.18774056
213	0xbc80152e	-0.0156351
214	0x3da171ef	0.07883059
215	0xbd345759	-0.044028614
216	0x3da297c5	0.07939104
217	0xbdf4d8b4	-0.11955395
218	0x3cc93ab1	0.024564119
219	0xbd96009a	-0.073243335
220	0xbe1e46cf	-0.15456699
221	0xbe04ebc7	-0.12980567
222	0x3e1330e1	0.14374115
223	0xbe0d6627	-0.138085
224	0xbe22a09e	-0.15881583
225	0x3cacc657	0.02109067
226	0x3e09a39b	0.13441317
227	0x3e01a5be	0.12660882
228	0xbd9e4b25	-0.077291764
229	0x3d85b4fc	0.06528661
230	0xbe029178	-0.12750804
231	0xbd7203bc	-0.059085593
232	0x3c3168b8	0.01082819
233	0x3d9cc8ca	0.07655485
234	0x3dc15607	0.094402365
235	0xbd38f732	-0.04515762
236	0x3d03d185	0.032182235
237	0xbd067c6b	-0.032833498
238	0x3e05f457	0.1308149
239	0xbde3c0d5	-0.11120764
240	0xbde36fcd	-0.11105309
241	0x3d5cb98e	0.053887896
242	0x3e04834c	0.12940711
243	0xbd11a8f5	-0.03556152
244	0xbdcd3c5b	-0.100212775
245	0xbdec6cd1	-0.115441926
246	0xbe41a145	-0.18909176
247	0x3d6fc3c0	0.05853629
248	0x3c89a62b	0.016802868
249	0xbe627fca	-0.2211906
250	0x3dfa24a9	0.122140236
251	0x3e0f5a64	0.13999325
252	0xbc914ce8	-0.017736867
253	0xbe25d74b	-0.16195409
254	0xbe09e3b6	-0.13465771
255	0xbce16ee3	-0.027518695

i2o.bias f4 [5]
0	0x3eb6a878	0.35675406
1	0xbd420f01	-0.04737759
2	0x3e0e1188	0.13873875
3	0xbddfcfa0	-0.10928273
4	0xbe6c258d	-0.230612
