models/2.2.1-lstm-network-model-test-4x1.pth (torch, 2442 bytes, 6 tensors)

lstm.weight_ih_l0 f4 [16, 3]
0	0x3ecafbd4	0.39645255
1	0xbf74ab72	-0.95574105
2	0x3e8fdacc	0.28096616
3	0x3e48a9a0	0.19595957
4	0x3ef08644	0.46977437
5	0x3d472297	0.04861697
6	0x3f6b56b6	0.91929185
7	0xbe7a6615	-0.24453004
8	0xbebf57be	-0.3737163
9	0xbec5f392	-0.38662392
10	0x3f0bc634	0.5459931
11	0x3ede97fb	0.43475327
12	0x3e280841	0.16409399
13	0xbf42d73f	-0.7610969
14	0xbf8c7165	-1.0972105
15	0x3c4ef1f0	0.012630925
16	0xbee909dc	-0.45515335
17	0xbfd0ae66	-1.6303222
18	0x3f03822a	0.5137049
19	0x3e9edb08	0.31026483
20	0x3cb5372b	0.022121033
21	0xbf2b207b	-0.66846436
22	0x3f1cfec2	0.6132623
23	0x3eb6a177	0.35670063
24	0x40451b57	3.0797937
25	0x3f6e4d68	0.9308686
26	0x3f22a04a	0.6352583
27	0x3f4539c5	0.77041274
28	0x40304667	2.754297
29	0x3eedcf17	0.4644706
30	0x3f787fc9	0.97069985
31	0x3d6a30a0	0.05717528
32	0xbf73572f	-0.95054907
33	0xc0272ad8	-2.61199
34	0x3ed130b3	0.40857467
35	0x3fe89e26	1.8173263
36	0x3ef48cf0	0.47763777
37	0xbe171139	-0.14752664
38	0xbf838e83	-1.0277866
39	0x3ea03893	0.31293163
40	0xbef8f692	-0.48625618
41	0xbf7ff8ef	-0.9998922
42	0x3e82c802	0.2554322
43	0xbf0b444a	-0.54401076
44	0xbef7bedb	-0.483878
45	0x3f149fae	0.5805615
46	0x3f2af1be	0.6677512
47	0xbf133e4b	-0.57516927

lstm.weight_hh_l0 f4 [16, 4]
0	0x3dd1d1de	0.10245107
1	0xbdb57bbc	-0.08861491
2	0xbecf7437	-0.40518352
3	0xbe691140	-0.22760487
4	0x3d566947	0.052346494
5	0xbe475df6	-0.19469437
6	0x3c015fdc	0.00789639
7	0xbe3d4a1d	-0.18485303
8	0xbd370c32	-0.044689365
9	0x3f6a99d8	0.91640997
10	0x3eb34fb6	0.35021752
11	0x3e0ab243	0.13544564
12	0x3e8f8dd1	0.28037885
13	0x3f1dce30	0.6164274
14	0x3eda237d	0.426052
15	0xbf4321d4	-0.7622349
16	0x3f5aeddc	0.85519195
17	0x3e441052	0.1914685
18	0xbbde56a7	-0.006785232
19	0xbf3d2743	-0.73888034
20	0xbd328bbc	-0.043590292
21	0xbdb989f0	-0.090595126
22	0xbe7783ae	-0.24171326
23	0xbf67db96	-0.90569437
24	0x3e96e850	0.29474115
25	0x3f18aca0	0.59638405
26	0xbde2476a	-0.110487774
27	0x3eec07e8	0.46099782
28	0xbf73be18	-0.95211935
29	0x3e7af3cb	0.24507062
30	0xbdbe1d1c	-0.09282896
31	0x3f503731	0.81334215
32	0xbe4e89a4	-0.20169693
33	0x3eb3e39f	0.351346
34	0xbecdc302	-0.40187842
35	0xbe807b68	-0.25094151
36	0x3f2de55b	0.67928094
37	0x3f6e3c2d	0.9306057
38	0x3e6447d6	0.22293028
39	0xbf3b58e6	-0.73182523
40	0x3f7e5c5b	0.99359673
41	0xbf967a78	-1.1756124
42	0x3f25e670	0.64804745
43	0xbe582eb6	-0.21111569
44	0x3de8f8d5	0.11375586
45	0x3f3fd77f	0.74938196
46	0xbf17f878	-0.5936351
47	0x3f64f393	0.89434165
48	0x3e3d94f4	0.18513852
49	0x3f0dc6f3	0.553817
50	0x3eb0b5f2	0.34513813
51	0x3ed78099	0.420903
52	0xbf90dc43	-1.1317219
53	0x3e7faaa8	0.24967444
54	0xbea5e4c3	-0.32401094
55	0x3deea75b	0.11653014
56	0x3f695319	0.9114242
57	0x3e986323	0.29763135
58	0xbe7f7915	-0.24948533
59	0xbcacaa18	-0.0210772
60	0xbf70bfa5	-0.94042426
61	0xbddc437d	-0.1075506
62	0xbe2b3584	-0.16719633
63	0x3e959b15	0.2921988

lstm.bias_ih_l0 f4 [16]
0	0x3f033160	0.51247215
1	0x3f3940ca	0.72364485
2	0x3c161024	0.009159122
3	0xbd837f80	-0.06420803
4	0x3f2da41d	0.6782854
5	0xbe619687	-0.22030078
6	0x3f77ee7b	0.9684827
7	0x3f83300b	1.0249037
8	0x3e661eca	0.22472683
9	0x3f158b90	0.5841608
10	0xbdaaeeef	-0.08346354
11	0xbf09bb4d	-0.53801423
12	0x3f541e68	0.82858896
13	0x3ecd24b6	0.4006707
14	0x3fa1cd56	1.2640789
15	0x3f007742	0.50181973

lstm.bias_hh_l0 f4 [16]
0	0x3dc70082	0.09716894
1	0x3e310dda	0.1729044
2	0x3e269bfc	0.16270441
3	0xbe598cbf	-0.21245097
4	0x3f9559da	1.1668046
5	0x3d490b27	0.0490829
6	0x3f8015e7	1.0006684
7	0x3f68330a	0.9070288
8	0xbf0e7c1c	-0.55658126
9	0x3f1bb57d	0.60823804
10	0xbe079e8d	-0.13244076
11	0xbe815d75	-0.25266615
12	0x3f97b3ec	1.1851783
13	0x3ef011b8	0.46888518
14	0x3f15a28b	0.58451146
15	0x3f3b1b5b	0.73088616

fc.weight f4 [5, 4]
0	0x3ff1bb98	1.8885374
1	0x3f140f9a	0.57836306
2	0xbfe4dd0a	-1.7879956
3	0xbcd99ecc	-0.026564978
4	0x406a7fbb	3.664046
5	0x3e684908	0.22684109
6	0x40380f92	2.8759503
7	0xbf116c96	-0.56806314
8	0xbfa490c0	-1.2856674
9	0x3fff73cf	1.9957217
10	0xbea7ae74	-0.32750285
11	0xbe293d03	-0.1652718
12	0xc01f1606	-2.4857192
13	0xbfa40e2d	-1.2816826
14	0x3f78a43a	0.9712559
15	0xbfca8690	-1.5822315
16	0xbfa66869	-1.3000613
17	0xbff7ad8b	-1.9349836
18	0xbf926941	-1.1438371
19	0x4008616e	2.1309466

fc.bias f4 [5]
0	0x3f92412a	1.1426136
1	0xbe887100	-0.26648712
2	0xbdd78eb4	-0.10525265
3	0x3ca1705e	0.019706901
4	0xbf08f3f4	-0.5349724
