models/2.2.1-lstm-network-model-test-128x1.pth (torch, 276746 bytes, 6 tensors)

lstm.weight_ih_l0 f4 [512, 3]
00000000: 9af0 97bd ca84 84bd 52b2 1a3d 9c47 04bd
00000010: d203 a6ba 8d77 c0bd 81f4 783d 2112 803d
00000020: bed3 a5bc c5a7 333d 4a68 4bbd 6e2d 5c3d
00000030: b10f 87bd 6328 43bd d7f9 fdbd 9569 c93b
00000040: ab5e f8bc 57f3 b5bd cc48 be39 b183 ce3d
00000050: 0b73 673d 8357 bf3d fb0d c1bd 4114 afbd
00000060: 01bf 0d3e dc84 03be 6ab0 84bd 474c aabb
00000070: a27d 92bc 0d62 b0bc fdc5 e43c b878 13be
00000080: 34d4 b53b 801b f4b9 72e3 113c 7ef7 ecbc
00000090: e63b 4d3d 7d5e 57bc 0552 a2bd bbde e13d
000000a0: cece 9b3d c01f e03a 9030 793d be4c 633d
000000b0: 4147 a5bc b307 a4bd a5ce e3bd 1fe1 c1bd
000000c0: 9849 16bc 9a39 2a3b 63e9 26ba 693b b93d
000000d0: 403f 96bd f952 a7bc 2ba6 b83b ead6 a7bd
000000e0: f74b 94bd d16d 0e3b 4034 0e39 73c3 40bd
000000f0: 17b5 82bc 911d a1bd cdc5 3ebd 8ef6 443e
00000100: 36b9 d23d 3b76 3fbe 7007 b7bc fc44 b0bd
00000110: 4062 28be 76e7 a83d 8ee9 013d 1c3b f3bc
00000120: 88c0 bbbd 8b30 1c3d 0c64 953d c733 d9bd
00000130: 0bbf 123b 6088 2ebd 58ca 5e3d 56b1 82bd
00000140: 747b acbb 95ed a4bd 3b2f 393d 9d89 5fbd
00000150: 2e06 883d 1536 183d b5fe dcbd c097 143d
00000160: 745e a83d 21a6 4e3b cdab b13c 4064 843d
00000170: 7e11 383d e151 bebc 0e5f 7bbd 776d 253d
00000180: 3c66 ca37 6682 a1bd f8cb f53c 8586 3a3c
00000190: 9b88 25bc 853f a4bd fe00 3e3c 8f00 8cbd
000001a0: 2006 4d3b 4384 dabc 4c34 b13d bbf0 393d
000001b0: a92b d43d a520 b1bd 6826 0f3d c734 883d
000001c0: 4ad9 943d de37 7d3d 4665 d7bc 0598 03bc
000001d0: 96fa 88bd ffbb cd3d dfe4 653d 00df 17be
000001e0: fd07 1d3e a8c8 a23b 9299 17be eb23 a5bd
000001f0: be56 863d a36e ffbc c0b6 333d fbc5 5abd
00000200: 1581 b4bd d94e 503d 7dff 39bb b0fe 293d
00000210: 20b3 683c ed93 883d 0f03 12bd b564 f33b
00000220: c69c 9abc 59a5 07bd 067f 5bbd 94f5 2d3d
00000230: e902 9bba e75f 1cbd 6294 20bd 4c11 45bd
00000240: 92a6 b83d 1dd8 cebc 57ef e6bd 863b 88bd
00000250: a2b4 d0bd 7b12 68bd 22dd 06bd 2024 94bd
00000260: c3b3 65bd 8b3f 783c d92f aa39 7cdc 24be
00000270: e8e6 a8bd 88aa 983c 25a8 693d bfc7 4cbd
00000280: d628 3b3d b4f8 94bd db84 d3bb 29c6 a33d
00000290: 9e31 71bd c46f 31bc dd2d 923d c9a2 723d
000002a0: 781d 8d3d cd36 6cbd bbcd b1bd aba4 973d
000002b0: 2776 bdbc c5da 37bc 3855 b83d 098d 67bd
000002c0: f8dd 12be 98e7 063e 949f 983d 4235 febd
000002d0: 51b0 78bd fdd3 693c 9441 cf3d 81e4 6a3d
000002e0: b54a 8fbd ac05 16be 8b9c dfbc 7e1c c9bb
000002f0: cb90 4d3a 941b 3c3d a6a6 4fbd 67dd 69bd
00000300: 7f72 b63d 37de 95bd 2363 383d b052 5fbc
00000310: 148e 1dbd fc31 513d ed97 3e3d 9a41 26be
00000320: ae9a 33be ef76 ccbb 1526 f0bb ee7a 4c3d
00000330: b781 03bd 11d9 343d 7d8e 81bd 9cf9 9abd
00000340: 7ca5 e43b f708 0abd b3f4 1e3d 506d a33d
00000350: 5ec5 34bd c612 bf3d 63ea 2bbc f124 38bd
00000360: bb7f 3fbd f28a a63d e084 b6bd 05d8 393b
00000370: 9d92 c03c 599e acbd 3cdf 6e3c 37d1 98bd
00000380: 2711 8e3d a914 9f3d c1d2 dabc f0e1 07be
00000390: 863c 643d 439a bf3c 7a0e ce3b f353 9d3d
000003a0: 4322 11bd af2b 4ebd 0d06 2fbd 4c68 03bd
000003b0: 0486 7cbd 943a ba3d 7c5e 613d f776 e1bd
000003c0: 7faa ac3d a89a 3a3d c002 59bd a481 04bd
000003d0: 4767 ac3d e9a6 ccbd 4e57 4a3a d349 44bc
000003e0: f182 2d3d 8c06 77bc 25a2 883d 3857 67bd
000003f0: aed5 eabc fce4 c63b dca4 4e3d bef0 da3d
-0.07418938 -0.0647064 0.037767716 -0.032294855 -0.0012665933 -0.093978025 0.060780052 0.06253458
-0.020242568 0.04386117 -0.049660005 0.053754263 -0.0659479 -0.047645938 -0.12401169 0.0061466196
-0.030318579 -0.08884304 0.00036293862 0.10083712 0.056506198 0.093428634 -0.09426495 -0.08548785
0.13842393 -0.1284365 -0.06478961 -0.0051970812 -0.017882172 -0.02153113 0.02792644 -0.1440152
0.005548978 -0.00046559796 0.008904325 -0.028926607 0.05010595 -0.013145086 -0.079258 0.110288106
0.07607804 0.0017099306 0.06083733 0.05549311 -0.020175578 -0.08009281 -0.11123399 -0.094667666
-0.00917282 0.0025974275 -0.0006367175 0.09044535 -0.07336283 -0.020425307 0.005635043 -0.081952885
-0.07241052 0.0021732936 0.0001356164 -0.047061395 -0.015955491 -0.078669675 -0.046575356 0.19234678
0.102892324 -0.18697445 -0.022342414 -0.08606908 -0.1644373 0.08247273 0.031716876 -0.029691271
-0.09167582 0.03813223 0.07294473 -0.10605579 0.0022391703 -0.042610526 0.05439219 -0.063814804
-0.00526374 -0.08053128 0.045211058 -0.054574598 0.06641804 0.03716095 -0.10790769 0.036277533
0.082211405 0.0031532126 0.021688366 0.06464434 0.044938557 -0.023232402 -0.061369948 0.040387597
2.4127883e-05 -0.078862 0.030004486 0.011384611 -0.01010337 -0.08019928 0.011596916 -0.06836044
0.0031284168 -0.026674395 0.08652553 0.045395594 0.1035989 -0.086488046 0.034948736 0.066506915
0.07268007 0.061820857 -0.026293408 -0.00803185 -0.066884205 0.10045623 0.05612647 -0.14831161
0.15335079 0.0049677677 -0.14804676 -0.080634914 0.065595135 -0.031180685 0.043875456 -0.053411465
-0.08813683 0.050856445 -0.0028381043 0.041502655 0.014202863 0.066688396 -0.03564745 0.0074277767
-0.018873584 -0.033116672 -0.053587936 0.04247053 -0.0011826429 -0.038177397 -0.03920401 -0.0481122
0.09016146 -0.025249535 -0.11276119 -0.06651978 -0.10190703 -0.05665825 -0.032925732 -0.07233453
-0.056079637 0.015151869 0.00032460576 -0.16099733 -0.08247167 0.018636003 0.05704512 -0.04999518
0.04569324 -0.07273999 -0.0064550466 0.079967804 -0.05888521 -0.01082987 0.07137654 0.059237275
0.06890386 -0.05766945 -0.08681818 0.07404455 -0.023127628 -0.011221592 0.09000629 -0.056530986
-0.14342487 0.13174284 0.07452312 -0.12412502 -0.060715023 0.014271733 0.1011993 0.057346825
-0.06996671 -0.14650601 -0.027296325 -0.0061374297 0.0007841705 0.045924738 -0.050696038 -0.05709591
0.08908557 -0.07317775 0.04501642 -0.013630554 -0.038465574 0.05107306 0.046531606 -0.16235963
-0.17539474 -0.006239764 -0.0073287585 0.049921922 -0.032106128 0.044152323 -0.063260056 -0.075671405
0.006977735 -0.033699956 0.038807582 0.07979834 -0.044133537 0.093297526 -0.010492894 -0.044957105
-0.046752673 0.081319705 -0.08912063 0.0028357517 0.02350741 -0.0842864 0.01457959 -0.074617796
0.06936865 0.077676125 -0.026711823 -0.13269782 0.055721782 0.023388987 0.006288347 0.07682028
-0.035433065 -0.05033463 -0.04273038 -0.032081887 -0.061651245 0.09093204 0.055021748 -0.11009019
0.08430957 0.045557648 -0.05298114 -0.032350197 0.08418136 -0.09992773 0.0007718698 -0.011980492
0.042361204 -0.0150772445 0.066715516 -0.056479663 -0.028666344 0.0060697775 0.05045019 0.10690449

lstm.weight_hh_l0 f4 [512, 128]
00000000: 6e1b 96bd e0d2 193c 3b3a 3f3d e7a9 dc3c
00000010: cca4 b03c 358b a73d 2279 5a3d dc64 393d
00000020: 650d 8e3b b779 f13c c705 503c b1c4 a3bd
00000030: ddef a43d 4f11 043d ff04 593d 874c 303c
00000040: 6241 a23d f7de b63d 2732 b5bd b491 6a3d
00000050: 3ad5 c3bc 100e 9ebd 0bc8 eebc e1da 8e3d
00000060: 81c0 193c cb74 b73d d270 3bbd b210 8bbd
00000070: 9aa2 d7bc 75e7 a7bd c674 103d dec6 4fbc
00000080: e1ab 92bd cb2f f73c 295a 703d 9d4a 953b
00000090: 66f8 8f3d fa45 8fbd dabe a83d 5aa2 15bd
000000a0: 4e6a 5c3d 1ea0 2d3d f1f3 2bbd 84ec af3d
000000b0: c670 80bd a5b1 47bc f72b 803d a004 88bb
000000c0: ae79 32bd 30e6 7ebd e166 97bd f71f 9e3d
000000d0: a972 a1bd 03f1 613d e8f5 ff3c 40ec 803d
000000e0: 26dd 913d d42c 1c3d 7eb3 95bd a6d2 833d
000000f0: 7546 91bd 1c73 493b cc77 55bc 4d87 1a3c
00000100: 501e fb3c a5f2 8fbd 10cf 02bd 59d5 cd3c
00000110: d859 833d 473c b4bc d6b2 003d cbba 34bd
00000120: 66ab 4e3b ec4b d93c 405a 2b3d 54a5 00bd
00000130: c28a 333d 4734 903d 686a a53d a066 8dbc
00000140: 64a1 b0bc 4f1f 68bc e158 65bd 61bf 1bbc
00000150: 6b26 9c3d a038 703d 39e9 95bd db9f 17bd
00000160: 6671 b2bd f947 ce3c b12b 88bd 6573 72bd
00000170: bd5c 823c 2c24 aa3c 589d c8bc f80d b6bd
00000180: 2e45 5dbc 0277 28bd ead0 5bbc 6c83 7abd
00000190: 0dd4 2dbd 8132 733a 32b8 913b 53fa 82bd
000001a0: 3332 843d 4674 31bd 90ce dfbc 72ae 80bd
000001b0: 0de9 793d 4941 333d 1848 973d 0e50 2fbd
000001c0: f2df ad3d 2242 53bd c357 68bd 3a52 00bd
000001d0: 2d40 a6bd 81a2 613d ed6b b3bd b982 5cbd
000001e0: e886 a2bd 7e5c 98bd 9345 873d 6135 a93d
000001f0: 1bfe ebbc 79c0 afbd 0b61 763d 60c4 40bd
00000200: 48bd f5ba 61b4 4abd 385c 663d 3a5c ecbc
00000210: ebbe 62bd f20e 8e3c 7b94 a63d 2c90 a33a
00000220: c4c2 23bc cdf0 9dbd 2e9f 203d 7161 66bd
00000230: 59cc 58bc 94b5 a3bd f78f 933d afa4 9fbd
00000240: 25e5 17bd 02e4 47bd dd96 efbd 3ee3 f63c
00000250: 69ff 6a3d f45b c1bd d3c5 8cbd 4e36 98bd
00000260: f52d e7bc 5524 bb3d bef1 98bd 92f1 653d
00000270: 03cf b3bd 9b1a 3ebb 0739 40bd 434d 753c
00000280: 422d adbd 4365 c5bd 4434 813d 32f8 d53b
00000290: 8629 94bd aaad 003d bbc2 9f3d 8b61 8d3c
000002a0: e01e a43c 2d79 91bd c93f c33d 0cf7 8f3c
000002b0: 5c93 413d c482 79bc 813c 073d ddcf 863c
000002c0: cd2a 873c dc27 e63b 4003 573d 307d 3abd
000002d0: 5f66 57bd c333 373d e35a 00bc 0e3b 38bd
000002e0: 8239 7fbd ed55 6bbb a887 60bd 83e1 e9bc
000002f0: 1cc9 1bbc 9b9a 91bd 1660 9bbc 4302 433d
00000300: e2d2 11bd 75d1 8fbd 5d6c 0c3d 0d75 2dbc
00000310: cd4e e13c 9eda f03c 4f4c e23c 578f 14bd
00000320: dc54 913d dd38 94bd 6b91 a53d 00a4 debb
00000330: 473e b0bd 770b c1bb de17 3f3d 2991 2c3b
00000340: 0350 08bd 5f77 5e3b 89e3 0cbd dd4f 9bbd
00000350: 88c0 843d 9f7b 6dbd e3d9 ccbc ac37 273d
00000360: 9140 dd3c ea46 243d e4cf c7bc d49b 0f3d
00000370: b3fd 3fbd 928d 07bc c1d8 743d a810 663d
00000380: cbdb a53c e7dd 893d 79b8 eaba 2cb0 28bd
00000390: 693c 673d 6502 453b fc03 a33d c21d b0bd
000003a0: 9a43 ecbc d2e3 963c 9ac8 553b 1be6 0f3d
000003b0: c0d7 753c 32f6 a9bd 5945 eb3c ae6e 81bd
000003c0: ba7b 193d 0f86 4b3d 4ea4 853d e5ab a93c
000003d0: f89f a7bd ca99 ba3c 8049 2f3d b9fc 1b3d
000003e0: 459d b9bc ddb0 76bd ddf3 08bc 5faf c33c
000003f0: f8bb 9fbd 035f c5bb 36c7 c1bd 497b 853d
-0.073294505 0.009388655 0.046686392 0.026936485 0.021562956 0.081808485 0.053338178 0.045262203
0.004335093 0.029476983 0.01269669 -0.079965 0.08053563 0.03224307 0.05298328 0.010760433
0.07922627 0.08929246 -0.088474564 0.05726786 -0.023905385 -0.07717526 -0.029148122 0.069753416
0.009384275 0.08957823 -0.04576189 -0.06790294 -0.026322652 -0.08198444 0.035267614 -0.012681691
-0.071616895 0.030174157 0.058679733 0.0045560137 0.070298 -0.06995769 0.08239527 -0.036531784
0.053812318 0.042389028 -0.041980688 0.08590034 -0.0627151 -0.01218835 0.06258386 -0.004150942
-0.043573074 -0.062231243 -0.073926695 0.077209406 -0.07883198 0.055161487 0.031245187 0.06295061
0.07122259 0.03812869 -0.07309626 0.064366624 -0.07093517 0.0030738777 -0.01302905 0.009431672
0.030654103 -0.07028703 -0.03193575 0.025126146 0.06413621 -0.022001399 0.03142055 -0.044123452
0.0031535267 0.02652546 0.041834116 -0.03140767 0.0438335 0.07041221 0.08076936 -0.01726085
-0.021561332 -0.014167621 -0.055992965 -0.0095060775 0.07624515 0.05864775 -0.07319874 -0.037017684
-0.08713035 0.025180804 -0.066489585 -0.05919208 0.015913362 0.020769201 -0.02448909 -0.08889383
-0.013505263 -0.04112912 -0.013416508 -0.06116049 -0.042438556 0.000927724 0.0044470066 -0.06395402
0.06454887 -0.043323778 -0.027320176 -0.06283273 0.06101327 0.043763433 0.07386798 -0.042800955
0.0848998 -0.05157674 -0.05672432 -0.031328417 -0.08117709 0.055086616 -0.087608196 -0.053835604
-0.079358876 -0.074395165 0.06605067 0.08262134 -0.02880769 -0.08581633 0.06015114 -0.047062278
-0.0018748427 -0.04948843 0.05624029 -0.02885257 -0.055357855 0.01734111 0.08133789 0.001247888
-0.009995166 -0.07711945 0.039214306 -0.05624527 -0.013232314 -0.07993618 0.072051935 -0.07795083
-0.037083764 -0.04880143 -0.11698697 0.030137654 0.057372484 -0.09441367 -0.068736695 -0.07432233
-0.028220156 0.09137789 -0.07467984 0.056138583 -0.08779719 -0.0029007557 -0.046929386 0.014972034
-0.08455898 -0.09638455 0.06308797 0.0065298313 -0.072344825 0.03141562 0.07800814 0.017258426
0.020034254 -0.071031906 0.095336504 0.017573856 0.047259673 -0.015228931 0.033016685 0.016456539
0.016499901 0.0070237946 0.052493334 -0.045529544 -0.052587863 0.0447271 -0.007834169 -0.044978194
-0.062310703 -0.003590937 -0.054816872 -0.028549915 -0.009508397 -0.07109567 -0.018966716 0.04760958
-0.035601504 -0.07022373 0.03428303 -0.010586989 0.027503395 0.02940112 0.027624277 -0.036269512
0.07096264 -0.07237408 0.08084377 -0.0067944527 -0.086056285 -0.0058912593 0.04665362 0.002633164
-0.03327943 0.0033945662 -0.034396682 -0.07583592 0.06482035 -0.057979222 -0.02500624 0.040824577
0.027008327 0.04010669 -0.024391122 0.03506072 -0.046872806 -0.008273499 0.059777025 0.05616823
0.020246407 0.06731778 -0.001790776 -0.041183636 0.056454096 0.0030061242 0.07959744 -0.08599426
-0.028840829 0.01841918 0.0032620789 0.035131555 0.015005052 -0.08298911 0.028719591 -0.063199386
0.03747151 0.049688395 0.06525479 0.020711849 -0.081848085 0.02277841 0.042794704 0.038082812
-0.022658 -0.060227264 -0.008358923 0.023887334 -0.07799524 -0.006023289 -0.094618246 0.065176554

lstm.bias_ih_l0 f4 [512]
00000000: 0a9c ff3c bcf6 133e 3b11 cf3d abbf e83d
00000010: 41d5 1bbc 5c16 063c df5e 74bd 7bc5 053e
00000020: f625 7e3d 187f 973d bcd8 833e 95d3 103e
00000030: b7ff b63d 73fd 333d d117 78bd ef8e c6bc
00000040: ad44 c43d df76 5b3d 6ba1 473e 8e89 183e
00000050: 8e08 603d f2d7 103e e7b1 343e a53c b63d
00000060: 3f97 003e 1ed5 883b a5f0 40bd b9ad c2bb
00000070: 5b4d 723e d8b1 663d 4e47 813d 989c d83d
00000080: cc01 bc3d 61e7 b43d b575 74bd f843 573b
00000090: f08b 3b3b 1691 c03d f7cf 70bd 1be5 0c3e
000000a0: 46d0 e13d 6438 983d 76c6 9bbb cbd5 9c3d
000000b0: 4409 a83d 33e4 523c bddb 9f3c 2942 143e
000000c0: 2702 713e 6e4d 773d 8f1c efbc cd9a a33c
000000d0: e711 8f3d aa0e 03bd f993 d5bc 7d26 b83d
000000e0: c4fd 263d 7ca1 bc3d fc1c 4b3d f4a8 9d3c
000000f0: 8956 c03d 2564 773c 5bdc 1bbd 1ab0 3ebd
00000100: aff6 e63c b567 793d 0e2b 0e3e 3634 d73c
00000110: 5f7d 383d faaf a0bc b952 6e3d 4e6c 65bc
00000120: e474 873d 001c 39bb 43ed bd3b cc93 163d
00000130: 20ba 0c3e 61dc 873d 8ff7 973a a402 81bb
00000140: 1bfc a53d a9cb b0bb 64b5 2f3d b3ed 80bd
00000150: e381 e33d b3a7 d5bc ad55 723d 07d8 a8bc
00000160: 1063 9d3d fd64 9bbc 87b7 973d bc28 213d
00000170: 2b87 c23d cb7a a2ba 3d08 dcbb fc88 b5bc
00000180: 9bed e53d 6d5a b93d 1dd2 1cbd 511a 08bd
00000190: 9ea2 b43d f124 1a3e 1099 f53c 4233 1bbd
000001a0: 1557 be3d e451 efbc ae8a a23d 1c6b 3d3c
000001b0: 18d4 a6bd 452b 693d ec8e b03b 46b2 a63d
000001c0: 0eb1 373d b1a2 883d f0ca ca3d 470e 2a3d
000001d0: 33a9 a43d b897 633c 0c4a 01bd efc1 c53d
000001e0: 1382 4a3e 86f8 03bd 450f cabc 5f4e 43bd
000001f0: e0bf 043e fef5 863d 28f2 2a3d 5195 683d
00000200: 7341 5dbd d738 86bc 6ac5 543d a974 ebbb
00000210: dc58 443d 5c15 9c3d f482 c53d 0ead f9bc
00000220: 3135 153e 91ea 893c 3251 8f3e 9403 2f3e
00000230: e240 c93d c380 073e 3ec5 58bd a2c1 053e
00000240: 4af3 c2ba 3b54 923d cde6 383e 5988 c63d
00000250: 6242 9d3d c6f3 583e 40c0 1e3e caa5 90bc
00000260: 1eca abba ca25 213e a329 723c 0f90 853d
00000270: 38b2 5d3d ccec 0ebb 27ee 723e 6c5b 253e
00000280: 83c6 143d 563b c0bb 8c03 253e 6d29 113e
00000290: 307f 1a3c 15dc 4d3d b080 143d 5e76 363e
000002a0: 72a6 063d a366 d33d bc36 613c f258 3dbd
000002b0: c497 903d ce48 fa3d 81a5 af3d 9903 613e
000002c0: e8cf 4c3e ad88 bb3d 05f0 39bd 1bff 773b
000002d0: 6f11 823d 2bdb 193c e1ec 403d 045e 6c3b
000002e0: fa4d 1c3c 570f 34bb 87a8 073e fe2a bfbb
000002f0: 338e aa3d a631 feba 208e a43d 718d 2ebd
00000300: af79 d13d 3295 82bc 3147 633e cb71 cabc
00000310: 7cb4 803d b58e 653d 65e0 c43d 29f4 debc
00000320: ce53 853d a2e6 2a3d bdfb 583e d82b 883d
00000330: 2275 6b3e 9acb 06bd 2883 f73d 03da 08bd
00000340: 596c 98bd a385 8e3d 0739 a3bc 9e62 11bd
00000350: 18f0 f9bc caba 023e 582e 443e 8e3d e23d
00000360: 260a cb3d 6a0f 82bb 3af0 a83d 2dff e2bb
00000370: 9eaf b23d ff2d 203f 3439 b23d e7a9 e23d
00000380: 3bd9 553d b6e3 563d 8972 c13d 5f92 27bd
00000390: cda9 d13d 16bf 0d3e 8025 c8bc 83c2 ab3d
000003a0: e51e cfbc bf9f e2bc 4525 20bb 7b9b 7fbd
000003b0: 26a4 373d 6236 db3d 60a2 27bd fa7e 633c
000003c0: 1e02 c73d b73f bf3d 81ab f23d 1df2 103b
000003d0: 0974 03bd 588b 2dbc 1e20 29bd f328 c13c
000003e0: 29bb 6e3e 4764 3e3d eedf ff3d de30 3b3d
000003f0: 5143 8e3d c056 483c 4078 313c cd83 e43d
0.031202335 0.1444959 0.10110708 0.11364683 -0.009511293 0.008184042 -0.05966079 0.13063614
0.06204792 0.07397288 0.25751293 0.14143212 0.089354925 0.04394288 -0.060569588 -0.024238078
0.09583411 0.05358016 0.1949517 0.14896223 0.05469566 0.14144877 0.1764599 0.08898286
0.12557696 0.004175796 -0.047104497 -0.0059411195 0.23662321 0.05632195 0.063124284 0.10576743
0.0918003 0.088331945 -0.059682567 0.003284691 0.0028617345 0.09402673 -0.05879208 0.13759272
0.11026053 0.07432631 -0.004753883 0.07657965 0.08204892 0.01287179 0.019513959 0.14478363
0.23535977 0.060376577 -0.029188422 0.019971276 0.069858365 -0.031996407 -0.026071535 0.08991716
0.040769354 0.09210488 0.04958819 0.019245602 0.09391505 0.01509956 -0.038051944 -0.046554662
0.0281938 0.06088992 0.13883612 0.026270013 0.04504144 -0.019615162 0.05818436 -0.014002873
0.06614092 -0.002824545 0.005796106 0.036762044 0.13742876 0.06633831 0.0011594164 -0.0039370824
0.08104726 -0.005395372 0.042897597 -0.062953375 0.11108758 -0.026080942 0.059163738 -0.020610822
0.0768491 -0.018969053 0.07408052 0.039345488 0.094984375 -0.0012396214 -0.0067148493 -0.022160046
0.1122696 0.090504505 -0.038286317 -0.033228222 0.08820079 0.15053155 0.029980212 -0.03789068
0.09293953 -0.029213853 0.07936607 0.011561181 -0.081459224 0.05692603 0.0053881314 0.08139472
0.044846587 0.06671656 0.099019885 0.041517522 0.08040085 0.013891153 -0.031564757 0.096561305
0.19776182 -0.032219432 -0.024665484 -0.047682162 0.1296382 0.06589888 0.041734844 0.056783024
-0.054017495 -0.016384525 0.05194608 -0.007185538 0.047936305 0.076212615 0.09644118 -0.030478027
0.14571072 0.016835483 0.27991635 0.17091209 0.098268285 0.13232712 -0.05292248 0.13062146
-0.0014873531 0.07144972 0.18056794 0.09693975 0.07678677 0.21186742 0.15503025 -0.01765718
-0.00131065 0.15737072 0.014780435 0.065216176 0.05412504 -0.0021808622 0.2372366 0.16148156
0.036322128 -0.0058664484 0.16114634 0.14175959 0.009429738 0.050258715 0.03625554 0.17818591
0.03287358 0.10322311 0.01374596 -0.046227403 0.07060197 0.12220918 0.08576489 0.21974029
0.20001185 0.09156928 -0.045394916 0.0037841264 0.063509814 0.009390633 0.047100905 0.003606678
0.009540075 -0.0027474964 0.13247882 -0.0058339825 0.083279036 -0.0019393458 0.08034921 -0.042615358
0.102282874 -0.015940282 0.22195126 -0.024712464 0.06284425 0.0560443 0.09613112 -0.027216034
0.06510125 0.041723855 0.2118978 0.066489875 0.22993901 -0.032909013 0.12085563 -0.033411037
-0.07442541 0.06959083 -0.019924654 -0.03549444 -0.030509993 0.12766567 0.19158304 0.11046897
0.09914045 -0.0039691227 0.082489446 -0.006927392 0.087249026 0.62570184 0.08702317 0.110675626
0.05220912 0.052463256 0.09445674 -0.040911075 0.10237465 0.13842425 -0.024431944 0.083867095
-0.025283286 -0.027664063 -0.0024436277 -0.062404137 0.04483428 0.10703732 -0.040926337 0.013885254
0.09717201 0.093383245 0.11849118 0.0022116967 -0.03209308 -0.010592304 -0.041290395 0.023579096
0.23313583 0.04648235 0.12493883 0.0457009 0.06946433 0.012227714 0.0108318925 0.111579515

lstm.bias_hh_l0 f4 [512]
00000000: a55c 033e b669 023d ac4a d93d 1b80 a33d
00000010: 8b1a 8b3d 13d6 933d 01cb 2d3d 69e3 123e
00000020: 3979 923d e9ed 073e db4e fc3d 00b4 463c
00000030: 247c 393d 5f91 2a3e 10a8 253d b326 d63d
00000040: b169 c13b 7110 9f3d f33c 263e 7514 013e
00000050: 245b 283d 3665 043e 7d69 213e 3a24 b23d
00000060: fdf8 743d 30cd d33d 49a1 c53d d0dd fa3c
00000070: 1ea4 083e fdd0 83bc 74aa 243e 3de9 793d
00000080: e8a2 72bc 60dd bf3d 803c 5bbd 5520 1d3e
00000090: 181e 7c3d 12c3 043e 617b 48bd bfc9 083e
000000a0: dc17 5a3d 27a5 89bc 842a 2b3d 31a4 af3c
000000b0: 427f af3d b72d a23d 66e1 0bbc 48c4 543e
000000c0: f249 7c3e 7e48 15bc 126f 993c ea1c 0b3e
000000d0: 6e51 60bd 7b71 f83b 3d4f 27bd 6c03 6cbd
000000e0: 339d 9fbd d7ec 873d 0462 763d dfbd c63d
000000f0: 90b4 093d 6a51 6a3d a2e3 4cbd 3b38 203d
00000100: 2c32 ba3d 1547 b03c 4e76 f63d 6d75 fcbc
00000110: 7cea 29bd e844 1e3c fb48 033e 558d ca3a
00000120: 5ffa 4dbc 6ff3 393d 7187 133e 379c c53d
00000130: 8af7 6a3c 06f7 403d 8763 e43d 9307 183d
00000140: d0a7 bb3d 9af9 8f3d 3689 5c3c d6d6 f83c
00000150: f4dc 8a3d 525b 613c 816b 2a3e 6750 7abd
00000160: 4cd5 ea3d 92c5 90bd a3fb b03d 0066 3fbc
00000170: 1577 2b3d 47dd 81bd b8a0 5d3b 2668 ce3d
00000180: cda8 a93d ffba 1d3d 58e2 71bd 0726 68bb
00000190: 8326 f03d c2dc f23d 4b87 e4ba cedd ebbc
000001a0: 4dc4 623d a9ff 713d fad4 663d d782 9abc
000001b0: da6b a5bb fed8 c83d 3c32 1abd 65d7 40bd
000001c0: fb53 d73c 733e 50bd 0ca1 363e 8bdd 70bb
000001d0: 5a99 74bc 79dc be3d 846b e33c 9eaf 8b3d
000001e0: a31c ee3d fed7 40bd a24c f33d a50b b93c
000001f0: 6b18 4e3d 5d3c 643e 9473 193d ff5e b6bc
00000200: efe3 c2bb f237 f1bc f7dd 303e f0f7 803d
00000210: c65e 803c 0016 f53d a69f 973b 15cb c83d
00000220: cb4f 223e ebd0 3abc 82e4 a63e 8aab 203e
00000230: 25e2 52bd 15bd 99bc ef4d 9bbb 61bc 143e
00000240: 75e1 143d ef4f c13c ec37 013e 7bdd 3a3e
00000250: 0da1 e2bc abde 883e 1a7d 8e3e d347 af3d
00000260: 31f4 053d aac2 303e a355 263c 7669 803c
00000270: 9978 dc3c 109c 213d 8736 453e 47e1 763d
00000280: fbde 8d3d eb4b a13d 0bf2 db3d dd07 043e
00000290: f09c 103d 1b13 b73d 57c8 313c 3440 8f3d
000002a0: 04b6 163e 33f9 123e e0bd f03d 5acc 9f3d
000002b0: 34b4 c93d 7e6d 2c3e 694d a1bd ef98 483e
000002c0: 5257 6a3e def2 213d 05a6 d938 dd2a eb3c
000002d0: 5e91 413d 9f85 3bbd 6599 80bd 0c3d 74bd
000002e0: 555a 873d b717 fe3b 3430 9c3b 2986 d53c
000002f0: cbba 3a3e 1036 b23d 3725 b3bc f142 b63b
00000300: cf08 923c fdb6 343c 3da7 e63d 959a 183d
00000310: 0704 b73d f793 a03d 697e 393d 0234 ab3d
00000320: c18a 5d3d 313c 9abd 4dad be3d 2652 da3d
00000330: bbb4 3b3e 9d1b af3d 8bc1 8f3d 04e7 f13b
00000340: 8b8d 16bd 4fa8 3a3d 95b4 833d e380 8dbd
00000350: 08f9 f13d 6ed9 2b3e 0897 143e ae6b 2c3d
00000360: 7815 b63d f0ec a43c 5012 323e 8737 2a3d
00000370: 012b fd3d b210 163f 2bf5 f93d c78d 1b3e
00000380: 3a1d 0f3d 4b82 e33d 8a4d 5b3d 2512 b83d
00000390: 88b1 813d caa0 eb3d 486a c6bc 4675 873c
000003a0: fbb7 6c3d 755d 2b3d 731e e63d e058 02bd
000003b0: a35b 9dbd f847 ef3d 792a a13c aba8 96bd
000003c0: 348d 27bc 62df 3b3d efe1 2d3d 9c40 2d3e
000003d0: b52b 5b3d daba c73c 5a15 66bd 1f85 e43c
000003e0: 7b51 e73d 782d 87bc 9e2c e23d 15e1 a03d
000003f0: e7c3 c23d b1d2 bc3b 1e5f 5a3d 2693 493d
0.1282831 0.031839095 0.10609946 0.079834186 0.06792172 0.07218566 0.042429928 0.14344563
0.07152028 0.1327435 0.12319728 0.012127876 0.045284405 0.16657017 0.04044348 0.104566
0.005902492 0.07766808 0.16234188 0.1260546 0.041102543 0.12929234 0.15762897 0.08698316
0.059807766 0.10341871 0.09649903 0.030623347 0.13343856 -0.016090864 0.16080648 0.06101345
-0.014809348 0.09368396 -0.053524494 0.15344365 0.061552137 0.12965038 -0.04894579 0.1335821
0.05324541 -0.016802384 0.041788593 0.021440597 0.085691944 0.07918876 -0.008537626 0.20778
0.24637583 -0.009111522 0.01872972 0.13585249 -0.054765157 0.0075818873 -0.040847052 -0.05762045
-0.07793655 0.066369705 0.06015207 0.09704184 0.033619463 0.05720655 -0.050021775 0.039116126
0.09091601 0.02151827 0.120342836 -0.030817712 -0.041483387 0.009659983 0.12820809 0.0015453497
-0.0125719 0.045398172 0.14407136 0.09648936 0.0143412445 0.04711058 0.11151796 0.0371166
0.09162867 0.070300296 0.013460448 0.03037588 0.06780425 0.013754683 0.16642572 -0.061111834
0.114664644 -0.070689335 0.08641746 -0.011682034 0.041861612 -0.063410334 0.003381772 0.100784585
0.08284149 0.03850841 -0.05905375 -0.0035423057 0.117260955 0.118585125 -0.001743534 -0.028792288
0.05536299 0.059081707 0.056355454 -0.018861217 -0.0050482573 0.09807013 -0.037645563 -0.047080416
0.026285162 -0.050840806 0.17834872 -0.0036753144 -0.01492914 0.093193956 0.027761228 0.06820606
0.11626556 -0.047080986 0.11879851 0.02258856 0.050316256 0.22288652 0.03746374 -0.022262095
-0.005947582 -0.029445622 0.17272173 0.0629729 0.015670191 0.11967087 0.004627186 0.0980436
0.15850751 -0.011402349 0.32596213 0.15690437 -0.0514852 -0.01876692 -0.004739515 0.14524986
0.036347825 0.023597686 0.12618989 0.1824855 -0.027664686 0.26732382 0.2782982 0.08558621
0.032703582 0.17261758 0.010152253 0.015675288 0.026912974 0.039455473 0.19259082 0.060273435
0.06927296 0.07875808 0.107395254 0.12893625 0.035305917 0.08939191 0.010850987 0.06994668
0.14717871 0.14352874 0.11754966 0.07802649 0.09848824 0.16838643 -0.07876093 0.1958959
0.22884873 0.039538257 0.0001037829 0.028706962 0.047257774 -0.045781728 -0.06279258 -0.05962853
0.06609026 0.007754292 0.0047664884 0.02606495 0.18235318 0.08701718 -0.021868331 0.0055621793
0.017826466 0.011029956 0.11262367 0.037256796 0.08936315 0.07840722 0.04528657 0.08359529
0.054087404 -0.07531012 0.09310398 0.106602 0.18330662 0.08550189 0.07019337 0.0073822755
-0.03675608 0.045570668 0.06430928 -0.06909349 0.11815077 0.16782162 0.14510739 0.04209488
0.088908136 0.020132512 0.17389798 0.04155686 0.12361718 0.58619225 0.12204965 0.15190803
0.034939982 0.11108836 0.053540744 0.08987836 0.063326895 0.115052775 -0.0242206 0.016535413
0.057792645 0.041837174 0.112362765 -0.03182304 -0.07683494 0.11683649 0.019673573 -0.073563896
-0.010226537 0.04586733 0.042451795 0.16919178 0.05350848 0.02438109 -0.056172706 0.027895508
0.11294838 -0.016501173 0.11043666 0.07855431 0.09510022 0.005762421 0.053313367 0.049212597

fc.weight f4 [5, 128]
00000000: 263a 1a3e 5f55 3cbe feb1 de3d 81db 473d
00000010: edb9 62be fe1c f4bb 6029 25be 0f47 6bbe
00000020: fd6a 1bbd 1f7b 033e 0f0e 15be b3cd 77bd
00000030: fe72 33bd 378a fcbd f669 57bc e9dd ec3d
00000040: 913d 2f3e 3340 a73d 28ec 513f 235c c63e
00000050: 74eb ee3d 959d c9be 3b8b 053f 197d e33d
00000060: 8f00 203d c32e 493e 6c6f 53be 7629 37bd
00000070: fe10 2f3f 6a9d 6ebe 34a6 89be 5b99 d8bd
00000080: 0c49 f03c 15f7 433e cbde 54be 35c6 0ebe
00000090: dbba 973d cbbb b83d 8b8b 63be dd6c f43c
000000a0: 3876 97be 0d60 9bbe 352f dc3d 566a 7bbe
000000b0: d830 0d3e c661 f9bd 5dd7 833e 3b4e 973e
000000c0: de3d 7c3e ba02 553e 97f8 2e3d 0b0d 033e
000000d0: 6e13 3e3d b650 c73c d823 01be 6e9a d63d
000000e0: 1734 293c 24ae 88bd fca1 b6be f54c b43d
000000f0: c000 80bd 6bd2 c93b b456 cabd 4203 883e
00000100: 4255 56bd 9539 6ebd 298a 14be 0f4d 5c3e
00000110: 5f0f 043e 6ce7 153d 67a7 b4be 76ad 61be
00000120: 5b4e 763e c05b 9d3d 717d 45be 60fb 7ebe
00000130: 03db 18be 6cdb 33be d62d 333e a91f e03d
00000140: f48c 88bd b4cf 3a3e 9c0b 3b3e 8779 963d
00000150: f4fd f8bc fddf 7f3d d63e 3fbe 2147 37be
00000160: dee3 473e eccf 88bd 4a4e 13be bf52 90be
00000170: aa82 633e cb44 593c af3c 4dbe 448f c43d
00000180: 1b67 203e 9a87 383e 24b6 c23c 5f9a 8bbd
00000190: 640c 8fbd fc4a ee3e 8416 0e3e d24b 7fbe
000001a0: a18b 813e 6ef1 f039 1ecd 0dbd eff8 563e
000001b0: 8450 6e3c 07f5 d1bd e58a 1dbe 667a e63d
000001c0: 87d9 233c a493 df3d b66f b4be 5ed5 86bd
000001d0: 057e 283e 6b20 743d 329a cdba 7838 f13d
000001e0: 4af8 f23e 6256 febd beca ffbb dc52 e4bd
000001f0: 2de0 babe 2007 7cbe 115b fb3d ebf8 2bbe
00000200: e41a 523d 2956 e73d 3c12 203e 4038 0abf
00000210: bc88 6c3d d322 353e 1011 0e3e 6f12 22be
00000220: b7de 103e 91d9 743e 892b 0bbf 0966 9abe
00000230: 68bb 493e f38b 72bc 566d d33d 472a d8bd
00000240: 952c 27be 6ee3 3d3d 2347 9b3e 29de 463e
00000250: bfdf 98be 7e42 643d 7cab 053f 48a4 053e
00000260: d7d2 193e 538a 37bf 9ef8 bebd bc1c 093f
00000270: 9074 253e 4982 6f3e d9d5 3c3f 4a3d a2be
00000280: f100 73bc 4f97 9a3e 16fe b93d 4168 113f
00000290: 49dc 073e 83c4 093e 1165 5fbd 18f5 6abe
000002a0: d6ca bbbd 5e3b 83be 2233 73be 17f7 69be
000002b0: 5349 d1be f9a9 17be dec4 523e 3ca2 5c3e
000002c0: 663f aa3e 8c36 083d cded a7bd 18ba 5c3e
000002d0: fe5f 033e 8430 77be 08bf 5fbe 369e 9c3c
000002e0: fe1e da3d 4535 4a3e e254 05be a21d 0abe
000002f0: 53eb 26bd 9cab 0ebe 6367 7a3e df37 5a3e
00000300: fd02 26bc e4a4 6dbe 69c0 f63e cd17 ab3d
00000310: 98a1 47be de29 0e3e 1048 1d3f 4794 a3bd
00000320: a4e4 783e 2717 d23d 1a44 fdbd 7ec9 cebe
00000330: b760 b33d 6fbf 233d 4436 023e 2796 10bd
00000340: 36f9 0fbd 4113 d43e dca7 a6be 5422 2dbe
00000350: bc7b be3e 62d3 243e 7be8 3e3f f27f ff3d
00000360: c5c7 2fbe b906 173e 5fc4 163e aa7a 4abb
00000370: 5cba ba3e ed61 3ebe c700 7d3e 6e89 d83e
00000380: e44a c73e 0a14 e2be bb4d c33d 5dab 9cbe
00000390: 21b5 5e3e 65c9 3d3e 12f8 90bd 5e3f 683e
000003a0: debf ecbc 94fa 0ebe 455d e1bc 33d4 9fbd
000003b0: e4ff 863d 9be0 583e 6bc3 eabd 2e24 303d
000003c0: 53eb 6e3d d40b 0ebe c091 f03d d0f0 3d3e
000003d0: 322e 0a3d 7c91 c33e f045 233e 2800 10bf
000003e0: 8ac7 ba3e d770 ac3c 9be8 7fbd d6bc 2ebe
000003f0: dcc7 92be 69fb 83bd 17e2 373e 8f48 8e3b
0.15061244 -0.18391941 0.10873793 0.04879332 -0.22141238 -0.007449745 -0.16129065 -0.22976325
-0.03794383 0.12839936 -0.14556144 -0.060498904 -0.043810837 -0.1233105 -0.013147822 0.115657635
0.1711333 0.08166542 0.8200097 0.3874217 0.11666003 -0.39378038 0.52165574 0.11107845
0.039063033 0.19646744 -0.20647973 -0.044717275 0.68385303 -0.23302236 -0.26884615 -0.10576125
0.029331706 0.19137223 -0.20788114 -0.13942797 0.07408687 0.09020194 -0.222212 0.029837066
-0.2958238 -0.30346718 0.107511915 -0.24552283 0.13788164 -0.12176852 0.25750247 0.29551873
0.24632975 0.20801821 0.042717542 0.12797944 0.04640525 0.024330478 -0.1261133 0.10478674
0.010327361 -0.0667384 -0.3567046 0.08803741 -0.06250143 0.006159117 -0.098798186 0.26564986
-0.052327402 -0.058160383 -0.14505829 0.2151377 0.12896489 0.036597654 -0.35283968 -0.22038826
0.24053328 0.076835155 -0.19286133 -0.2490058 -0.14927296 -0.17564172 0.17497954 0.10943539
-0.0666751 0.18243295 0.18266147 0.07347398 -0.030394532 0.06246947 -0.18676314 -0.17898227
0.19520518 -0.06680283 -0.14385334 -0.2818813 0.22217813 0.01326103 -0.2004268 0.09597638
0.15664332 0.18020478 0.023768492 -0.06816553 -0.06984785 0.46541584 0.13875777 -0.24931267
0.2530184 0.00045956246 -0.034619443 0.20993398 0.014545564 -0.102518134 -0.15385015 0.112538144
0.010000593 0.10916832 -0.3524148 -0.06583665 0.16454323 0.05960123 -0.0015686213 0.11778349
0.47455055 -0.1241882 -0.007806151 -0.11148617 -0.36499158 -0.24612093 0.12273229 -0.16794173
0.051295176 0.112957306 0.15631956 -0.5399208 0.057747588 0.17689066 0.13873696 -0.15827344
0.14147459 0.2391112 -0.54363304 -0.30155972 0.19700396 -0.014803874 0.103235886 -0.10554939
-0.163256 0.046359472 0.3032771 0.19420685 -0.29858205 0.055727474 0.5221479 0.1305095
0.15021835 -0.7169544 -0.09324764 0.5355947 0.16157746 0.23389544 0.73763806 -0.31687385
-0.014831767 0.30193564 0.09081666 0.56799704 0.13267626 0.1345387 -0.054539744 -0.22945058
-0.09169547 -0.2563123 -0.23749974 -0.22848164 -0.40876254 -0.14810933 0.20582911 0.21546263
0.33251494 0.033255145 -0.08199654 0.21555364 0.12829587 -0.24139601 -0.21850216 0.01911841
0.106504425 0.19746883 -0.13020661 -0.13487867 -0.040751766 -0.13932651 0.24453501 0.21310376
-0.010132548 -0.23207432 0.48193672 0.08354149 -0.19495237 0.13883159 0.61438084 -0.07987266
0.2430597 0.10258322 -0.12366505 -0.403881 0.08758681 0.039977487 0.12716013 -0.035299446
-0.035149775 0.4142094 -0.32549942 -0.16907626 0.37203777 0.16096261 0.7457349 0.124755755
-0.1716605 0.14748658 0.14723347 -0.0030895867 0.36470306 -0.18592043 0.24707328 0.4229235
0.38924325 -0.44155914 0.0953631 -0.3059949 0.21748783 0.18533857 -0.07078566 0.22680423
-0.028900083 -0.13962775 -0.027510295 -0.07804146 0.06591776 0.2117943 -0.11463054 0.043003254
0.05832989 -0.138717 0.117465496 0.18548894 0.03373546 0.38196933 0.15944648 -0.5625024
0.3648036 0.0210499 -0.06247769 -0.17064223 -0.28668106 -0.06444437 0.1795734 0.0043421458

fc.bias f4 [5]
00000000: 0b17 4a3f 072e e5be 2473 4c3e 0ab2 2b3e
00000010: 0137 a6be
0.7894141 -0.4476168 0.19965798 0.16767135 -0.3246384
