models/2.2.1-lstm-network-model-test-128x2.pth (torch, 805578 bytes, 10 tensors)

lstm.weight_ih_l0 f4 [512, 3]
0	0x3da52a1d	0.08064673
1	0x3d9f8922	0.07789828
2	0x3d4dcb83	0.050242912
3	0xbd121dca	-0.03567294
4	0x3d865836	0.06559794
5	0x3ca0e690	0.01964119
6	0x3d9e1e5a	0.07720633
7	0x3d3ae495	0.04562815
8	0xbbd12c81	-0.006383479
9	0x3d9fe431	0.07807196
10	0x3c81d1de	0.015847143
11	0x3d93e9a2	0.07222296
12	0xbd8179e6	-0.063220784
13	0xbdb9d14f	-0.090731256
14	0x3d946b96	0.07247083
15	0x3d73c1dc	0.05951105
16	0xbcc138df	-0.023586689
17	0x3d013133	0.03154106
18	0x3d1336a0	0.035940766
19	0xbcd4172b	-0.025889954
20	0x3ddbd3e2	0.10733773
21	0xbd01d420	-0.03169644
22	0xbda8b93d	-0.082384564
23	0xbd7a2f98	-0.061080545
24	0xbd5b608c	-0.05355887
25	0xbc88e5ef	-0.016711203
26	0xbd023553	-0.031789135
27	0x3d6ec005	0.058288593
28	0xbd83560f	-0.06412899
29	0x3d81ca78	0.06337446
30	0xbc8a4d94	-0.016882695
31	0xbd856402	-0.065132156
32	0x3d8faac2	0.07014991
33	0xbd0b2972	-0.033975072
34	0x3d09822c	0.033571407
35	0xbd1d5d50	-0.038419068
36	0x3d8c52f5	0.0685176
37	0x3c601469	0.013676741
38	0x3d7ebebf	0.06219363
39	0x3dae1dfc	0.08501813
40	0xbb3ffef4	-0.002929625
41	0x3cb7d0f8	0.022438511
42	0x3d6fb78d	0.058524657
43	0x3b69bde3	0.003566616
44	0xbdc21793	-0.09477153
45	0x3d68963d	0.056783903
46	0xbc3b18e7	-0.011419511
47	0xbd401c94	-0.046902254
48	0x3d7660ef	0.060151037
49	0xbd6632fc	-0.056200966
50	0xbd3bef73	-0.045882653
51	0x3d119548	0.035542756
52	0xbd8f2a8f	-0.06990539
53	0xbd6ceaf2	-0.05784125
54	0x3d3dd3e4	0.046344653
55	0x3e053ae0	0.1301074
56	0x3dd92dff	0.10604476
57	0x3d052900	0.032509804
58	0xbcfcdb75	-0.030866364
59	0xbd06ecce	-0.03294068
60	0xbdbfdb2b	-0.09367975
61	0xbd866725	-0.06562642
62	0xbd355522	-0.044270642
63	0xbd0a4480	-0.033756733
64	0xbda7f5a1	-0.08201147
65	0xbd86bb9a	-0.06578751
66	0xbca28df9	-0.019843088
67	0xbd438eaf	-0.047743496
68	0xbda4547b	-0.08023926
69	0xbde520e8	-0.11187917
70	0xbd99f49d	-0.075173594
71	0xbdbbdc93	-0.091729306
72	0xbdc300d4	-0.09521642
73	0xbb6d1e21	-0.0036181288
74	0x3d4722c2	0.048617132
75	0xbd125164	-0.03572215
76	0x3d3af34f	0.045642193
77	0x3d9b1692	0.07572664
78	0x39373574	0.00017472153
79	0x3c75ef9a	0.015010739
80	0xbc58df4e	-0.013236834
81	0x3db882ee	0.09009348
82	0x3d76b4d3	0.06023104
83	0xbe170feb	-0.14752166
84	0x3cdc4e11	0.026892694
85	0xbb2df66e	-0.0026544589
86	0xbd89f732	-0.06736602
87	0x3d501b59	0.05080733
88	0xbbaca000	-0.005268097
89	0xbdc232b4	-0.09482327
90	0x3d3902fb	0.045168858
91	0xbd42ce13	-0.04755981
92	0xbba8f9f3	-0.0051567494
93	0x3de3d294	0.11124149
94	0xbccab4ef	-0.024744479
95	0x3bea6d30	0.0071541294
96	0x3d08d479	0.033405755
97	0x3d84ec97	0.064904384
98	0xbca15772	-0.019695017
99	0x3d3f4488	0.046696216
100	0x3da73fe5	0.08166484
101	0x3d11aa26	0.035562657
102	0x3d05c5a7	0.0326592
103	0xbd72300b	-0.05912785
104	0x3c0068e4	0.007837508
105	0xbcce093e	-0.025150891
106	0x3c4bf216	0.0124478545
107	0x3cefc94e	0.029270794
108	0x3ce16771	0.027515145
109	0xbd73fa9c	-0.05956517
110	0xbd2f7e3d	-0.042845
111	0xbdddb083	-0.108246826
112	0xbdc56c74	-0.096398264
113	0xbe1b3eaa	-0.15160623
114	0x3c24ef67	0.010066844
115	0x3d1d97dd	0.038474906
116	0x3db51f33	0.088438414
117	0x3e435ebc	0.19079107
118	0x3cfdf586	0.031000864
119	0xbe069362	-0.1314216
120	0x3c9517bf	0.0181998
121	0x3d168023	0.036743294
122	0xbc75ea36	-0.0150094535
123	0x3e0fc494	0.14039832
124	0x3c8e39dd	0.017361576
125	0xbd6276f4	-0.055289224
126	0xbcdda0f4	-0.027054287
127	0xbd20371d	-0.03911506
128	0x3d88e7b1	0.06684817
129	0xbdb962fe	-0.090520844
130	0xbd6c4774	-0.05768533
131	0x3d9e2145	0.077211894
132	0xbdb43236	-0.087986395
133	0xbce3eada	-0.027821947
134	0x3dbbea3a	0.091755345
135	0xbd6e5a08	-0.05819133
136	0xbd1681b4	-0.03674479
137	0x3d8ac753	0.06776299
138	0xbd91e018	-0.071228206
139	0x3c92b913	0.017910516
140	0xbc77b061	-0.015117736
141	0xbb92f524	-0.0044847894
142	0xbd176218	-0.036958784
143	0x3da16a14	0.07881561
144	0x3d277669	0.04088441
145	0x3d40ba37	0.04705259
146	0xbd9f9811	-0.07792676
147	0x3d264aa0	0.04059851
148	0x3c46602c	0.01210789
149	0x3d99c8f1	0.0750903
150	0x3d9fe2c1	0.07806922
151	0xbd8043d8	-0.0626294
152	0x3d8c7a66	0.06859283
153	0x3d76d16a	0.060258307
154	0x3d844030	0.06457555
155	0xbcf54c1d	-0.02994352
156	0xbcb732d2	-0.0223631
157	0x3d46b005	0.04850771
158	0xbd59383d	-0.05303215
159	0xb9a313ff	-0.0003110468
160	0x3cfa4eff	0.030555246
161	0x3d24a36d	0.040194917
162	0xbbf05b47	-0.0073351
163	0x3c52caa8	0.0128657
164	0x3ce67b93	0.028135097
165	0x3b996109	0.004680757
166	0x3d2ce1ea	0.042207636
167	0x3dacb316	0.084325954
168	0x3d2199f2	0.039453454
169	0x3d73c264	0.059511557
170	0xbd23afa1	-0.039962415
171	0xbd04dabb	-0.03243516
172	0xbd2719a8	-0.040795952
173	0x3cf94494	0.030428208
174	0xbd14e9ad	-0.036355663
175	0xbd3a84d8	-0.045536846
176	0x3c24b4ec	0.010052901
177	0x3d86a285	0.06573967
178	0xbd24aa39	-0.0402014
179	0xbc58c453	-0.013230401
180	0xbd4b190f	-0.049584445
181	0x3d40cdf5	0.047071416
182	0xbb9ef539	-0.00485101
183	0x3b1faa5d	0.002436302
184	0xbcdadc08	-0.026716247
185	0xbd781221	-0.060564164
186	0xbd34a9ed	-0.044107366
187	0xbc64e6a7	-0.013971007
188	0xbbbbf243	-0.005735667
189	0x3cb0a1df	0.021561561
190	0xbd6dffa8	-0.05810514
191	0x3da2a30d	0.07941256
192	0xbdb29b2c	-0.08721003
193	0x3d706b47	0.058696058
194	0x3dbcfe9f	0.092282526
195	0x3bd98d79	0.0066391793
196	0x3c30e6e8	0.01079724
197	0x3ceaadb5	0.028647283
198	0xbda38a75	-0.07985393
199	0xbdc8aeb0	-0.09798944
200	0x3c6234c8	0.013806529
201	0x3cf6bf61	0.030120553
202	0x3d8a8a41	0.06764651
203	0x3d93c237	0.07214778
204	0x3d2ed191	0.042680327
205	0xbdeb65e5	-0.11494044
206	0xbdf234a9	-0.118264504
207	0xbd56e5b0	-0.05246514
208	0x3c3de1bb	0.011589463
209	0x3b08b435	0.0020859365
210	0x3d237032	0.03990192
211	0xbde09b82	-0.10967161
212	0x3d22d718	0.03975591
213	0x3d5efb9a	0.054439165
214	0x3d28b2ee	0.041186266
215	0xbd15b298	-0.036547273
216	0xbc566417	-0.013085387
217	0xbcd635c5	-0.026148686
218	0xbb7c9f56	-0.003854712
219	0xbd63f9d7	-0.055658188
220	0xbd0fcd23	-0.035107743
221	0x3de1d41d	0.110267855
222	0x3c090dd2	0.008365111
223	0xbd62a5e2	-0.05533398
224	0xbbc1a4d7	-0.005909543
225	0xbd66fa88	-0.05639127
226	0x3d81f341	0.06345225
227	0x3b53c530	0.0032313578
228	0x3d87665e	0.06611322
229	0xbd713713	-0.058890413
230	0x3d96e67e	0.07368182
231	0x3dd4c635	0.103893675
232	0xbdbddfd3	-0.09271207
233	0x3da0146f	0.078163974
234	0xbd6f8540	-0.058476686
235	0x3d7e1196	0.06202849
236	0x3d5617a1	0.052268628
237	0x3db7aea1	0.08968855
238	0xbd9c244f	-0.07624113
239	0x3c3017fb	0.010747905
240	0xbd7ccd46	-0.0617192
241	0xbd92a002	-0.07159425
242	0xbd78cf1b	-0.060744386
243	0x3d5d255e	0.053990714
244	0xbdb44aa3	-0.08803298
245	0xbdb5a9bd	-0.08870266
246	0x3d2cbac6	0.04217031
247	0xbdb7363d	-0.08945892
248	0xbd1de4bd	-0.03854822
249	0xbdad9310	-0.084753156
250	0x3d85e1da	0.065372184
251	0xbd45ba4e	-0.048273377
252	0x3dd1b5da	0.102397636
253	0xbd77bd58	-0.060483307
254	0x3d9bb638	0.07603115
255	0xbd883ac5	-0.066518344

lstm.weight_hh_l0 f4 [512, 128]
0	0xbcff49e1	-0.031163158
1	0x3d013449	0.031544004
2	0x3d3c05a9	0.045903835
3	0x3d2dbc08	0.04241565
4	0x3d04eb81	0.032451157
5	0x3c212a90	0.009836808
6	0xbd88e04a	-0.06683405
7	0x3d4ae7f0	0.0495376
8	0xbd141c9f	-0.036160108
9	0xbda20170	-0.079104304
10	0xbc68e3dc	-0.014214482
11	0x3cb31262	0.021859352
12	0x3d12a471	0.035801355
13	0xbd4862fd	-0.048922528
14	0x3d0a99f7	0.03383824
15	0xbd02337a	-0.031787373
16	0xbd10695e	-0.035256736
17	0xbd6b9966	-0.05751934
18	0xbd3505b7	-0.044194903
19	0xbd634ce8	-0.055493265
20	0xbd8ed485	-0.06974129
21	0x3d1b2637	0.03787824
22	0x3d9750a1	0.073884256
23	0xbd4b5e72	-0.049650617
24	0xbd325574	-0.043538526
25	0xbd3a770d	-0.045523692
26	0xbbf58d81	-0.007493675
27	0xbd5dec12	-0.054180212
28	0xbd2ea48e	-0.0426374
29	0xbd80136e	-0.06253706
30	0x3c05dbab	0.008170049
31	0x3d6d9b5c	0.05800949
32	0xbd3cea59	-0.04612193
33	0xbd450812	-0.0481034
34	0x3c066ccc	0.00820465
35	0xbbcae634	-0.006191993
36	0xbd57e58c	-0.052709147
37	0xbcf29f48	-0.029616967
38	0xbd8e988b	-0.06962689
39	0xbb8a2a89	-0.0042164964
40	0x3ca38ce2	0.01996464
41	0x3d01ab56	0.03165754
42	0x3da56b60	0.08077121
43	0xbd22886c	-0.039680883
44	0xbd0919fd	-0.03347205
45	0xbc6e5f06	-0.014549023
46	0x3cd34f28	0.02579458
47	0x3c981acf	0.01856747
48	0xbd7e9cf7	-0.062161412
49	0x3d8a02a1	0.06738783
50	0x3cefc375	0.029268006
51	0xbd0d116e	-0.03444045
52	0x3d08abbc	0.033366904
53	0xbd57454b	-0.052556317
54	0xbd232b97	-0.039836492
55	0x3c044bf5	0.00807475
56	0xbd940153	-0.07226815
57	0x3d85df12	0.06536688
58	0x3c9da258	0.01924245
59	0xbd3f820b	-0.046754878
60	0x3da77f0c	0.08178529
61	0xbd592628	-0.053014904
62	0xbd9d713f	-0.076876156
63	0xbd37da8d	-0.04488616
64	0xbd7fc7b7	-0.062446322
65	0x3bac7622	0.005263106
66	0x3d872211	0.065982945
67	0x3b024928	0.001988003
68	0xbd7a9f6d	-0.061187197
69	0xbc28e51a	-0.010308528
70	0x3c4fa562	0.012673708
71	0xbd994b07	-0.074850135
72	0xbd0f0e77	-0.034925904
73	0xbd73f492	-0.059559412
74	0x3da5f0a2	0.08102538
75	0x3d5e90ee	0.054337434
76	0xbcc930f2	-0.024559472
77	0x3cc6c3e8	0.024263337
78	0xbb8f5dbc	-0.0043751877
79	0xbd5deab9	-0.054178927
80	0xbd531502	-0.051533706
81	0x3b57195f	0.0032821519
82	0xbdbf5e4e	-0.09344159
83	0x3c2e1391	0.010624782
84	0x3d8d20db	0.06891032
85	0xbcbacea7	-0.022803618
86	0xbb202d5b	-0.0024441096
87	0xbcf24293	-0.02957276
88	0x395c5865	0.00021013764
89	0xbcf5f5c0	-0.03002441
90	0xbcb1a0e5	-0.021683166
91	0x3dc1dabf	0.09465551
92	0x3daea66e	0.08527838
93	0xbd84c8ef	-0.064836375
94	0x3d90a5be	0.07062863
95	0xbd9850c1	-0.074372776
96	0x3c5370d1	0.0129053155
97	0xbd19d9a7	-0.037561085
98	0x3d30b6e8	0.043143183
99	0xbd371da9	-0.04470602
100	0x3d09e33a	0.033663966
101	0xbdafdb20	-0.08586717
102	0x37e868ec	2.7705413e-05
103	0xbd78f4c8	-0.060780317
104	0x3d82f152	0.063936844
105	0xbc944771	-0.018100472
106	0xbd8fb58e	-0.07017051
107	0x3d979fcd	0.074035265
108	0x3cebc390	0.028779775
109	0xbd7365b0	-0.05942315
110	0xbc2a0a5f	-0.010378449
111	0x3da05762	0.07829167
112	0xbd3394a4	-0.043842927
113	0x3d5168a5	0.051125187
114	0x3da76f3d	0.08175514
115	0xbd00c935	-0.031441886
116	0xbda4d834	-0.0804905
117	0x3ca4b6dd	0.020106727
118	0xbd0e0256	-0.034670196
119	0xbd73c2f3	-0.05951209
120	0x3da3d183	0.079989456
121	0x3c455ea5	0.012046491
122	0xbb932d6c	-0.0044914987
123	0xbd90e991	-0.07075799
124	0x3c3fdd23	0.011710438
125	0xbd3ce59a	-0.046117403
126	0xbdae3834	-0.08506814
127	0x3ce06f17	0.027396722
128	0x3d3679c2	0.04454971
129	0x3cd991fb	0.026558867
130	0x3d38adc6	0.0450876
131	0x3c358ca6	0.0110808965
132	0x384ec483	4.9297243e-05
133	0x3c6412fe	0.013920544
134	0x3c548af3	0.012972581
135	0x3d7a4ee8	0.061110407
136	0xbdaeb6d5	-0.08530966
137	0x3c8ce30c	0.017198108
138	0x3c7392b7	0.0148665225
139	0xbc6479e1	-0.013945074
140	0xbcafed1d	-0.02147537
141	0xbc9300cb	-0.017944714
142	0x3c73d590	0.01488246
143	0x3d0e1f88	0.03469804
144	0x3c9f1541	0.019419314
145	0xbd829c56	-0.06377475
146	0x3d1a5bbf	0.037685152
147	0x3d5c8c9b	0.05384503
148	0xbd94c2c4	-0.07263711
149	0x3b998c02	0.0046858797
150	0x3b98f1a3	0.004667477
151	0xbda48d41	-0.080347545
152	0xbcf4014d	-0.029785777
153	0xbc892727	-0.016742302
154	0x3d508e9c	0.050917253
155	0xbdacaa88	-0.08430964
156	0x3d4ec293	0.05047853
157	0x3c8b923b	0.017037502
158	0xbd06e102	-0.032929428
159	0x3da48bcf	0.08034479
160	0xbce448f0	-0.02786681
161	0x3d1f290a	0.038857497
162	0x3d5efd72	0.054440923
163	0x3aeb1cd9	0.0017937674
164	0xbba769e4	-0.0051090587
165	0x3d115b8d	0.0354877
166	0xbd109d72	-0.0353064
167	0xbc9ed1db	-0.019387176
168	0xbd72bf9f	-0.059264775
169	0xbd6112b3	-0.054949474
170	0x3db24e18	0.087063015
171	0xbceb99a8	-0.028759792
172	0x3d24f1c2	0.04026962
173	0x3d892688	0.066968024
174	0x3d45d990	0.048303187
175	0x3cead3c3	0.028665429
176	0x3c5d28dd	0.013498512
177	0x3cf15363	0.029458707
178	0x3d66536f	0.056231912
179	0xbd847660	-0.06467891
180	0xbd96c459	-0.07361669
181	0xbda1c217	-0.07898348
182	0xbc753f31	-0.014968679
183	0x3cdafdc4	0.026732333
184	0xbb6389a4	-0.0034719491
185	0x3d00fee5	0.031493086
186	0x3d759a2e	0.05996149
187	0xbbc2e56f	-0.005947761
188	0x3d6c3600	0.057668686
189	0x3cafd4f1	0.021463843
190	0xbbdd8ed7	-0.0067614126
191	0xbd03d496	-0.03218516
192	0x3d62da7f	0.055384155
193	0xbd0e9791	-0.034812514
194	0x3d403c4f	0.046932515
195	0xbd8992ca	-0.06717451
196	0xbd278f48	-0.040908128
197	0x3c11a606	0.008889681
198	0x3a176432	0.0005775123
199	0xbd8b5dbe	-0.06804989
200	0xbcf67082	-0.030082945
201	0xbc65b051	-0.014019088
202	0xbc8c16f7	-0.017100794
203	0x3d7b34ba	0.06132958
204	0xbd1a36c4	-0.037649885
205	0xbda2f5d2	-0.07957043
206	0xbbf5a457	-0.0074963975
207	0xbd643699	-0.05571613
208	0x3d29d5e2	0.04146374
209	0x3cf88c18	0.03034024
210	0xbd6bde66	-0.057585143
211	0xbc6c79cc	-0.0144333355
212	0xbd521522	-0.051289685
213	0xbcd8b555	-0.026453653
214	0xbda98f1f	-0.08279251
215	0x3c7f1adf	0.015570371
216	0x3dad1f52	0.084532395
217	0xbc44d386	-0.012013322
218	0x3bd6d5a1	0.0065562283
219	0xbbe78f81	-0.0070666675
220	0x3956f1d7	0.00020498723
221	0xbc6895cd	-0.014195872
222	0x3d05907a	0.032608487
223	0x3d01c47d	0.031681526
224	0xbbf43278	-0.0074523054
225	0xbd85e0d8	-0.06537026
226	0x3ca6388e	0.02029064
227	0xbd417bf8	-0.047237366
228	0xbd64010f	-0.055665072
229	0x3d62b2ab	0.055346172
230	0x3d22cf95	0.039748747
231	0xbd99c6cb	-0.0750862
232	0xbd0a3278	-0.033739537
233	0x3be262dd	0.006908758
234	0x3d3802ae	0.04492443
235	0xbd9aff3c	-0.07568213
236	0xbda444b2	-0.08020915
237	0x3d45aff7	0.048263516
238	0x3ccd9cd7	0.025099201
239	0xbc90cb5a	-0.01767509
240	0x3d8d003c	0.0688481
241	0x3d9e1916	0.077196285
242	0x3d1a5fed	0.03768914
243	0xbc8a6f94	-0.016898908
244	0xbce4eb03	-0.027944094
245	0x3d162af8	0.036662072
246	0xbd7c84dd	-0.061650146
247	0x3d06b963	0.032891642
248	0x3cd8c2b5	0.026460031
249	0x3dac3cb7	0.08410018
250	0xbc2bf7c5	-0.010496085
251	0xbcb3b234	-0.02193556
252	0xbd139401	-0.03602982
253	0xbd998408	-0.07495886
254	0x3d917da1	0.0710404
255	0x3ce70028	0.028198317

lstm.bias_ih_l0 f4 [512]
0	0x3df2fff0	0.118652225
1	0x3d39be1e	0.045347326
2	0x3d901c2f	0.070366256
3	0xbd0a24a2	-0.033726342
4	0x3db47ecc	0.08813247
5	0xbc199500	-0.009373903
6	0xbd17174e	-0.03688746
7	0xbd700e16	-0.058607183
8	0xbb2aa3b1	-0.002603751
9	0xbd054e35	-0.032545287
10	0xbc93c276	-0.018037062
11	0xbd9b9211	-0.07596219
12	0x3d99b12c	0.07504496
13	0x3c62e129	0.013847628
14	0x3dc8e9d6	0.09810226
15	0x3d8a8cf1	0.06765164
16	0x3db6ed01	0.08931924
17	0x3de7fcac	0.1132749
18	0x3d61d862	0.055138
19	0xbd830cc3	-0.063989185
20	0xbbad5ca8	-0.0052905865
21	0xbd7614cd	-0.06007843
22	0xbd48a3ac	-0.048984215
23	0xbc10e720	-0.008844167
24	0x3df0f135	0.117647566
25	0x3dd46283	0.10370352
26	0x3dc1a0ff	0.09454536
27	0xbc445b0f	-0.011984601
28	0xbcc384f7	-0.023867114
29	0xbd8206e4	-0.063489705
30	0xbce8129e	-0.02832919
31	0x3db6e326	0.08930044
32	0x3d1797aa	0.037009872
33	0x3daf34e2	0.085550085
34	0x3aa61cc5	0.0012673369
35	0xbd64031c	-0.055667028
36	0xbd5396d2	-0.051657505
37	0xbde2d2a0	-0.1107533
38	0x3c320c04	0.010867123
39	0x3dbc0f8f	0.09182655
40	0x3db7bf72	0.08972062
41	0x3e08a471	0.1334398
42	0x3d68314c	0.05668764
43	0x3c7881c1	0.0151676545
44	0x3a85a426	0.0010196015
45	0xbd70750e	-0.058705382
46	0xbd223651	-0.03960258
47	0x3d98d9c1	0.07463408
48	0x3dd3fde1	0.10351158
49	0x3da41193	0.080111645
50	0xbd5a1593	-0.05324323
51	0xbac29560	-0.0014845543
52	0x3dc8c5ba	0.09803338
53	0xbc30a59f	-0.010781675
54	0x3ccaaf52	0.024741802
55	0x3de3d70e	0.11125003
56	0xbc58fc91	-0.01324381
57	0x3da80e96	0.08205907
58	0x3d89c244	0.06726506
59	0x3d7bc15f	0.06146371
60	0x3da2cbd2	0.07949032
61	0x3ceced08	0.028921619
62	0xbcd3b615	-0.02584366
63	0x3d7c9ddc	0.061673984
64	0x3dd67a01	0.10472489
65	0x3d802c42	0.062584415
66	0x3cc6bb85	0.024259338
67	0x3d10e004	0.035369888
68	0xbd196390	-0.037448466
69	0x3dac8d4e	0.08425389
70	0x3d5e3e78	0.054258794
71	0x3d988926	0.07448034
72	0x3dea5a68	0.11443025
73	0x3d37d21d	0.044878114
74	0x3b7bad41	0.0038402828
75	0x3dc8d505	0.09806255
76	0xbd86c934	-0.06581345
77	0x3d42ccbc	0.04755853
78	0x3d81b3ce	0.06333123
79	0xbaccd2a9	-0.0015626746
80	0xbbb52b8a	-0.005528872
81	0xbc9d1b27	-0.019177986
82	0x3be7a26f	0.007068924
83	0x3d05ceec	0.03266804
84	0xbd0c67e1	-0.034278754
85	0x3d54c378	0.051944226
86	0x3daa3f2c	0.0831283
87	0x3d6a296d	0.057168413
88	0x3d87b8eb	0.06627067
89	0xbb01d3d1	-0.001981009
90	0xbcdb7b4b	-0.02679219
91	0xbd3ca3b3	-0.046054553
92	0x3d958382	0.07300474
93	0x3d746c59	0.05967364
94	0x3c8d5ade	0.017255243
95	0x3d92d188	0.07168871
96	0x3d811b45	0.063040294
97	0x3dba1191	0.09085382
98	0x3cce697f	0.025196789
99	0x3dd14ea5	0.102200784
100	0x3daad082	0.08340551
101	0x3d8c140b	0.068397604
102	0xbc3ff2df	-0.01171562
103	0x3d38ba70	0.045099676
104	0x3ce604c7	0.02807845
105	0x3ccd6fa6	0.025077652
106	0x3dac4dbc	0.08413264
107	0x3d02012d	0.031739403
108	0x3ca67ddc	0.020323686
109	0x3d934be7	0.071922116
110	0xbd31b145	-0.043381948
111	0x3c11c2e8	0.008896567
112	0x3dc5c7a4	0.09657219
113	0xbce950c8	-0.028480902
114	0x3d27b89d	0.040947545
115	0x3c8050da	0.015663553
116	0x3bc4231c	0.0059856307
117	0x3cbf2811	0.023334535
118	0xbd19811b	-0.03747664
119	0x3da718e3	0.08159044
120	0xbd16ab80	-0.03678465
121	0x3da5e2ed	0.08099923
122	0x3d7d90f3	0.061905812
123	0xbdb604fe	-0.08887671
124	0x3cb0aafe	0.02156591
125	0xbda04452	-0.07825531
126	0xbc8f157e	-0.017466303
127	0xbace40f7	-0.0015735914
128	0x3ac0005e	0.0014648547
129	0x3dd3b7c6	0.103377864
130	0x3d80d8df	0.06291365
131	0xbcafb915	-0.021450559
132	0x3e32c3c7	0.17457496
133	0x3d90b401	0.07065583
134	0x3dde7bef	0.10863482
135	0x3cc94b1e	0.024571951
136	0xbbe79b7a	-0.007068095
137	0x3dd9858a	0.10621174
138	0xbd24f871	-0.040275995
139	0xbcdce0ae	-0.026962604
140	0x3dc4319c	0.09579775
141	0xbd78b3ea	-0.060718454
142	0x3e0a11d0	0.13483357
143	0x3d63708e	0.055527262
144	0x3d5eeca9	0.054424915
145	0x3dc8afcf	0.09799158
146	0x3d796342	0.060885675
147	0xbd4636af	-0.048391994
148	0xbba7cac0	-0.005120605
149	0xbcb7ee1e	-0.02245241
150	0x3d807397	0.06272047
151	0x3d54d8fe	0.051964752
152	0x3dfd50aa	0.12368901
153	0x3dd68b38	0.104757726
154	0x3d317b62	0.043330558
155	0x3e1bf8fe	0.15231702
156	0xbc79cdc4	-0.015246812
157	0x3dcc1023	0.09964015
158	0x3df4e8cd	0.11958466
159	0x3e07cfc8	0.13262856
160	0xbc99d9d4	-0.018780626
161	0xbd28ab9b	-0.04117928
162	0xbd274151	-0.040833775
163	0x3d0b031c	0.033938512
164	0x3e18ceaf	0.14922594
165	0x3e3062bf	0.17225169
166	0x3d5b0476	0.05347105
167	0x3eaded3d	0.3397006
168	0x3dc8c645	0.09803442
169	0xbd2891fd	-0.04115485
170	0xbd8c7714	-0.0685865
171	0x3db52862	0.08845593
172	0xbc9fbc23	-0.01949889
173	0x3d1773d6	0.036975704
174	0x3de527b2	0.11189212
175	0x3d4e0df9	0.050306294
176	0x3dd635c3	0.10459473
177	0x3de269a0	0.110553026
178	0x3dd15eae	0.10223137
179	0x3d202498	0.0390974
180	0xbd42ce4a	-0.047560014
181	0x3d9d7c7d	0.0768976
182	0x3c0fc860	0.0087758005
183	0x3c7ca91c	0.015421178
184	0x3dfa3d06	0.122186705
185	0xbd465968	-0.04842511
186	0x3db9ab15	0.090658344
187	0xbcdea506	-0.027178299
188	0x3e1114ce	0.14168093
189	0x3cdb9ed0	0.026809126
190	0x3d23f5e5	0.040029425
191	0x3de15208	0.11001974
192	0x3df17c66	0.11791305
193	0xbd624c1d	-0.05524837
194	0xbbf88a77	-0.0075848657
195	0x3e0e2549	0.1388141
196	0x3d02a90f	0.031899508
197	0xbd589457	-0.052875843
198	0x3e0c6565	0.13710554
199	0xbd293144	-0.04130675
200	0x3cf2c27f	0.029633759
201	0x3cad6c8c	0.021169923
202	0xbd148fe8	-0.036270052
203	0x3de29384	0.110632926
204	0x3d15b555	0.036549885
205	0x3d678804	0.0565262
206	0x3d8822b6	0.066472456
207	0xbd882b4d	-0.06648884
208	0xbcf247e5	-0.029575298
209	0x3c9a082f	0.01880273
210	0x3d65aa1b	0.05607043
211	0x3d98d7aa	0.0746301
212	0x3e3a707f	0.18206976
213	0x39ddc320	0.00042297784
214	0xbd676553	-0.056493115
215	0x3d26948c	0.04066901
216	0x3e13ca6b	0.14432685
217	0xbd780188	-0.060548335
218	0x3ccf8dbd	0.02533614
219	0xbb639f7a	-0.0034732507
220	0x3d70c760	0.05878389
221	0xbbb585a6	-0.005539614
222	0xbd9a5ab0	-0.075368285
223	0xbc570dc5	-0.0131258415
224	0x3b7610e3	0.0037546686
225	0x3db593f2	0.08866109
226	0x3da9cf11	0.08291448
227	0x3e0197c5	0.12655552
228	0x3deffef6	0.11718552
229	0x3dc2f8b8	0.095200956
230	0x3d10d1b6	0.035356246
231	0xbc8476b6	-0.016169887
232	0xbace3922	-0.001573358
233	0xbcae713f	-0.021294234
234	0xbd90f4a4	-0.070779115
235	0x3ced51a6	0.028969597
236	0xbd9b2524	-0.075754434
237	0x3d98b8c5	0.07457117
238	0x3ba893d2	0.0051445747
239	0x3db85e95	0.09002415
240	0x3d76acd5	0.06022342
241	0x3d126de8	0.035749346
242	0x3db4645a	0.08808203
243	0x3d374541	0.04474378
244	0x3e06722c	0.1312949
245	0x3cf351aa	0.029702026
246	0x3cd38c04	0.0258236
247	0xbcb684b5	-0.022280077
248	0x3d71cdb4	0.059034064
249	0x3e16c08e	0.14721891
250	0x3d9511b2	0.07278766
251	0x3f0eaa76	0.5572885
252	0x3d351191	0.044206206
253	0xbcfd42a4	-0.030915566
254	0x3e12bbac	0.14329404
255	0xbd8e3119	-0.069429584

lstm.bias_hh_l0 f4 [512]
0	0xbb5fe891	-0.003416572
1	0xbaf0cc76	-0.0018371481
2	0x3dd000f4	0.10156432
3	0xbc01e3b1	-0.007927821
4	0x3d53b932	0.051690288
5	0xbd6f3af4	-0.05840583
6	0x3d5309c3	0.05152298
7	0x3cfff643	0.031245356
8	0x3da2ef95	0.07955853
9	0x3cccbc5b	0.024992159
10	0xbd891202	-0.06692888
11	0xbcd2d4bd	-0.025736207
12	0x3d04e9b3	0.032449435
13	0xbd1bd80e	-0.038047843
14	0x3e054256	0.13013586
15	0x3d62b4e7	0.055348303
16	0xbc08b699	-0.008344316
17	0x3de6448f	0.11243545
18	0x3e27d636	0.16390309
19	0x3d94d92b	0.07267984
20	0x3d881aeb	0.06645759
21	0xbb0592a8	-0.0020381603
22	0x3d47c328	0.0487701
23	0x3c870394	0.016481198
24	0x3d181734	0.037131503
25	0x3c789ec5	0.015174572
26	0xbd777069	-0.060409937
27	0x3e0c5410	0.13703942
28	0xbd08fa76	-0.033441983
29	0x3c439481	0.011937262
30	0x3dc4cc3c	0.09609267
31	0x3e3a677d	0.1820354
32	0x3e18281c	0.1485905
33	0x3cc0cb0f	0.023534326
34	0x3c3b19a3	0.0114196865
35	0x3d268406	0.04065325
36	0x3da9793b	0.08275076
37	0x3c10f962	0.00884852
38	0x3daeb1ca	0.08530004
39	0x3e203974	0.15646917
40	0x3d01c882	0.03168536
41	0x3d012e8b	0.031538527
42	0xbd9ad540	-0.075602055
43	0x3db1688a	0.08662517
44	0x3d0fe355	0.03512891
45	0xba806270	-0.0009794962
46	0x3dd7d485	0.10538582
47	0x3d09266a	0.0334839
48	0xbc834702	-0.01602507
49	0x3db74a33	0.08949699
50	0xbd2f3647	-0.042776372
51	0x3d193c2f	0.03741091
52	0x3da155cf	0.07877695
53	0xbb27a4c7	-0.0025580393
54	0xbd75a7d6	-0.059974514
55	0xbd4bffda	-0.049804546
56	0x3d824089	0.06359965
57	0x3ca678fb	0.02032136
58	0xbcb4e984	-0.022084005
59	0xbd1d70a1	-0.03843749
60	0xbc4abc22	-0.012373956
61	0x3d9865df	0.07441305
62	0xbbc8534b	-0.006113445
63	0xbd5c8902	-0.0538416
64	0x3d93836f	0.07202803
65	0xbd9f486c	-0.07777485
66	0x3dc39caf	0.095513694
67	0xbc91a450	-0.017778546
68	0xbcc49d69	-0.02400084
69	0xbd627617	-0.0552884
70	0xbd1497bd	-0.03627752
71	0x3d2da49b	0.042393308
72	0x3d6d4dd3	0.057935547
73	0x3de566bc	0.11201236
74	0x3da043f9	0.07825465
75	0xbcac1ce4	-0.02100987
76	0x3d8abf1a	0.06774731
77	0x3d0a5c84	0.033779636
78	0xbccafd01	-0.024778845
79	0xbbf14be2	-0.0073637823
80	0x3dadc15a	0.084841445
81	0xbd946876	-0.07246487
82	0x3dc22bf0	0.09481037
83	0xbd82f17b	-0.06393715
84	0x3d5d3a81	0.05401087
85	0xbc4dbd23	-0.012557301
86	0xbd074580	-0.033025265
87	0x3e1d10cb	0.15338437
88	0x3dba73a0	0.09104085
89	0xbd9ebcbc	-0.07750842
90	0x3dba2801	0.090896614
91	0xbccf9595	-0.025339881
92	0x3bbe2a32	0.00580337
93	0xbd852f5b	-0.06503173
94	0x3c8dc941	0.01730788
95	0xbd0e0ad3	-0.03467829
96	0x3da649f2	0.08119573
97	0x3d00b839	0.03142569
98	0x3dc858bf	0.09782552
99	0x3bf132fd	0.0073608146
100	0xbab8b413	-0.0014091752
101	0x3d8bc438	0.06824535
102	0xbc1f0140	-0.009704888
103	0x3d3b135b	0.045672756
104	0xbc8e28fa	-0.017353524
105	0xbd555025	-0.052078385
106	0x3d6232bc	0.055224165
107	0xbb1f6d1a	-0.0024326504
108	0xbd818a48	-0.06325203
109	0xbd7f67e9	-0.062354956
110	0x3d882ac0	0.06648779
111	0x3cc5ba0c	0.024136566
112	0x3b7bcbce	0.0038421038
113	0xbd885297	-0.06656378
114	0x3d1b3eca	0.037901677
115	0x3c86a57b	0.01643633
116	0x3dbc81ee	0.092044696
117	0xbcddc0b0	-0.02706942
118	0x3d5ecd7c	0.054395184
119	0xbc278ba4	-0.010226164
120	0x3cfdc3e8	0.030977204
121	0xbcc18c04	-0.023626335
122	0x3e1aa71a	0.15102807
123	0xbd9ca38f	-0.07648384
124	0xbd374ab3	-0.044748973
125	0x3d0ad6f8	0.033896416
126	0xbc69881d	-0.014253643
127	0x3d0d1f8b	0.03445391
128	0x3c9b00d3	0.018921291
129	0x3dd8ec3d	0.10591934
130	0x3bc0cc79	0.00588375
131	0x3d82c602	0.06385423
132	0x3e26b26f	0.16279005
133	0x3d79e23b	0.061006766
134	0x3de11a88	0.109913886
135	0xbab36f70	-0.0013689827
136	0xbc497e3b	-0.012298162
137	0xbcffada1	-0.031210722
138	0xbcbd45b6	-0.02310453
139	0xbd90b70b	-0.07066163
140	0x3d0479e3	0.032342803
141	0x3cd26a82	0.025685553
142	0x3d86a1f9	0.065738626
143	0x3da475f1	0.08030308
144	0xbd128670	-0.03577274
145	0x3db68585	0.089121856
146	0x3d794ea5	0.060866017
147	0x3d86a987	0.065753035
148	0x3daf1bd6	0.08550231
149	0x3d01824e	0.03161841
150	0x3e04d354	0.1297124
151	0x3d2e3ac8	0.042536527
152	0x3e0d6815	0.13809235
153	0x3d989e44	0.07452062
154	0xbd552828	-0.05204025
155	0x3e1e02fd	0.15430827
156	0x3cc81f70	0.024429053
157	0x3d5458a6	0.051842354
158	0x3d553a01	0.05205727
159	0x3e0d9f4b	0.13830297
160	0xbcbbb10a	-0.022911567
161	0xbd329505	-0.043599147
162	0x3d2026dc	0.03909956
163	0xbd2f0b73	-0.04273553
164	0x3e0b3bc1	0.13597013
165	0x3e7601bf	0.24024104
166	0x3e11e7c7	0.14248572
167	0x3ea993d1	0.33120587
168	0xbd70b965	-0.058770556
169	0x3dfaa918	0.12239283
170	0x3cfbca93	0.030736243
171	0x3d869411	0.0657121
172	0xbb2c0cf3	-0.0026252836
173	0xba2857fa	-0.0006421801
174	0xbd0b14a6	-0.03395524
175	0x3d0c5524	0.034260884
176	0x3c4051ad	0.011738223
177	0x3da895ed	0.08231721
178	0x3c5d1835	0.013494541
179	0xbd1a0a1e	-0.037607305
180	0x3c9da056	0.019241493
181	0x3cacd476	0.021097403
182	0xbd8cca89	-0.06874568
183	0xbd0ec0c7	-0.034851816
184	0x3df7c855	0.12098757
185	0x3d500690	0.05078751
186	0x3ae3f457	0.0017391545
187	0x3e025716	0.12728533
188	0xbc969fa4	-0.01838667
189	0x3d185acb	0.037195962
190	0xbc7d7a5c	-0.015471067
191	0x3912cb28	0.00013999327
192	0x3d9b9f5c	0.07598755
193	0xbd37aaed	-0.044840742
194	0x3dd9d105	0.106355704
195	0x3d5dbbcf	0.054134186
196	0x3c34cee0	0.011035651
197	0xbc975b36	-0.01847611
198	0x3d6a5e27	0.057218697
199	0x3db5340d	0.088478185
200	0x3ccf4915	0.025303403
201	0x3cc03004	0.023460396
202	0xbd87a043	-0.06622364
203	0x3dbcde2f	0.09222066
204	0x3d90c736	0.070692465
205	0xbd7e6a63	-0.062113177
206	0x3d0f6faf	0.03501862
207	0x3da24a60	0.07924342
208	0x3db98816	0.090591595
209	0xbd88b921	-0.066759355
210	0x3df9d4ae	0.121987686
211	0xbcaea541	-0.021319034
212	0x3e12b5ea	0.14327207
213	0xbd1c0777	-0.038093057
214	0xbd698823	-0.057014596
215	0x3d8d2dde	0.06893514
216	0x3d46dfb7	0.048553195
217	0xbd2ecb99	-0.042674635
218	0x3d65b22f	0.056078132
219	0xbd76404e	-0.06011992
220	0xbd8fcc2a	-0.07021363
221	0x3cecd1d4	0.028908648
222	0xbd88fe1a	-0.06689091
223	0x3dab8588	0.083750784
224	0x3d905197	0.07046812
225	0x3d2aa8db	0.04166494
226	0x3dd8a8bd	0.10579059
227	0x3db78f5c	0.089628905
228	0x3dce0ffa	0.10061641
229	0x3e449234	0.19196397
230	0x3d0baaed	0.034098554
231	0xbd582b81	-0.052775864
232	0xbd1d4ccc	-0.038403317
233	0xbd36b68a	-0.044607677
234	0x3cfc4945	0.030796656
235	0x3ba41341	0.005007178
236	0x3d79e38b	0.061008018
237	0xbda19ef7	-0.07891648
238	0x3cc3e6ec	0.023913823
239	0x3dbff833	0.09373512
240	0x3c927ac8	0.017880812
241	0xba224f13	-0.00061915925
242	0x3d0749fb	0.033029538
243	0x3d24d81d	0.040245164
244	0x3d967ecb	0.073484026
245	0xbd09bc0c	-0.0336266
246	0x3d9129b6	0.07088034
247	0xbce39b2e	-0.027783956
248	0xbd0da7fb	-0.034584027
249	0x3c50d812	0.012746828
250	0x3e2f98d9	0.1714815
251	0x3f16b4eb	0.5886981
252	0x3d503d6e	0.050839834
253	0x3db426a1	0.087964304
254	0x3d28c25b	0.041200977
255	0x3d70b367	0.05876484

lstm.weight_ih_l1 f4 [512, 128]
0	0xbd8a5996	-0.067553684
1	0x3cdd32de	0.027001794
2	0xbd9aa2b1	-0.07550562
3	0x3bdf3062	0.0068111876
4	0xbcbb6c46	-0.022878777
5	0xbd916167	-0.07098656
6	0x3bb0d523	0.0053965016
7	0x3d80dc78	0.06292051
8	0x3d930702	0.07179071
9	0xbd7eb7bb	-0.062186938
10	0xbd3c6302	-0.04599286
11	0xbc20aa30	-0.009806201
12	0x3d9f01cc	0.077640146
13	0xbce158f1	-0.02750823
14	0xbd894b1f	-0.06703781
15	0xbc803908	-0.015652195
16	0x3d9876c6	0.07444529
17	0xbda94157	-0.08264416
18	0x3d19dc94	0.037563875
19	0x3d8549dc	0.06508228
20	0x3b9ba889	0.0047503156
21	0xbd8c9125	-0.068636216
22	0x3c552571	0.013009415
23	0xbdacdef1	-0.0844096
24	0x3d23a949	0.039956365
25	0x3d37efab	0.0449063
26	0xbd5eeb3c	-0.054423556
27	0x3db377b5	0.08763067
28	0x3d061889	0.032738242
29	0xbd9b425b	-0.07581016
30	0xbd3cdf90	-0.046111643
31	0x3c82b343	0.01595462
32	0xbc73492f	-0.014848991
33	0x3cf81159	0.03028171
34	0x3c9ab31f	0.01888424
35	0xbd661362	-0.05617083
36	0xbd95b80c	-0.07310495
37	0x3c32bf76	0.010909906
38	0xbd1eeda1	-0.03880084
39	0x3bef6970	0.0073062703
40	0x3d66ede5	0.056379218
41	0xbd9af8d0	-0.075669885
42	0xbd183df5	-0.03716846
43	0x3d8abfe2	0.0677488
44	0xbdb077f8	-0.08616632
45	0xbd41f4aa	-0.04735247
46	0x3d85bab3	0.06529751
47	0xbac58002	-0.0015068057
48	0xbc7440c2	-0.014908018
49	0x3a6ce5c7	0.0009036925
50	0x3d7da8b4	0.061928466
51	0xbd2f78e2	-0.042839892
52	0xbd6e845a	-0.05823169
53	0xbd4469e1	-0.047952536
54	0xbdaaaaf5	-0.08333389
55	0xbd9bcd52	-0.07607521
56	0x3d23387d	0.039848793
57	0xbc05be3d	-0.008163032
58	0x3c14f089	0.009090551
59	0x3cd32951	0.025776537
60	0x3c4d0d5c	0.012515392
61	0x3d3623ce	0.04446774
62	0x3d75b328	0.05998531
63	0xbb324c80	-0.0027206242
64	0xbd6db8ce	-0.05803757
65	0x3da20eed	0.07913003
66	0x3dae1c69	0.085015126
67	0x3d9c89a7	0.076434426
68	0xbd72f3f0	-0.05931467
69	0xbd8537d0	-0.06504786
70	0x3da3d161	0.0799892
71	0x3da3c2c6	0.079961345
72	0xbd3d5f4f	-0.04623347
73	0x3c863c38	0.016386136
74	0x3c9840ca	0.018585581
75	0x3cd52cfa	0.026022423
76	0xbd590cd6	-0.052990757
77	0x3c911453	0.017709887
78	0xbb1d9fb6	-0.0024051494
79	0xbda7eb9e	-0.08199237
80	0x3d8ec43f	0.06971025
81	0x3cbbb365	0.02291269
82	0x3d6735ff	0.05644798
83	0x3b7fc510	0.003902737
84	0xbcb3a425	-0.021928856
85	0xbd0f7c16	-0.035030447
86	0xbbc97514	-0.00614799
87	0xbc9205a9	-0.017824965
88	0xbc055a13	-0.008139151
89	0x3db077e0	0.08616614
90	0xbd5c7f35	-0.05383225
91	0x3d6cb212	0.05778701
92	0xbd84afdb	-0.06478854
93	0x3d963dd4	0.073360115
94	0x3d7e77e2	0.062126048
95	0x3d39a174	0.04531999
96	0xbda1f581	-0.07908154
97	0xbd72a853	-0.059242558
98	0x3caf5add	0.021405632
99	0x3c169dad	0.009192866
100	0x3d72ecfe	0.059308045
101	0xbb614cca	-0.0034378045
102	0xbd8931f0	-0.06698978
103	0xbc1567b9	-0.009118968
104	0x3d87339c	0.066016406
105	0xbd9b917a	-0.07596107
106	0x3db2d9a8	0.08732921
107	0xbd249e4c	-0.040190026
108	0x3d90d57f	0.07071971
109	0x3cf74a28	0.030186728
110	0xbdae5ed1	-0.085141785
111	0x3daf4e6d	0.085598804
112	0xbd6fd2a8	-0.058550507
113	0xbd9f09d4	-0.077655464
114	0xbd81f13f	-0.06344842
115	0xbd26f60b	-0.04076199
116	0xbdabd26b	-0.083897434
117	0x3c851e69	0.016249852
118	0x3d4d6e03	0.050153743
119	0xbd82ed24	-0.06392887
120	0x3d36378d	0.04448657
121	0x3cf90864	0.030399509
122	0x3da25dd3	0.07928052
123	0x3c9019c2	0.017590407
124	0xbd505ac6	-0.05086782
125	0x3d1ba473	0.037998628
126	0xbd0b15a6	-0.033956192
127	0x3c485088	0.012226231
128	0xbd7f292a	-0.062295116
129	0x3aaec031	0.0013332424
130	0xbceecd43	-0.02915061
131	0xbaf92c4f	-0.0019010397
132	0xbd4f73c2	-0.050647505
133	0x3d43dc3b	0.04781745
134	0x3c5aa100	0.013344049
135	0xbbebbf88	-0.007194463
136	0xbae17967	-0.0017202318
137	0x3d585e0a	0.052824058
138	0xbd944964	-0.07240561
139	0x3cb18d62	0.021673862
140	0xbd1d5eff	-0.038420673
141	0xbd8f9127	-0.070101075
142	0x3ce8679b	0.028369715
143	0xbd9419a0	-0.0723145
144	0x3d94502c	0.07241854
145	0xbd084a47	-0.03327396
146	0xbda24df5	-0.079250254
147	0xbd37b4c4	-0.044850126
148	0x3d1ad34f	0.037799176
149	0x3d94ef04	0.07272151
150	0xbd679ce3	-0.056546103
151	0x3d398a04	0.045297638
152	0x3d8d3e9d	0.06896708
153	0xbd837b5a	-0.06420012
154	0x3da39c97	0.079888515
155	0xbd71ee4b	-0.059065145
156	0x3da05ab5	0.07829801
157	0xbd111027	-0.035415795
158	0x3d4278bb	0.04747842
159	0x3db25efb	0.08709522
160	0x3ba2f85c	0.0049734544
161	0xbce50f3e	-0.02796137
162	0x3d2e0964	0.042489424
163	0xbd8aea60	-0.06782985
164	0x3d3a184a	0.04543332
165	0x3d7ae5ad	0.061254192
166	0xbcc77c64	-0.024351306
167	0xbb4f36ae	-0.0031618285
168	0x3cef298c	0.029194616
169	0xbd58584b	-0.052818578
170	0xbd6d3520	-0.057911992
171	0x3da796a3	0.081830285
172	0xbd40823d	-0.046999205
173	0xbd8d92ec	-0.06912789
174	0x3aebbdc0	0.0017985627
175	0xbd59b1de	-0.053148143
176	0xbc44bd27	-0.012007988
177	0x3d93f7a0	0.07224965
178	0x3da6339f	0.08115315
179	0x3d69f8f3	0.057122182
180	0xbda6484c	-0.08119258
181	0xbd9e6f08	-0.07736021
182	0x3d4b3237	0.049608435
183	0x3d246e6a	0.04014436
184	0xbd789d40	-0.06069684
185	0xbb7b1a3a	-0.0038315193
186	0xbd723997	-0.059136953
187	0xbd858c6c	-0.06520924
188	0xbbc3f88f	-0.005980558
189	0xbc72118f	-0.014774694
190	0x3d65d5de	0.056112163
191	0xbc6be6f4	-0.014398325
192	0xbd73253c	-0.05936168
193	0x3d02a6e3	0.031897437
194	0x39078192	0.00012922872
195	0x3d78f233	0.060777854
196	0xbd020706	-0.03174498
197	0x3c96046b	0.018312654
198	0x3c1e7423	0.009671244
199	0xbd7be276	-0.061495267
200	0xbd6b2b36	-0.057414256
201	0xbd0c5f07	-0.034270313
202	0x3d03a2ad	0.03213756
203	0x3c017a89	0.00790275
204	0xbd353cc2	-0.044247396
205	0xbd8a3b5d	-0.06749604
206	0xba717a4d	-0.00092116446
207	0xbd38ed7a	-0.04514835
208	0x3c3f17e7	0.011663414
209	0x3cea84f9	0.02862786
210	0x3cb61592	0.022227082
211	0xbbb2169c	-0.005434824
212	0xbd9efbc6	-0.07762866
213	0xbd0b2a0b	-0.033975642
214	0x3d34dab5	0.044153888
215	0xbd82b113	-0.063814305
216	0x3c8ba219	0.017045068
217	0xbcf5ec3f	-0.030019877
218	0x3c6b8b08	0.014376409
219	0x3d21890d	0.039437342
220	0x3c7ff016	0.015621206
221	0xbdb55990	-0.08854973
222	0xbd2b987b	-0.041893464
223	0xbbb3a7c7	-0.005482647
224	0xbcef33a1	-0.029199423
225	0xbd985b4f	-0.07439291
226	0x3d8a7b2c	0.067617744
227	0xbd760524	-0.060063496
228	0x3cee7ceb	0.0291123
229	0x3d5676af	0.05235928
230	0x3c800108	0.015625492
231	0xbc36248f	-0.011117115
232	0xbd6d287e	-0.057899944
233	0xbda7b702	-0.08189203
234	0xbd9b8164	-0.07593039
235	0xbafcab88	-0.0019277195
236	0xbdadd05b	-0.08487006
237	0xbc996305	-0.018723974
238	0x3d649bd2	0.055812664
239	0xb8a920d8	-8.0646656e-05
240	0x3d80270d	0.06257448
241	0x3c984c3c	0.018591039
242	0xbd244b33	-0.040110778
243	0xbd80e24f	-0.06293165
244	0x3d720861	0.059090022
245	0xbcf500d9	-0.02990763
246	0x3d9ed07b	0.07754608
247	0x3d8ddd38	0.0692696
248	0x3d049aa1	0.032374028
249	0xbcca8d7d	-0.02472567
250	0x3d71bc99	0.05901775
251	0xbcb62751	-0.022235544
252	0x3d563cdc	0.052304134
253	0x3cafe2f2	0.02147052
254	0xbd6d61a8	-0.05795446
255	0xbd8ab1da	-0.06772204

lstm.weight_hh_l1 f4 [512, 128]
0	0x3c48f5bd	0.01226562
1	0x3d910b43	0.07082226
2	0xbd9ebcea	-0.07750876
3	0x3d7a2fd8	0.061080784
4	0x3d9b68d5	0.075883545
5	0xbd93a902	-0.0720997
6	0xbd25c623	-0.04047216
7	0xbd70f0a5	-0.058823247
8	0xbdb4c9bc	-0.0882754
9	0xbd5ae0e5	-0.053437132
10	0xbd04c577	-0.03241488
11	0x3dafb962	0.08580281
12	0xbd10352a	-0.03520695
13	0xbd6c525d	-0.057695735
14	0xbd429521	-0.0475055
15	0xbd85e442	-0.06537677
16	0xbcdd4861	-0.027012052
17	0x3d8d1c83	0.06890204
18	0x3d9e52b2	0.07730617
19	0x3db7a89d	0.08967707
20	0x3cd810b2	0.026375148
21	0xbd05b84e	-0.03264647
22	0x3d4c635f	0.049899455
23	0x3d8a338c	0.06748113
24	0xbc9c1274	-0.019051768
25	0xbd779cc2	-0.06045223
26	0xbdaf9681	-0.08573628
27	0xbd888c6b	-0.066674076
28	0x3baf7440	0.0053544343
29	0xbd7476b0	-0.0596835
30	0xbdb95fd3	-0.0905148
31	0x3d0b39e6	0.033990763
32	0x3a8e2892	0.0010845831
33	0xbd26b924	-0.040703908
34	0xbd42bcbe	-0.04754328
35	0x3bc44ae9	0.0059903753
36	0x3bb495cd	0.0055110217
37	0x3dae7296	0.08517949
38	0x395b56ba	0.00020917776
39	0xbc954cfa	-0.018225182
40	0x3da5a8c1	0.08088828
41	0xbcf5e9a4	-0.030018635
42	0xbd9658e6	-0.07341175
43	0xbd936dc7	-0.07198673
44	0xbaa29ed2	-0.0012406951
45	0x3ca418ec	0.020031415
46	0x3b2cf8d0	0.002639342
47	0x3db203ad	0.08692107
48	0x3c2d978c	0.010595214
49	0xbd2315c4	-0.03981568
50	0xbc5896d4	-0.013219554
51	0x3d4a8063	0.049438845
52	0x3afb60e4	0.0019178656
53	0x3cf6e660	0.030139148
54	0x3d25af18	0.040450186
55	0x3d8834ca	0.06650694
56	0xbcda9228	-0.02668102
57	0x3dae9792	0.085250035
58	0xbd5f00ec	-0.05444424
59	0x3d09cbcd	0.033641625
60	0xbd3e235e	-0.046420448
61	0xbda47545	-0.0803018
62	0xbd538d07	-0.051648166
63	0x3d76c78e	0.060248904
64	0xbad4bf67	-0.0016231359
65	0xbd53219e	-0.05154573
66	0xbd45a904	-0.04825689
67	0xbd4f2f44	-0.050582185
68	0xbd8506f4	-0.06495467
69	0xbd229d6c	-0.03970091
70	0xbd93b74c	-0.072126955
71	0xbd81a8e8	-0.063310444
72	0xbcf5333d	-0.029931659
73	0xbd113ce3	-0.035458457
74	0x3cb01b20	0.02149731
75	0xbc90412f	-0.017609207
76	0x3d87df1b	0.06634351
77	0xbc3e9c4d	-0.011633945
78	0xbda0c551	-0.07850135
79	0xbcfeb38e	-0.031091478
80	0xbd8dd7a1	-0.069258936
81	0x3cbe9376	0.023263674
82	0x3d8d13b4	0.06888524
83	0xbd5676cc	-0.052359387
84	0x3d82296c	0.06355557
85	0x3ccf27ff	0.025287626
86	0xbd55db28	-0.052210957
87	0xbd69b52b	-0.05705754
88	0x3d944d12	0.072412625
89	0xbda37809	-0.07981879
90	0x3d869424	0.06571224
91	0x3d809ecc	0.06280288
92	0x3d6522fe	0.055941574
93	0xbd92e032	-0.07171668
94	0xbd284363	-0.04107989
95	0xbcb9c502	-0.022676948
96	0xbcf29a25	-0.029614517
97	0x3c25fb99	0.010130786
98	0x3c8b420a	0.016999263
99	0xbc943d22	-0.018095557
100	0x3d209a98	0.039209932
101	0x3c82d2db	0.015969684
102	0xbd1b19ac	-0.03786628
103	0x3c1f2a37	0.009714655
104	0xbcb040ab	-0.021515211
105	0xbcebf0eb	-0.028801402
106	0x3d181e8a	0.0371385
107	0xbd8f6286	-0.07001214
108	0xbd925b2c	-0.07146296
109	0xbcd1627b	-0.025559654
110	0x3ccffa82	0.025388006
111	0xba243604	-0.00062641525
112	0x3bf32ed3	0.0074213534
113	0xbd07f411	-0.033191744
114	0xbaa063ef	-0.0012236814
115	0x3d37bc21	0.044857148
116	0x3d803a12	0.06261076
117	0x3bee4bb5	0.0072722086
118	0xbc83b231	-0.01607618
119	0xbd978175	-0.07397739
120	0x3d29aea9	0.041426335
121	0x3b9f1f04	0.0048559923
122	0xbd9cf414	-0.07663742
123	0x3d6236dc	0.0552281
124	0xbce3abc3	-0.027791863
125	0xbd54eea4	-0.051985398
126	0xbd6cdea2	-0.057829507
127	0x3d8873eb	0.066627346
128	0x3d87aed6	0.06625144
129	0xba77bd3b	-0.00094505
130	0x3d8a8b1d	0.06764815
131	0xbc3e3e68	-0.0116115585
132	0xbcb600fd	-0.022217268
133	0x3d87f00b	0.066375814
134	0x3d3a10b3	0.045426082
135	0xbd5240dc	-0.051331386
136	0xbd9c66cb	-0.07636794
137	0xbcb0c748	-0.0215794
138	0x3d2ea617	0.042638864
139	0xbd9e0956	-0.077166244
140	0xbd6d3b1d	-0.057917703
141	0xbd67d7c4	-0.056602255
142	0xbc7da622	-0.015481504
143	0x3c246e40	0.010036051
144	0x3bc5498b	0.00602073
145	0x3b082824	0.0020775879
146	0xbd888b34	-0.06667176
147	0xbd3ab1a9	-0.045579586
148	0xbd563606	-0.052297615
149	0x3bbdb2cb	0.005789136
150	0x3c70ab33	0.014689255
151	0xbc1148cc	-0.008867454
152	0x3d10be66	0.035337828
153	0xbd81f290	-0.06345093
154	0x3c03486e	0.008012874
155	0xbcdedde5	-0.027205417
156	0x3cb18464	0.021669574
157	0xbda8134f	-0.08206808
158	0x3d06a195	0.03286894
159	0x3d2756e2	0.040854342
160	0x3cf332ba	0.029687274
161	0x3d90858c	0.07056722
162	0xbd544279	-0.051821206
163	0x3ce34e90	0.027747422
164	0x3d2d2022	0.042266972
165	0x3d4ef928	0.050530583
166	0x3d838435	0.06421701
167	0x3ce11908	0.027477756
168	0xbd3216c8	-0.043478757
169	0xbd37b420	-0.044849515
170	0x3da7cbf0	0.08193195
171	0xbd15cead	-0.036574055
172	0xbd386e88	-0.045027286
173	0x3d1886f6	0.037238084
174	0xbd49cd54	-0.04926808
175	0x3d0b67b1	0.034034435
176	0x3d64c81f	0.055854913
177	0xbc527b5c	-0.012846794
178	0xbb8972fa	-0.0041946145
179	0xbd8c9d09	-0.068658896
180	0xbb30ea66	-0.002699518
181	0xbd327b48	-0.0435746
182	0xbd9833bf	-0.07431745
183	0xbd02ded5	-0.03195079
184	0xbd92abec	-0.07161698
185	0xbd7c135f	-0.06154191
186	0xbd52d5b9	-0.051473353
187	0x3d0722b9	0.0329921
188	0x3cf39ef8	0.029738888
189	0x3d43532c	0.04768674
190	0x3acb0a0b	0.0015490664
191	0x3d014012	0.031555243
192	0xbd3e8b13	-0.04651935
193	0x3d98eb31	0.07466734
194	0xbd302680	-0.043005466
195	0x3d972849	0.07380731
196	0xbda66b1a	-0.08125897
197	0x3d80ff8e	0.06298743
198	0xbd51ffeb	-0.051269453
199	0xbd872a06	-0.06599812
200	0xbd33b026	-0.04386916
201	0xbcbdc4b3	-0.023165083
202	0x3d66787d	0.05626725
203	0x3d06a2f7	0.03287026
204	0xbd5b32ae	-0.05351513
205	0xbd99a0cb	-0.07501372
206	0x3d8fd9ba	0.0702395
207	0x3d03ce96	0.032179438
208	0x3da067c1	0.078322895
209	0xbd8bb7f8	-0.06822199
210	0x3d3d26e0	0.046179652
211	0xbcdeae5c	-0.02718275
212	0xbc9f1a70	-0.019421786
213	0x3db24577	0.087046556
214	0xbd9d9075	-0.076935686
215	0x3d84a529	0.06476814
216	0x3a9615e6	0.0011450618
217	0xbcf7f7fc	-0.030269615
218	0xbca6ee9c	-0.02037745
219	0xbc7bba0e	-0.015364183
220	0xbda70d18	-0.08156794
221	0x3c8dbc21	0.01730162
222	0x3d6bd427	0.05757537
223	0x3d04689f	0.032326337
224	0xbd194f6b	-0.037429255
225	0x3d389f9e	0.045074098
226	0xbd6c3c62	-0.057674773
227	0x3d51de67	0.05123749
228	0xbc26a6f4	-0.010171641
229	0xbc474011	-0.012161271
230	0xbc8cd41c	-0.017190985
231	0x3ca75c87	0.020429863
232	0x3d96593a	0.07341237
233	0x3d84cdcb	0.064845644
234	0xbd62d7f7	-0.05538174
235	0x3d6bfc60	0.05761373
236	0x3caa39b0	0.02077946
237	0xbd488af2	-0.048960634
238	0x3c6ab0b9	0.0143243605
239	0x3d1c7097	0.03819331
240	0x3d02bfd9	0.03192124
241	0xbdabd72e	-0.08390652
242	0x3d24b95a	0.040215828
243	0xbd886884	-0.0666056
244	0xbc71fa7c	-0.014769193
245	0x3d4b376c	0.0496134
246	0x3d639265	0.055559535
247	0xbda61621	-0.081096895
248	0x3d506db9	0.05088589
249	0xbcb85672	-0.022502158
250	0x3d1be8bd	0.038063753
251	0x3ccac00f	0.024749784
252	0xbd895ace	-0.06706773
253	0x3d14e7a6	0.03635373
254	0xbd44a731	-0.04801101
255	0x3d159092	0.036514826

lstm.bias_ih_l1 f4 [512]
0	0x3d34265f	0.043981906
1	0xbd4f957b	-0.050679665
2	0x3da3ff68	0.08007699
3	0x3d2358e3	0.03987969
4	0x3db31e91	0.087460645
5	0x3cfebe12	0.031096492
6	0x3cfdbde8	0.030974343
7	0x3cfd5bc4	0.030927546
8	0xbb83f7a0	-0.004027322
9	0x3d903f7b	0.07043358
10	0x3db8fb26	0.09032278
11	0xbd07a8ee	-0.03312009
12	0x3dfb272f	0.12263333
13	0x3e073797	0.132048
14	0x3e087160	0.13324499
15	0x3d730911	0.05933482
16	0xbd7b74b8	-0.06139061
17	0x3dc085dd	0.094005324
18	0xbc09b1f1	-0.008404241
19	0x3d9c8fa9	0.076445885
20	0x3da6607d	0.081238724
21	0xbd3e737e	-0.04649686
22	0x3df9fb09	0.12206084
23	0x3d8be90c	0.068315595
24	0xbd233d0d	-0.039853144
25	0x3dab7bcd	0.083732225
26	0x3d336af2	0.043803163
27	0x3db82f07	0.08993345
28	0x3d82c11a	0.063844875
29	0xbce50aed	-0.027959311
30	0x3dc7dc53	0.097588204
31	0xbd126f9c	-0.03575097
32	0xbc7fbf26	-0.015609538
33	0x3dd19a13	0.102344655
34	0x3d913c59	0.070915885
35	0x3cfa7eb4	0.030577995
36	0x3d2b0299	0.041750524
37	0x3e014584	0.12624174
38	0xbcba13b4	-0.022714473
39	0x3db85176	0.089999124
40	0xbaff6f19	-0.0019488066
41	0x3d505064	0.050857916
42	0x3dd01333	0.10159912
43	0x3d54d8d4	0.051964596
44	0x3df0eb00	0.11763573
45	0x3e088615	0.13332398
46	0x3d9bc99a	0.07606812
47	0x3ca4e862	0.02013034
48	0x3cffb595	0.031214515
49	0x3db39732	0.087690726
50	0x3d5d845e	0.054081313
51	0x3c9f5fc5	0.019454846
52	0x3d868d4c	0.06569919
53	0x3d936120	0.071962595
54	0x3da1466c	0.0787476
55	0x3d914a1b	0.070942126
56	0x3d3719ff	0.044702526
57	0x3b2daa8d	0.0026499361
58	0x3ba597cc	0.005053496
59	0x3d9fc617	0.078014545
60	0x3d7f45ff	0.062322613
61	0x3d11d4ad	0.035603214
62	0xbc885e50	-0.016646534
63	0xbcd73fb6	-0.026275497
64	0x3dc33a61	0.09532619
65	0x3cc1fc4b	0.023679873
66	0x3db377cc	0.08763084
67	0xbc8c7add	-0.01714843
68	0x395452ae	0.00020248696
69	0xba754902	-0.00093568873
70	0xbd1cebd9	-0.03831086
71	0x3dd80222	0.10547282
72	0x3e08b76c	0.1335122
73	0x3e106e37	0.14104544
74	0x3d8c846e	0.068611965
75	0x3d35b44c	0.044361398
76	0x3d6c30d1	0.057663742
77	0xbce760e5	-0.028244445
78	0x3d2bbf0d	0.041930247
79	0xbd1a27a7	-0.03763547
80	0xbba025fb	-0.00488734
81	0x3dc959f2	0.09831609
82	0x3d6ec160	0.058289886
83	0x3c2a9e85	0.010413771
84	0x3d1d1dd4	0.038358524
85	0x3d3dba4b	0.04632024
86	0x3d940dfd	0.072292306
87	0x3d9b0ffb	0.075714074
88	0xbca5c649	-0.020236151
89	0x3d7622ba	0.06009171
90	0xbd87a13e	-0.066225514
91	0x3ddd2b5a	0.10799284
92	0xbceac473	-0.028658127
93	0x3cea9fab	0.028640589
94	0xbcd9928c	-0.026559137
95	0x3d9c438c	0.07630071
96	0x3d8c0f18	0.068388164
97	0x3d3ec412	0.046573706
98	0xbc8e9e85	-0.017409572
99	0xbb1c9111	-0.0023890177
100	0x3dc959e1	0.09831596
101	0x3db87d70	0.090083
102	0x3defbe9a	0.11706276
103	0x3d855f90	0.06512368
104	0xbd348cf2	-0.04407973
105	0x3d4222be	0.047396414
106	0xbcbc8f92	-0.023017678
107	0x3d5121e8	0.051057726
108	0xbcd48f0a	-0.025947113
109	0xbd1a4bcd	-0.037669946
110	0x3cde48ad	0.027134264
111	0x3c70a769	0.014688351
112	0x3cc77901	0.024349691
113	0x3bd49afc	0.006488202
114	0xbc21b41f	-0.009869604
115	0x3df9d6ca	0.12199171
116	0x3d387c26	0.045040272
117	0xbd91f3e5	-0.07126597
118	0x3dd44f9f	0.10366749
119	0x3b2d3136	0.0026427037
120	0x3dae084e	0.08497678
121	0x3d9bd80a	0.076095656
122	0x3d9bf4a2	0.076150194
123	0x3d614a98	0.05500278
124	0x3d6e230a	0.058138885
125	0x3ded51a1	0.11587835
126	0x3df48a18	0.11940402
127	0xbcd0936a	-0.025460918
128	0x3da55a59	0.08073873
129	0xbd983466	-0.07431869
130	0x3db5ca7d	0.08876512
131	0x3d8ebfe5	0.06970195
132	0xbd70fcf0	-0.05883497
133	0x3c6fa9a3	0.014627847
134	0x3dca9a09	0.09892661
135	0xbcf82436	-0.030290704
136	0x3d34ec23	0.04417051
137	0xbbca0852	-0.0061655426
138	0x3d96bea5	0.07360581
139	0x3d5132b4	0.051073745
140	0x3d475b98	0.048671335
141	0x3e1a6570	0.15077758
142	0x3e5d7c95	0.21629556
143	0x3e0aed74	0.13567144
144	0x3d0ea635	0.034826476
145	0xbcad916b	-0.021187505
146	0x3c21e644	0.00988156
147	0x3caa52a4	0.02079136
148	0x3db80f38	0.08987278
149	0xbd82dbaf	-0.063895576
150	0x3de2dabe	0.11076878
151	0x3d4313b8	0.047626227
152	0x3d8e9b3e	0.06963204
153	0x3d9e530b	0.07730683
154	0xbd27302b	-0.04081742
155	0x3d192ada	0.037394382
156	0x3c0a2961	0.008432717
157	0x3cc3e97b	0.023915043
158	0x3d48099e	0.048837297
159	0x3cc00116	0.023438018
160	0x3c499aee	0.0123050045
161	0x3e3a2e98	0.18181837
162	0x3e4253f4	0.18977338
163	0xbd62f83d	-0.05541252
164	0x3d288833	0.041145515
165	0x3e191600	0.14949799
166	0xbd1dba1a	-0.03850756
167	0x3c467877	0.012113682
168	0x3c90c378	0.017671332
169	0x3ca8f4ae	0.020624485
170	0x3e0ab3a3	0.13545088
171	0x3cab69f6	0.02092455
172	0x3da3047b	0.07959839
173	0x3e95c2cc	0.2925018
174	0xbc569a52	-0.013098316
175	0xbca1a29b	-0.019730857
176	0x3cddbdb8	0.027068004
177	0x3dc401af	0.095706336
178	0x3e056da2	0.13030103
179	0x3b307540	0.0026925355
180	0x3e156832	0.14590529
181	0xbc028055	-0.007965167
182	0x3df852e9	0.12125189
183	0x3df54d51	0.119776376
184	0xbd567954	-0.0523618
185	0x3d12832d	0.03576963
186	0x3d7b2be0	0.06132114
187	0xbc838c80	-0.016058207
188	0x3de2cdd4	0.11074415
189	0x3ca2ecfe	0.019888397
190	0x3cf35526	0.029703688
191	0xbd6b6de9	-0.057477865
192	0x3dcd7527	0.10032111
193	0x3e03e6e6	0.1288105
194	0xbd3f24fc	-0.04666613
195	0x3d471108	0.048600227
196	0xbcd1b232	-0.025597665
197	0x3e0fd20d	0.14044972
198	0xbcfb0456	-0.030641716
199	0xbc1f4d30	-0.009722993
200	0x3e36ab76	0.17838845
201	0x3e2cd642	0.16878608
202	0xbd126034	-0.035736278
203	0xbcd749bf	-0.026280282
204	0x3cfe0969	0.031010346
205	0xbbb41047	-0.0054951045
206	0x3c4eec52	0.012629585
207	0x3dc05957	0.0939204
208	0xbcb72224	-0.022355147
209	0x3da9a99e	0.08284305
210	0x3c9be6c3	0.019030934
211	0xbd9c189a	-0.0762188
212	0x3cecad0e	0.028891113
213	0x3e0b904d	0.13629265
214	0xbd1b2622	-0.037878163
215	0x3d513776	0.051078282
216	0xbb67cf4d	-0.0035371364
217	0x3ced2fd9	0.02895348
218	0xbd8925c4	-0.06696656
219	0x3e276141	0.16345693
220	0x3c265c76	0.01015388
221	0xbc3f07ad	-0.011659545
222	0x3cd0c955	0.025486628
223	0x3da462b5	0.08026639
224	0xbb96511b	-0.0045873052
225	0x3e33dd21	0.17564823
226	0xbce52a79	-0.027974354
227	0x3d5d381e	0.054008596
228	0x3cd10a0d	0.025517488
229	0x3e17ab40	0.1481142
230	0x3d52251b	0.051304918
231	0x3cf2bb1e	0.02963024
232	0xbd32702f	-0.043564018
233	0x3e08a59e	0.13344428
234	0x3d9c9e8f	0.0764743
235	0x3da825c5	0.08210329
236	0x3cd259ab	0.025677523
237	0x3d92dd2a	0.0717109
238	0x3d7ed998	0.062219232
239	0x3d921c15	0.071342625
240	0x3deaacbc	0.11458728
241	0x3d1f849f	0.038944837
242	0xbc11e804	-0.0089054145
243	0xbca182b5	-0.019715646
244	0xbd5f2f78	-0.05448863
245	0x3da10665	0.07862548
246	0xbcde69e7	-0.027150108
247	0x3b83818e	0.004013247
248	0x3c4f63bb	0.012658055
249	0x3e9cc692	0.30620247
250	0xbd06f8d9	-0.032952163
251	0x3d8d25c7	0.06891971
252	0x3dd3f084	0.10348609
253	0x3dbd8e08	0.09255606
254	0x3dab9dd0	0.0837971
255	0x3dc64624	0.09681347
