models/2.2.1-lstm-network-model-test-28x2.pth (torch, 43466 bytes, 10 tensors)

lstm.weight_ih_l0 f4 [112, 3]
0.13455297 -0.060940646 -0.04807699 0.22340207 -0.119788386 -0.10788223 0.22081774 0.055534594
-0.013978688 0.02632135 -0.1536083 0.11357372 0.23693861 -0.08542063 -0.17767793 0.07410124
-0.020615818 -0.1627152 -0.15141003 0.21412547 -0.08345946 0.011651249 -0.108182535 -0.037187926
-0.09209349 -0.044940062 -0.19756112 -0.08208112 -0.025818283 -0.008391746 0.16001208 -0.049099483
-0.20613003 -0.09738084 -0.085275136 0.18139212 -0.016657328 0.031926814 -0.4477066 -0.11842752
-0.34636703 -0.024406947 0.16202451 0.07829556 -0.32396817 0.032689594 -0.31447065 0.1844218
-0.2527954 -0.2705921 0.09297269 -0.031966224 0.056184936 0.12852138 -0.17135061 -0.21822411
0.20173907 -0.05712068 -0.02507734 0.15655227 0.063098125 -0.18137294 -0.16773711 0.3066185
-0.26594272 -0.55622363 -0.17927127 -0.0073689767 -0.08009017 -0.12085993 0.16140507 -0.07248079
-0.24111335 -0.18640329 0.21689275 0.069105834 0.06392623 0.13837267 0.17748085 0.21118775
-0.38996905 -0.19784693 -0.061085444 0.099612765 0.22035103 -0.037744712 -0.12376406 0.3661441
-0.26767772 -0.11767599 0.2018859 0.029545432 -0.17268974 -0.12611255 0.08496565 -0.040544264
0.4416098 -0.45243302 -0.5756229 0.41385368 -0.31706843 -0.18648095 -0.18729289 -0.06750396
0.084258676 0.044172283 0.04679944 -0.16979724 0.040238082 -0.07764531 0.020697113 -0.4352399
-0.042981382 0.104675785 -0.048665803 0.12731686 -0.24899381 -0.11685136 -0.03007352 0.107008815
-0.25047433 0.09126503 -0.10014546 0.06324374 -0.35472408 -0.1362358 0.20987672 0.02992788
-0.48399368 0.020608673 -0.22566003 -0.035102405 -0.1793387 0.008073732 -0.16144831 0.13495623
0.012313481 -0.05321681 0.030190762 -0.12200012 -0.063470945 0.088997036 0.13966049 0.0044774637
-0.07286133 0.114207394 -0.24072978 0.3574403 -0.5485507 -0.69479126 -0.027922967 0.06624686
0.0012853912 -0.22149488 0.09215276 -0.16304949 -0.20911027 -0.13112068 -0.08423303 -0.122228876
-0.10649619 0.10787462 0.032570153 0.09965812 0.03905239 -0.17837584 -0.05985631 0.070268035
-1.0658085 0.6059052 0.46709663 0.27773666 -0.77832 -1.1458813 0.49927223 0.31130186
0.14337689 0.80591756 -0.10221449 -0.4719723 -0.82851845 -1.551873 -0.9742551 -0.37652805
-0.62731415 -0.5129482 -0.90371835 0.3440574 0.7525533 0.38767532 0.0035907049 -0.06345129
-0.59663403 -0.2898442 0.55665994 -1.0756006 -0.072532795 0.8519597 0.48855627 -0.045228608
0.30147633 0.53326786 -0.10050864 -0.038122572 0.8581011 0.2775476 -1.0728996 1.0134946
0.8623328 0.66858125 -0.17186786 1.3243635 -0.0010328477 -1.28684 -0.08059146 -0.20708145
0.27007857 0.2670421 -0.053022105 -0.21372925 0.101178326 0.14557478 0.65602 0.36993766
0.009235748 -0.07840169 -0.09891655 0.013547999 -1.2062223 0.27442986 -0.12490789 0.946941
1.4350243 -0.5843615 -0.73594373 0.11540669 0.2319595 0.8333282 -0.42359528 -0.13198237
0.77185553 0.19993617 -0.6232292 0.4174425 -0.037153807 -0.24009672 0.416323 0.32006672
-0.5883783 -0.37314913 -0.027438484 0.28041872 0.11174832 -0.087083936 0.015518578 0.056444455
00000000: 41c8 093e e69c 79bd 61ec 44bd 83c3 643e
00000010: 9d53 f5bd 5cf1 dcbd 0c1e 623e 3e78 633d
00000020: de06 65bc df9f d73c 7f4b 1dbe 5799 e83d
00000030: 09a0 723e 03f1 aebd 34f1 35be 64c2 973d
00000040: 81e2 a8bc d09e 26be 3b0b 1bbe b543 5b3e
00000050: cbec aabd e1e4 3e3c ce8e ddbd 5e52 18bd
00000060: 839b bcbd 1213 38bd 764d 4abe 251a a8bd
00000070: dd80 d3bc 897d 09bc 35da 233e 8a1c 49bd
00000080: c013 53be 9b6f c7bd bba4 aebd dbbe 393e
00000090: f374 88bc b1c5 023d cd39 e5be 218a f2bd
000000a0: 0557 b1be 14f1 c7bc c1e9 253e 6c59 a03d
000000b0: 28df a5be 86e5 053d 4c02 a1be 11d9 3c3e
000000c0: 666e 81be 0c8b 8abe 7768 be3d 04ef 02bd
000000d0: 2d22 663d 1c9b 033e 8976 2fbe 2476 5fbe
000000e0: b094 4e3e 60f7 69bd fe6e cdbc 3d4f 203e
000000f0: 9739 813d d4b9 39be 47c3 2bbe 1afd 9c3e
00000100: a529 88be ac64 0ebf e392 37be 7577 f1bb
00000110: 5106 a4bd 6985 f7bd 5f47 253e cf70 94bd
00000120: 6be6 76be 81e0 3ebe 2219 5e3e 5c87 8d3d
00000130: c1eb 823d 91b1 0d3e 8abd 353e 9a41 583e
00000140: 06aa c7be 6398 4abe bb34 7abd c701 cc3d
00000150: b3a3 613e 339a 1abd 0378 fdbd 3d77 bb3e
00000160: 0e0d 89be 1c00 f1bd 2dbb 4e3e 4309 f23c
00000170: 94d5 30be a623 01be 7902 ae3d be11 26bd
00000180: ae1a e23e 4da5 e7be 065c 13bf a1e4 d33e
00000190: cb56 a2be ddf4 3ebe b5c9 3fbe 843f 8abd
000001a0: d08f ac3d ffed 343d c5b0 3f3d 54df 2dbe
000001b0: b0d0 243d 8104 9fbd fe8c a93c c4d7 debe
000001c0: 3f0d 30bd 4260 d63d cb55 47bd 5a5f 023e
000001d0: 3cf8 7ebe c44f efbd be5c f6bc 7027 db3d
000001e0: 2c3e 80be 29e9 ba3d 1019 cdbd ef85 813d
000001f0: 659e b5be 6681 0bbe ece9 563e 502b f53c
00000200: 05ce f7be 85d3 a83c 6c13 67be 8ac7 0fbd
00000210: 90a4 37be b047 043c b552 25be f731 0a3e
00000220: 7cbe 493c dff9 59bd 9e52 f73c 33db f9bd
00000230: 0efd 81bd 1444 b63d 2903 0f3e b0b7 923b
00000240: 5238 95bd 91e5 e93d de81 76be 6a02 b73e
00000250: d26d 0cbf d7dd 31bf b5be e4bc 6fac 873d
00000260: 927a a83a 8ecf 62be 96ba bc3d 72f6 26be
00000270: 0121 56be 8044 06be 5e82 acbd 2253 fabd
00000280: ad1a dabd 5eed dc3d 4868 053d 8e19 cc3d
00000290: 66f5 1f3d 28a8 36be e42b 75bd b0e8 8f3d
000002a0: 6a6c 88bf 9a1c 1b3f 4a27 ef3e 8033 8e3e
000002b0: fb3f 47bf 3dac 92bf 9ca0 ff3e f562 9f3e
000002c0: 64d1 123e 9d50 4e3f d555 d1bd 5aa6 f1be
000002d0: c919 54bf c6a3 c6bf c868 79bf 49c8 c0be
000002e0: a997 20bf 9350 03bf 165a 67bf 4b28 b03e
000002f0: 55a7 403f 617d c63e 0852 6b3b c0f2 81bd
00000300: 02bd 18bf 7566 94be 4481 0e3f 48ad 89bf
00000310: 138c 94bd 081a 5a3f 0c24 fa3e a241 39bd
00000320: 1b5b 9a3e 3e84 083f 79d7 cdbd 6a26 1cbd
00000330: 84ac 5b3f b81a 8e3e c654 89bf 31ba 813f
00000340: d8c1 5c3f 2428 2b3f 21fe 2fbe be84 a93f
00000350: 9e60 87ba 2cb7 a4bf 230d a5bd 290d 54be
00000360: bd47 8a3e beb9 883e b52d 59bd d7db 5abe
00000370: 9536 cf3d 8e11 153e edf0 273f 7868 bd3e
00000380: 8951 173c 1191 a0bd c394 cabd 6df8 5d3c
00000390: 7e65 9abf 1282 8c3e b5cf ffbd ba6a 723f
000003a0: e0ae b73f b798 15bf cf66 3cbf 585a ec3d
000003b0: cb86 6d3e ff54 553f 7be1 d8be 6326 07be
000003c0: 5398 453f 11bc 4c3e f38b 1fbf 06bb d53e
000003d0: 972e 18bd eadb 75be 4a28 d53e c9df a33e
000003e0: f69f 16bf 670d bfbe acc6 e0bc 0b93 8f3e
000003f0: 4edc e43d 1059 b2bd a241 7e3c 4d32 673d

lstm.weight_hh_l0 f4 [112, 28]
0.04440727 0.13777554 -0.06358001 -0.07274819 0.0458588 0.11731885 0.064513855 -0.08037624
-0.076105386 0.11415371 0.15201192 -0.040851388 0.012369943 -0.07165266 0.0804568 -0.03293719
0.009370459 -0.09494552 -0.13843654 -0.033965714 -0.12699293 0.022394637 0.0650273 0.07382533
-0.14554392 0.16671991 -0.12258428 0.10753961 0.08006752 0.14517517 0.07782561 0.060717124
0.24648435 -0.15355267 -0.066030584 -0.17138386 0.103179485 -0.09312903 0.06220986 0.09250205
0.088376634 -0.063090034 0.002408302 -0.023907458 0.1492035 -0.21219775 -0.09846938 0.099198215
0.07537909 -0.079084426 0.017669674 -0.26903963 -0.08676175 -0.08492396 -0.020537712 -0.15247476
0.13179347 -0.09816731 0.027833143 0.15791264 0.11123062 0.12975565 -0.06911129 -0.15430695
0.037091438 -0.1566232 0.13825254 -0.033389747 0.14035326 0.14914638 -0.15250129 -0.10876743
0.041122284 0.18050519 -0.1028696 0.010400501 -0.14965105 -0.08594308 -0.14828648 0.11992467
0.07835182 -0.046580825 0.19563548 0.0048848703 -0.075275354 0.01134623 -0.17603567 -0.113617554
-0.08534423 -0.033180084 0.0027631684 0.004650013 0.110503584 -0.018330712 0.1853624 -0.05927998
0.12370447 0.041048065 0.089841366 0.060828414 0.08641798 0.043345354 -0.008607645 0.0721454
0.16968341 -0.07964775 -0.028242385 -0.13667575 0.027115902 -0.02192477 -0.026696661 -0.12524319
-0.10058993 0.18399525 -0.027410667 0.11493533 0.085318156 -0.15624514 -0.16722374 0.0393673
-0.26716843 -0.10761943 -0.01215318 -0.06316155 0.103074096 -0.15333194 0.25010735 0.08647697
0.059623323 0.06700829 -0.055330146 0.07650469 0.03144899 0.14227137 -0.02998609 -0.2241184
0.1457869 0.067353435 0.069236636 0.029594747 -0.21296075 0.1427571 0.040689018 -0.025842393
-0.029281821 0.019015038 0.022819512 0.16826862 -0.14501888 0.049753264 -0.1204168 0.06274827
-0.1607256 -0.18171021 0.14807402 -0.061056085 -0.02662852 0.07115789 -0.08989617 0.16742939
0.19067505 -0.20907211 -0.059390012 0.038444687 -0.13123739 0.03484621 -0.14802934 -0.04217626
0.106326826 0.051969968 -0.027170697 -0.17629248 0.008690855 -0.064943664 -0.0041903444 0.09757358
0.087446526 0.14870021 0.04386646 -0.2156964 0.063590325 0.14976163 -0.122660354 0.18657996
0.059043646 0.05588139 -0.062382065 0.12252128 0.17237619 0.21655111 0.099312946 0.06441732
-0.019388035 0.0038616194 -0.0010214727 0.078469396 -0.13584433 0.1691704 -0.1580126 0.040351458
-0.18887712 -0.08021618 0.17968743 -0.0067563164 0.1458843 0.15669794 -0.13705191 -0.0705082
0.19524187 -0.010039738 0.099253185 -0.09913884 0.0005154795 0.12515122 0.20484626 -0.15970029
0.12830243 0.19159935 -0.13674453 0.09346075 0.16082019 -0.045986086 -0.1022549 -0.05146381
-0.041478503 0.14421889 -0.12181486 -0.1470421 -0.19336027 -0.18309888 0.11963382 0.1634221
0.19484138 -0.004474158 0.12515812 -0.19679093 0.19401605 -0.15386456 -0.11639075 0.12223941
0.023542639 0.08247228 0.17154127 -0.071822554 -0.008738996 0.016277561 0.1322176 0.11375672
-0.10126068 -0.15015939 -0.12658806 0.009902288 0.118484035 -0.13786276 0.10244016 -0.08801479
00000000: 66e4 353d 0815 0d3e 3c36 82bd 01fd 94bd
00000010: 70d6 3b3d dd44 f03d d71f 843d 4c9c a4bd
00000020: 24dd 9bbd 6cc9 e93d 03a9 1b3e c953 27bd
00000030: 4dab 4a3c a1be 92bd 89c6 a43d 26e9 06bd
00000040: 8e86 193c cc72 c2bd 4fc2 0dbe a21f 0bbd
00000050: 6f0a 02be f574 b73c 082d 853d bc31 973d
00000060: 7709 15be a0b8 2a3e 780d fbbd ba3d dc3d
00000070: 71fa a33d cda8 143e 0963 9f3d 85b2 783d
00000080: 6566 7c3e e93c 1dbe 0b3b 87bd 407f 2fbe
00000090: c44f d33d 6fba bebd c4cf 7e3d b771 bd3d
000000a0: cffe b43d 5935 81bd 9ad4 1d3b 93d9 c3bc
000000b0: cdc8 183e 5e4a 59be 50aa c9bd 6f28 cb3d
000000c0: 5a60 9a3d 04f7 a1bd febf 903c 90bf 89be
000000d0: 25b0 b1bd 9dec adbd b43e a8bc 5822 1cbe
000000e0: def4 063e f10b c9bd 5502 e43c dab3 213e
000000f0: e1cc e33d aade 043e 388a 8dbd a402 1ebe
00000100: 31ed 173d d561 20be 1392 0d3e b0c3 08bd
00000110: c4b8 0f3e d4b9 183e 4c29 1cbe 75c1 debd
00000120: d76f 283d 5ad6 383e 4cad d2bd dd66 2a3c
00000130: 203e 19be ed02 b0bd 69d8 17be 119b f53d
00000140: eb76 a03d 89cb 3ebd ab54 483e 4311 a03b
00000150: f729 9abd 8ae5 393c b242 34be 52b0 e8bd
00000160: f5c8 aebd d7e7 07bd 4616 353b 235f 983b
00000170: b44f e23d 4a2a 96bc a4cf 3d3e 90cf 72bd
00000180: c558 fd3d 0422 283d c0fe b73d 3727 793d
00000190: e9fb b03d e68a 313d 1407 0dbc f8c0 933d
000001a0: 7dc1 2d3e 5c1e a3bd 935c e7bc baf4 0bbe
000001b0: 2b22 de3c 939b b3bc f5b2 dabc c03f 00be
000001c0: 1802 cebd 4069 3c3e 568c e0bc 3763 eb3d
000001d0: 49bb ae3d bafe 1fbe b33c 2bbe 9b3f 213d
000001e0: 4dca 88be 9367 dcbd 221e 47bc d85a 81bd
000001f0: 8318 d33d 0c03 1dbe 120e 803e d61a b13d
00000200: 9637 743d a43b 893d dda1 62bd 7eae 9c3d
00000210: a8d0 003d 96af 113e 63a5 f5bc 4b7f 65be
00000220: 2949 153e 99f0 893d f0cb 8d3d af70 f23c
00000230: 6212 5abe eb2e 123e 87a9 263d 6db3 d3bc
00000240: 6ee0 efbc 6dc5 9b3c fcef ba3c 9c4e 2c3e
00000250: d47f 14be 14ca 4b3d 159d f6bd 2a82 803d
00000260: 4095 24be 3e12 3abe b7a0 173e f215 7abd
00000270: 0e24 dabc 3abb 913d 7c1b b8bd 9c72 2b3e
00000280: 5240 433e 0017 56be f142 73bd 2d78 1d3d
00000290: 1863 06be e6ba 0e3d 0195 17be 04c1 2cbd
000002a0: e1c1 d93d 76de 543d 1595 debc 0486 34be
000002b0: 1664 0e3c 2f01 85bd 284f 89bb a8d4 c73d
000002c0: 2a17 b33d de44 183e 51ad 333d 84df 5cbe
000002d0: a53b 823d 1d5b 193e 5a35 fbbd d10e 3f3e
000002e0: c0d7 713d e2e3 643d 5684 7fbd 70ec fa3d
000002f0: 6283 303e 93bf 5d3e 9664 cb3d 3aed 833d
00000300: a8d3 9ebc 3913 7d3b f0e2 85ba 90b4 a03d
00000310: c71a 0bbe 013b 2d3e 0ece 21be 9247 253d
00000320: 0169 41be 6148 a4bd fbff 373e 1764 ddbb
00000330: b262 153e 6d75 203e 5657 0cbe 9a66 90bd
00000340: 7ced 473e b77d 24bc 4145 cb3d 4e09 cbbd
00000350: 3e21 073a a427 003e 38c3 513e 7988 23be
00000360: b661 033e 9f32 443e c206 0cbe 5a68 bf3d
00000370: 0cae 243e e85b 3cbd 046b d1bd b7cb 52bd
00000380: 5de5 29bd 1eae 133e 127a f9bd 3492 16be
00000390: 3c00 46be 467e 3bbe 9402 f53d 1f58 273e
000003a0: 8084 473e f59b 92bb 7329 003e 9083 49be
000003b0: 25ac 463e ac8e 1dbe 465e eebd a858 fa3d
000003c0: 7edc c03c 3ae7 a83d 84a8 2f3e b417 93bd
000003d0: 022e 0fbc 8558 853c 0d64 073e 49f9 e83d
000003e0: c261 cfbd 62c3 19be 4da0 01be 353d 223c
000003f0: c2a7 f23d e52b 0dbe 26cc d13d 1941 b4bd

lstm.bias_ih_l0 f4 [112]
0.11261892 -0.01469793 -0.049053777 0.1602959 0.35459593 0.05560688 -0.06628392 -0.10582521
-0.13807018 -0.09794487 0.10146731 0.103091516 0.11050575 0.279625 0.38134426 -0.019543728
-0.1883613 -0.0023168973 -0.008374358 -0.12383224 -0.069969036 0.30695283 -0.17647237 0.20036256
-0.11023666 -0.043957863 0.09748648 -0.10671311 0.16938019 0.074851885 -0.14000414 -0.07540065
0.21153732 0.13883348 -0.07060672 0.19712313 0.14092147 0.13370809 0.02466802 -0.079167165
0.027808605 -0.12392612 0.14038454 -0.0007930408 -0.17423587 0.13910666 0.05805524 0.04710375
0.24048996 0.045175083 0.21016394 0.19803783 0.13901182 0.10449612 0.0051521254 -0.03419743
0.08711304 -0.39198455 0.0046144975 0.08236128 -0.096821465 -0.22160013 -0.018221619 0.08819637
-0.0891645 -0.010656056 0.16411476 8.079051e-06 -0.10054764 0.27522278 0.21518755 -0.5438041
-0.06216648 -0.22408232 0.24478629 -0.055139244 -0.03249269 0.42541483 -0.12310259 -0.028259642
0.077995576 0.23771358 -0.1331728 -0.062932536 0.18619406 0.37403262 0.007699857 0.20736212
0.6780981 0.28486964 0.16928239 -0.06688646 -0.013162411 0.36148205 0.24999058 -0.117105015
-0.041317288 0.17837298 0.24094489 -0.16179264 -0.057648122 -0.17997403 0.2540587 -0.17145427
0.06842028 0.32011303 0.14776778 -0.030640874 -0.011105983 0.056747343 -0.05986858 0.19493529
00000000: c0a4 e63d 96cf 70bc 9dec 48bd 9c24 243e
00000010: 998d b53e 0ac4 633d ddbf 87bd e3ba d8bd
00000020: 4562 0dbe 5297 c8bd 18ce cf3d a521 d33d
00000030: d750 e23d 022b 8f3e 8e3f c33e 2b1a a0bc
00000040: c9e1 40be 16d7 17bb 9a34 09bc c29b fdbd
00000050: ed4b 8fbd ec28 9d3e 2cb5 34be d82b 4d3e
00000060: c2c3 e1bd 290d 34bd fea6 c73d 678c dabd
00000070: 0072 2d3e f24b 993d 3f5d 0fbe a86b 9abd
00000080: 3d9d 583e 5d2a 0e3e 429a 90bd a5da 493e
00000090: b84d 103e c6ea 083e 9614 ca3c 6522 a2bd
000000a0: dfce e33c facc fdbd f7c0 0f3e 11e4 4fba
000000b0: e36a 32be fa71 0e3e 55cb 6d3d ddef 403d
000000c0: 0043 763e 8209 393d 3735 573e 6eca 4a3e
000000d0: 1d59 0e3e 1002 d63d 29d3 a83b 9b12 0cbd
000000e0: 5268 b23d 33b2 c8be 3635 973b 08ad a83d
000000f0: 554a c6bd 25eb 62be 8145 95bc 4ca0 b43d
00000100: e19b b6bd bd96 2ebc b30d 283e 438b 0737
00000110: eceb cdbd 00ea 8c3e 205a 5c3e bf36 0bbf
00000120: 47a2 7ebd d675 65be 42a9 7a3e b0d9 61bd
00000130: 0e17 05bd f9cf d93e 361d fcbd c480 e7bc
00000140: 25bc 9f3d 306b 733e 735e 08be c6e2 80bd
00000150: a8a9 3e3e 3481 bf3e 154f fc3b bc56 543e
00000160: d697 2d3f 6fda 913e 5d58 2d3e c5fb 88bd
00000170: 27a7 57bc 2d14 b93e 88fd 7f3e c1d4 efbd
00000180: 513c 29bd 68a7 363e 42ba 763e f8ac 25be
00000190: 7020 6cbd 1d4b 38be fb13 823e b591 2fbe
000001a0: ef1f 8c3d dbe5 a33e 7050 173e 9202 fbbc
000001b0: def5 35bc e76f 683d c238 75bd 1e9d 473e

lstm.bias_hh_l0 f4 [112]
0.27461475 0.27514645 -0.15006192 0.09916346 0.34992978 0.14783923 0.23898962 0.15988389
0.20250738 0.090368874 0.21686856 0.086442485 0.28365105 0.109664865 0.07641623 0.18031998
-0.19845144 -0.10402114 0.0646247 0.013208955 0.1594805 0.08423136 -0.04683012 0.1701236
0.14267895 0.037742052 0.062479857 -0.08150588 0.30029556 -0.06976513 0.10368268 -0.075456604
0.16206674 0.043240223 0.120998085 0.17386596 0.22196777 0.21592976 0.006623645 -0.07369034
-0.0046570455 0.1459399 -0.10253562 -0.0995126 -0.11673906 -0.16659716 0.20576727 -0.17008223
0.4404635 0.100865014 0.004301812 0.33105612 0.29243335 -0.10506183 -0.16831136 0.0076827216
0.19236735 -0.13106629 -0.050891545 -0.052013222 0.10348473 -0.37868917 0.04988727 -0.13853192
-0.24363266 -0.17091878 0.018813435 -0.04455336 -0.21688926 0.01702096 0.23149478 -0.53504425
0.033650953 0.061537728 0.06538283 -0.02441503 0.02544746 0.21902835 -0.17404799 0.09164523
0.25542086 -0.0035800224 0.064515844 0.22743212 0.14248425 0.15373664 0.17929082 0.2517978
0.43743363 0.0792136 0.050936017 0.043973427 0.05885485 0.32066217 0.1547152 0.043361515
0.21706408 0.24737449 0.30694544 0.11434875 0.18667889 -0.1834528 0.20913613 -0.10546688
0.17801054 0.37730712 -0.16348614 0.21607485 0.025563529 0.04089072 0.15283789 0.028496332
00000000: 4e9a 8c3e ffdf 8c3e d5a9 19be 3616 cb3d
00000010: ff29 b33e 2b63 173e b2b9 743e 9ab8 233e
00000020: 185e 4f3e 5113 b93d cb12 5e3e c208 b13d
00000030: b63a 913e f997 e03d 1d80 9c3d cda5 383e
00000040: db36 4bbe 0909 d5bd f459 843d 5f6a 583c
00000050: db4e 233e 7e81 ac3d f1d0 3fbd e234 2e3e
00000060: 6e1a 123e 6997 1a3d e1ea 7f3d 8eec a6bd
00000070: 57c0 993e 05e1 8ebd 9657 d43d fe88 9abd
00000080: d3f4 253e a91c 313d d8cd f73d eb09 323e
00000090: 854b 633e b11c 5d3e 290b d93b f6ea 96bd
000000a0: 219a 98bb 4571 153e 32fe d1bd 43cd cbbd
000000b0: e314 efbd 7298 2abe a8b4 523e 092a 2ebe
000000c0: 6f84 e13e 5192 ce3d 37f6 8c3b 3080 a93e
000000d0: d3b9 953e a82a d7bd d059 2cbe 57bf fb3b
000000e0: f2fb 443e 3e36 06be a773 50bd d10b 55bd
000000f0: cdef d33d 8ce3 c1be 9856 4c3d 50db 0dbe
00000100: d77a 79be 5505 2fbe a21e 9a3c 967d 36bd
00000110: 3818 5ebe 8a6f 8b3c f80c 6d3e a9f8 08bf
00000120: 95d5 093d fc0e 7c3d 6fe7 853d 0702 c8bc
00000130: 3177 d03c f848 603e a339 32be 7fb0 bb3d
00000140: 86c6 823e cf9e 6abb e220 843d f7e3 683e
00000150: 64e7 113e 236d 1d3e 0398 373e a4eb 803e
00000160: 4df7 df3e bd3a a23d 49a2 503d 7b1d 343d
00000170: c811 713d d52d a43e a96d 1e3e d89b 313d
00000180: 0c46 5e3e bd4f 7d3e f427 9d3e ad2f ea3d
00000190: c028 3f3e 0ddb 3bbe c827 563e 05ff d7bd
000001a0: 6548 363e 662e c13e e968 27be ba42 5d3e
000001b0: 9b6a d13c 077d 273d 8981 1c3e 2471 e93c

lstm.weight_ih_l1 f4 [112, 28]
-0.15201361 -0.1373705 -0.16861498 -0.016918609 0.09359268 -0.020520965 -0.05290629 -0.025930436
-0.16757539 0.07145257 -0.026298668 -0.041891206 0.20925689 -0.22027713 -0.10831193 0.0769675
-0.16215506 0.01142709 -0.12062704 0.13216461 0.1632537 0.04080941 -0.035163898 0.08321417
-0.109998904 -0.09492725 -0.12585191 -0.07395344 0.13770232 -0.10208019 -0.04394819 0.122759126
0.019884797 0.03593308 -0.06987486 0.025975754 -0.00073780044 0.06730287 -0.12309934 -0.124222904
-0.18464622 0.1749881 0.07883506 -0.15765579 -0.11273431 -0.12231176 -0.17150207 -0.051169828
0.14927295 -0.13552523 -0.054947596 0.09216026 -0.14085518 -0.004149445 0.1278724 -0.11278195
0.1476173 0.054989193 0.09589182 -0.0164511 0.10301734 -0.17147563 0.04694231 0.15681416
-0.039203875 -0.035178337 0.14823933 -0.17142223 -0.015389252 -0.036139224 0.00037176083 0.009568107
0.06057806 -0.15108627 -0.115807444 -0.0030727044 0.161824 0.17005543 -0.20306286 0.16887183
0.12294604 -0.15819767 0.18633477 0.13497774 0.0045578782 -0.00066826574 -0.11399803 0.07074413
0.06838522 0.10768885 0.071294904 -0.108260006 0.1468382 0.09927202 0.00021644891 -0.14191265
-0.02736498 -0.14011763 -0.0147509165 0.20692864 0.008796725 -0.16323294 0.10525884 0.064382076
0.024337813 -0.09361405 -0.104700916 0.14296319 -0.03939352 -0.022393268 0.05823548 -0.05474563
-0.055578534 0.157201 0.18797411 0.18614544 0.10517805 -0.16929772 -0.07237588 -0.048039135
-0.1963072 0.08067315 -0.016812498 0.0143203875 0.046595495 0.18378149 -0.14433894 -0.18112029
-0.15865399 0.12470292 -0.037383527 -0.13243437 0.04029573 0.119153574 0.042658746 0.063345075
-0.11449937 -0.06529105 -0.070227295 -0.15027057 0.046917062 0.19382 -0.052214134 0.034310017
-0.189963 -0.15086725 0.18153358 0.14826618 0.1080618 -0.21481918 0.026157146 -0.05232526
-0.07831784 -0.02222282 0.023261514 -0.13198489 0.14375952 -0.14682133 0.21737784 0.1174671
0.0010201908 0.024542233 -0.11338292 -0.11433135 0.13801265 -0.052643348 0.032443035 0.11116191
-0.13267879 0.03727671 0.09971427 -0.13288437 0.1420272 0.15471984 -0.15552555 0.16073577
0.08956567 0.03190556 -0.038507797 -0.13973954 0.107570805 -0.1891127 -0.16000424 -0.12349945
-0.12636259 0.00040194724 -0.1135713 -0.044003822 0.16964883 0.0068783015 0.14845742 -0.10589755
-0.15839355 0.10732963 -0.13751148 0.1749614 0.05008229 0.018995982 0.0086626075 -0.02785255
-0.00839345 -0.013077846 -0.016074719 -0.16413328 0.14350823 0.09816766 0.12130868 -0.043436345
0.065104224 -0.012526083 0.15721229 -0.07595916 0.067432925 -0.16706777 0.13526474 -0.09947398
-0.16937388 0.103769 -0.1582685 -0.11740532 0.13236858 0.059337914 0.019326922 -0.020868955
-0.02069876 0.009948041 -0.18147074 0.111151546 -0.025203582 -0.13794464 -0.0006839889 0.07934348
-0.011499201 -0.102321364 -0.12657069 0.06774346 -0.08364049 0.03596499 -0.03587799 0.012903141
-0.06237364 0.11467272 -0.024909455 0.1116819 0.0889923 0.1698612 -0.08142809 -0.15427768
0.15923965 -0.030415285 0.09889708 0.1800776 0.12563011 -0.09418337 0.09160072 0.023732303
00000000: 75a9 1bbe daaa 0cbe 68a9 2cbe e598 8abc
00000010: 85ad bf3d 951b a8bc 44b4 58bd 116c d4bc
00000020: e298 2bbe ba55 923d 4e70 d7bc 1d96 2bbd
00000030: 7047 563e 5490 61be a5d2 ddbd 23a1 9d3d
00000040: fa0b 26be b038 3b3c 4f0b f7bd 2956 073e
00000050: fa2b 273e c527 273d 0508 10bd 316c aa3d
00000060: 1b47 e1bd 3869 c2bd 53df 00be e774 97bd
00000070: d601 0d3e 6b0f d1bd 0403 34bd 2369 fb3d
00000080: 71e5 a23c 912e 133d 8d1a 8fbd 1bcb d43c
00000090: f368 41ba 16d6 893d 821b fcbd 9468 febd
000000a0: e613 3dbe 1530 333e 4774 a13d 8570 21be
000000b0: 3fe1 e6bd 977e fabd 3d9e 2fbe 7497 51bd
000000c0: 02db 183e 20c7 0abe bb10 61bd 85be bc3d
000000d0: 573c 10be 11f8 87bb fcf0 023e 39fa e6bd
000000e0: fd28 173e 593c 613d ee62 c43d 75c4 86bc
000000f0: c1fa d23d 4f97 2fbe 9446 403d e493 203e
00000100: 3e94 20bd 2917 10bd 0dcc 173e 4f89 2fbe
00000110: 3423 7cbc b906 14bd e5e8 c239 8dc3 1c3c
00000120: b320 783d 5cb6 1abe 742c edbd 6d5f 49bb
00000130: 31b5 253e 0323 2e3e b6ef 4fbe bdec 2c3e
00000140: 22cb fb3d 92fe 21be 8bce 3e3e 9b37 0a3e
00000150: 415a 953b 8e2e 2fba cd77 e9bd 4ce2 903d
00000160: 8d0d 8c3d f98b dc3d 1003 923d 6cb7 ddbd
00000170: c15c 163e 214f cb3d 90f6 6239 8d51 11be
00000180: 862c e0bc ff7a 0fbe d4ad 71bc 1ae5 533e
00000190: 2420 103c 8926 27be f291 d73d c0da 833d
000001a0: 1860 c73c b9b8 bfbd 6f6d d6bd f164 123e
000001b0: 1a5b 21bd 1672 b7bc 5488 6e3d f43c 60bd
000001c0: 51a6 63bd 4df9 203e 497c 403e e99c 3e3e
000001d0: 9767 d73d 625c 2dbe ce39 94bd afc4 44bd
000001e0: c104 49be f737 a53d 5dba 89bc 0fa0 6a3c
000001f0: ebda 3e3d 3731 3c3e 96cd 13be 9977 39be
00000200: 3176 22be 3f64 ff3d 781f 19bd e09c 07be
00000210: 230d 253d ca06 f43d f0ba 2e3d 10bb 813d
00000220: a57e eabd 50b7 85bd 54d3 8fbd 87e0 19be
00000230: 1b2c 403d c078 463e 7dde 55bd a988 0c3d
00000240: a985 42be f27c 1abe f0e3 393e 17d3 173e
00000250: 814f dd3d 8ff9 5bbe 8347 d63c 0353 56bd
00000260: 1b65 a0bd a20c b6bc ee8e be3c 0c27 07be
00000270: b235 133e 5558 16be 4c98 5e3e 9792 f03d
00000280: ecb7 853a cb0c c93c 4e35 e8bd 8e26 eabd
00000290: 3053 0d3e 8da0 57bd fde2 043d dba8 e33d
000002a0: f3dc 07be 77af 183d ff36 cc3d d712 08be
000002b0: 946f 113e e16e 1e3e 1742 1fbe eb97 243e
000002c0: 356e b73d 68af 023d 5aba 1dbd e217 0fbe
000002d0: 154e dc3d c2a6 41be 27d8 23be 48ed fcbd
000002e0: 3265 01be 72bc d239 1298 e8bd 5a3d 34bd
000002f0: 6cb8 2d3e 6063 e13b 3905 183e d1e0 d8bd
00000300: eb31 22be a3cf db3d cfcf 0cbe 1529 333e
00000310: 1623 4d3d 769d 9b3c 9ced 0d3c 082b e4bc
00000320: ae84 09bc 7644 56bc 21af 83bc 8e12 28be
00000330: d2f3 123e 200c c93d af70 f83d 4fea 31bd
00000340: 5d55 853d 333a 4dbc 42fc 203e 7a90 9bbd
00000350: 461a 8a3d d013 2bbe d782 0a3e 04b9 cbbd
00000360: 5970 2dbe d784 d43d 2311 22be 3372 f0bd
00000370: a18b 073e 500c 733d 7e53 9e3c 5ff5 aabc
00000380: 7290 a9bc 1cfd 223c 77d3 39be 6ca3 e33d
00000390: be77 cebc 5c41 0dbe b84d 33ba d67e a23d
000003a0: 2567 3cbc dd8d d1bd bf9b 01be 15bd 8a3d
000003b0: b54b abbd 0650 133d cdf4 12bd b267 533c
000003c0: 807b 7fbd 88d9 ea3d ea0e ccbc 7bb9 e43d
000003d0: 9841 b63d 18f0 2d3e c5c3 a6bd f8fa 1dbe
000003e0: b80f 233e 7a29 f9bc 8d8a ca3d 4366 383e
000003f0: 2ea5 003e 36e3 c0bd 2999 bb3d 3f6a c23c

lstm.weight_hh_l1 f4 [112, 28]
-0.016137313 0.1459813 0.08369874 -0.0983864 -0.03901767 0.018346084 -0.24726012 -0.18885918
0.20485006 0.20932607 -0.035010047 0.094125286 0.13344052 0.06760059 0.0153802615 -0.1411314
-0.07354891 0.033517554 0.28902406 0.005591151 -0.21259187 -0.10075286 -0.16610147 -0.06749733
-0.099802405 -0.19399683 0.20562352 0.12841073 -0.15435834 0.005348131 -0.16915105 -0.037787177
0.1714407 -0.004283327 0.16849223 0.06638625 0.16838856 0.13734873 0.104094245 -0.087135896
0.019714024 0.0128414165 -0.04058175 -0.08359807 0.06337232 -0.19068739 -0.05373483 -0.067950696
-0.1417325 0.09518068 -0.17945516 0.19020472 -0.003756604 -0.03492404 0.16617754 -0.033765286
-0.14424793 -0.008446753 -0.04986206 0.10919646 0.010333773 -0.019770073 -0.12416245 0.18734078
-0.0898141 -0.047766447 0.13338019 0.11794196 0.0029431514 0.012700411 -0.042509295 -0.064757906
0.08517527 0.2169316 -0.14701372 0.0015807595 -0.004442746 -0.028136076 -0.07453828 -0.097107686
0.07794704 -0.16492328 -0.026882423 -0.08296326 0.027812263 0.09704963 0.15286057 0.115270354
-0.0058601643 -0.16309622 -0.11868186 -0.01190597 0.117031515 -0.038734477 -0.19344242 -0.0047060107
0.16624734 0.14299902 0.039423525 0.031529684 -0.05142016 -0.18853202 -0.11677269 -0.119484335
-0.15388885 -0.13221623 0.12357026 -0.088624775 0.08214925 0.14622374 -0.09205099 -0.049033348
0.12387417 -0.066206366 0.17136005 0.08866571 0.014090269 -0.0024152717 -0.04128825 -0.096991315
0.14113477 -0.06817706 -0.02223776 -0.14976051 0.18416466 0.1335585 0.10624364 -0.046741307
-0.17168067 -0.08611476 -0.07733597 0.17279817 0.14260672 -0.15198421 0.017785218 0.006344385
-0.15854624 -0.13353194 0.0687858 -0.045449853 -0.079567894 -0.1353755 -0.14468363 -0.08773091
-0.0052431333 0.0035548834 -0.07154929 0.14563894 -0.1625456 -0.021117693 0.027767438 0.1323559
0.12539572 -0.08948101 -0.15751295 -0.14748108 -0.10323603 -0.13266255 -0.03712425 0.05381344
-0.05514906 -0.018882712 -0.078063935 0.13117476 0.05686948 -0.03106843 0.1823988 -0.09832314
0.04634066 0.11554568 0.06844446 0.17628421 0.0040388885 0.10645026 -0.1479091 0.02039458
0.06668883 0.06715273 0.058531538 0.11911868 -0.06697483 -0.11017062 0.1410792 0.11799659
0.12540025 0.16835335 -0.09365801 0.18030255 0.005521227 0.07056994 0.10241703 0.12530749
0.09287583 -0.10032179 -0.041259512 -0.053936463 -0.14571865 -0.096629344 -0.09703335 -0.09892031
0.04813533 0.069192454 0.14138655 -0.05349218 -0.04128179 -0.14210093 -0.12706487 -0.11678901
-0.00027606127 0.15044482 -0.06595524 0.09642081 0.14777265 -0.08199507 -0.08801577 -0.13961387
-0.093812674 -0.09083634 0.16986816 -0.040440705 0.16147555 -0.13967681 0.13852595 -0.03470189
0.029693909 -0.00036563707 -0.06226415 0.110244684 -0.07883051 0.039824672 0.1074143 0.09650179
-0.07871013 -0.10608993 -0.09184923 -0.055062927 0.12079954 -0.0791774 -0.0459898 -0.17110464
0.041677475 -0.17535774 -0.08200699 -0.071909584 0.016290551 -0.024163816 -0.10690707 -0.087557815
-0.15709145 0.003243364 0.03209429 -0.07230667 -0.104931615 -0.19806775 -0.010454268 -0.15391082
00000000: 6632 84bc 1f7c 153e 3f6a ab3d cf7e c9bd
00000010: fed0 1fbd 874a 963c c231 7dbe 4d64 41be
00000020: 37c4 513e 9359 563e b266 0fbd c2c4 c03d
00000030: a2a4 083e 2e72 8a3d 7efd 7b3c c084 10be
00000040: d0a0 96bd b449 093d f6fa 933e f935 b73b
00000050: afb1 59be 8457 cebd 8116 2abe 0a3c 8abd
00000060: 3465 ccbd 1ba7 46be f98e 523e 1a7e 033e
00000070: 1d10 1ebe 603f af3b ef35 2dbe bac6 1abd
00000080: 278e 2f3e 275b 8cbb 3a89 2c3e 84f5 873d
00000090: 0d6e 2c3e 25a5 0c3e 5d2f d53d 4e74 b2bd
000000a0: 4e7f a13c ce64 523c 0d39 26bd 7735 abbd
000000b0: 59c9 813d 8e43 43be 0e19 5cbd bc29 8bbd
000000c0: 5322 11be 17ee c23d 18c3 37be 07c5 423e
000000d0: 5b31 76bb 830c 0fbd 722a 2a3e 784d 0abd
000000e0: bbb5 13be 4064 0abc 293c 4cbd 65a2 df3d
000000f0: fc4e 293c d9f4 a1bc e248 febd 43d6 3f3e
00000100: 74f0 b7bd c0a6 43bd d194 083e 8e8b f13d
00000110: e3e1 403b 6215 503c 3a1e 2ebd cb9f 84bd
00000120: 5f70 ae3d 5123 5e3e c48a 16be 7d31 cf3a
00000130: 7494 91bb a17d e6bc 87a7 98bd 65e0 c6bd
00000140: b3a2 9f3d a6e1 28be 8738 dcbc a4e8 a9bd
00000150: 8bd6 e33c f5c1 c63d 7b87 1c3e dd12 ec3d
00000160: 9f06 c0bb b202 27be 7a0f f3bd 4211 43bc
00000170: 38ae ef3d 0ba8 1ebd c515 46be e134 9abb
00000180: be3c 2a3e 566e 123e 907a 213d 4525 013d
00000190: f29d 52bd 8a0e 41be 8526 efbd 34b4 f4bd
000001a0: 0a95 1dbe b163 07be 6812 fd3d e880 b5bd
000001b0: de3d a83d adbb 153e 3b85 bcbd 31d7 48bd
000001c0: beb1 fd3d 3497 87bd 0279 2f3e 5e96 b53d
000001d0: dfda 663c 8949 1ebb de1d 29bd 62a3 c6bd
000001e0: a285 103e 6aa0 8bbd f62b b6bc d25a 19be
000001f0: a995 3c3e 8fc3 083e 4496 d93d d073 3fbd
00000200: 0fcd 2fbe ef5c b0bd 5262 9ebd 01f2 303e
00000210: 7f07 123e c0a1 1bbe 4eb2 913c 8fe4 cf3b
00000220: f259 22be 99bc 08be 92df 8c3d a029 3abd
00000230: 7ef4 a2bd e09f 0abe f227 14be 43ac b3bd
00000240: 97ce abbb 0cf9 683b 6f88 92bd 6022 153e
00000250: 5b72 26be 03ff acbc 8a78 e33c 4e88 073e
00000260: bc67 003e d241 b7bd 134b 21be 4805 17be
00000270: 696d d3bd b1d8 07be 990f 18bd 7b6b 5c3d
00000280: fbe3 61bd ebaf 9abc fcdf 9fbd ad52 063e
00000290: f9ef 683d 3883 febc c0c6 3a3e a45d c9bd
000002a0: b4cf 3d3d 37a3 ec3d 9c2c 8c3d d983 343e
000002b0: a758 843b 9802 da3d 7c75 17be 8912 a73c
000002c0: 2794 883d 5f87 893d c4be 6f3d 7ff4 f33d
000002d0: 1a2a 89bd 22a1 e1bd 1177 103e 32a8 f13d
000002e0: ec68 003e d264 2c3e c5cf bfbd 3ba1 383e
000002f0: 69eb b43b f986 903d 05c0 d13d 9b50 003e
00000300: af35 be3d 8375 cdbd bcff 28bd 7bec 5cbd
00000310: 4537 15be 9be5 c5bd 6cb9 c6bd bb96 cabd
00000320: 8d29 453d c6b4 8d3d a3c7 103e 9e1a 5bbd
00000330: 1817 29bd e882 11be 4b1d 02be 142f efbd
00000340: 51bc 90b9 350e 1a3e 8a13 87bd 4678 c53d
00000350: b751 173e 08ed a7bd 9d41 b4bd f0f6 0ebe
00000360: dc20 c0bd 6708 babd ebf1 2d3e 27a5 25bd
00000370: d959 253e 7007 0fbe bfd9 0d3e 9223 0ebd
00000380: a440 f33c fab2 bfb9 b108 7fbd f7c7 e13d
00000390: e471 a1bd 321f 233d 07fc db3d bba2 c53d
000003a0: c732 a1bd ad45 d9bd 731b bcbd aa89 61bd
000003b0: c065 f73d c327 a2bd cd5f 3cbd 0e36 2fbe
000003c0: 00b6 2a3d fb90 33be 48f3 a7bd 5545 93bd
000003d0: c373 853c 32f3 c5bc 18f2 dabd 8351 b3bd
000003e0: 95dc 20be 9e8e 543b 4d75 033d 8515 94bd
000003f0: 63e6 d6bd 46d2 4abe 6148 2bbc cc9a 1dbe

lstm.bias_ih_l1 f4 [112]
0.25404647 0.05459196 0.027047565 -0.010267427 0.112127446 0.03590162 -0.078789935 0.21307863
-0.044803508 0.18336023 0.24119686 0.3978457 0.06833537 -0.16212931 -0.059722323 0.24581267
0.25590393 0.15910238 0.10462192 -0.13077939 0.5475963 -0.040814795 0.06511991 0.2308001
0.24829282 0.105337836 0.26471558 0.060838986 0.09905816 -0.085638136 0.18950178 -0.068798184
0.1609817 0.31870306 -0.0741035 0.15083171 0.22836202 0.32527468 -0.052215047 0.45904666
0.2738116 -0.1630275 -0.0036738673 0.33441824 0.18298045 0.21383367 0.47466922 0.22652428
0.07777558 0.28622177 0.24720728 0.039304364 0.2912298 0.17853163 0.24640062 0.43868878
0.064430594 0.1766572 -0.20455542 -0.0015657492 -0.05172792 -0.17738631 -0.18517162 -0.1716627
0.29629892 0.5510061 -0.06695442 0.2605212 0.23016262 -0.07506338 0.32619268 -0.4128923
-0.43408716 0.024282232 0.29295564 0.09706122 0.061677843 0.07659401 0.18071552 0.03336125
-0.043281924 -0.15287745 0.14204703 -0.02209116 0.1476607 -0.014913139 0.2459535 0.21550445
0.21133137 0.22765055 -0.04653967 0.0054936055 0.16179883 0.38397565 -0.060132124 0.42597586
0.18306619 -0.005094636 0.11114095 0.29494736 0.5172748 0.28733408 0.42278093 0.076981306
0.5973906 0.3448604 0.3148155 0.17501162 0.10345156 -0.030487498 0.3423536 0.17464083
00000000: 6112 823e d29b 5f3d db92 dd3c b638 28bc
00000010: 13a3 e53d 940d 133d 9e5c a1bd 4931 5a3e
00000020: e283 37bd c9c2 3b3e 4ffc 763e 6eb2 cb3e
00000030: 6af3 8b3d 3a05 26be 659f 74bd 51b6 7b3e
00000040: d705 833e bceb 223e 0444 d63d 08eb 05be
00000050: 452f 0c3f 6a2d 27bd 965d 853d dd56 6c3e
00000060: 7940 7e3e 5dbb d73d cd88 873e 4d32 793d
00000070: 01df ca3d 0c63 afbd c10c 423e 10e6 8cbd
00000080: 63d8 243e 0c2d a33e 93c3 97bd a173 1a3e
00000090: bcd7 693e 678a a63e 72df 55bd 2a08 eb3e
000000a0: 0931 8c3e aef0 26be 44c5 70bb de38 ab3e
000000b0: 3a5f 3b3e 37f7 5a3e d807 f33e fbf5 673e
000000c0: ce48 9f3d a98b 923e e823 7d3e 9dfd 203d
000000d0: 131c 953e ffd0 363e 7250 7c3e d19b e03e
000000e0: 30f4 833d a0e5 343e fa76 51be d339 cdba
000000f0: a8e0 53bd c2a4 35be a19d 3dbe 59c8 2fbe
00000100: 7eb4 973e bc0e 0d3f 661f 89bd 0963 853e
00000110: c0af 6b3e d4ba 99bd ba02 a73e 9f66 d3be
00000120: ac40 debe 88eb c63c 48fe 953e 08c8 c63d
00000130: e8a1 7c3d 52dd 9c3d 7d0d 393e cea5 083d
00000140: 6348 31bd e88b 1cbe c774 113e 85f8 b4bc
00000150: 5e34 173e 3d56 74bc 3cdb 7b3e 33ad 5c3e
00000160: 4067 583e 3a1d 693e 62a0 3ebd b403 b43b
00000170: 98ae 253e 7598 c43e 1a4d 76bd 8219 da3e
00000180: b475 3b3e e8f0 a6bb de9d e33d 5703 973e
00000190: 1f6c 043f 741d 933e be76 d83e 60a8 9d3d
000001a0: 97ee 183f 8b91 b03e 7f2f a13e 3f36 333e
000001b0: 69de d33d ebc0 f9bc f948 af3e 0cd5 323e

lstm.bias_hh_l1 f4 [112]
0.09572823 0.036548246 0.23701945 0.13613369 -0.006507648 0.17116082 0.05723278 0.14376831
0.026679039 0.1261957 0.13027833 0.3748217 0.22516297 -0.11722273 0.2075771 0.32994512
0.23596767 0.32943967 0.2618376 0.16628446 0.18768853 0.10679083 0.08336722 0.008724029
0.03115911 0.28420115 0.2171409 0.1289123 0.03795591 0.21507873 -0.01085565 -0.00646809
0.05117474 0.33272648 0.071280755 0.0013858102 0.072763935 0.42733696 0.10282671 0.381368
0.10243241 -0.12650819 0.0481342 0.16096741 0.41860878 0.3999718 0.30277953 -0.09958211
0.27589923 0.15606506 0.22848395 0.040096696 0.0934232 0.30386946 0.30923182 0.24044019
-0.11917882 -0.10006124 -0.18138938 -0.0510629 0.06771051 -0.23502862 -0.27161652 -0.0528003
0.014398582 0.64162666 0.00018575886 0.26394933 0.15659165 0.025443263 0.06910311 -0.35750884
-0.33487275 0.10553517 0.33109868 -0.08712831 0.17358947 0.16349144 0.20929556 -0.1440755
-0.23298632 -0.23988777 0.33265755 -0.07880119 0.36404553 0.12364365 0.09538837 0.24770173
-0.008295648 0.21021986 -0.04789377 0.19024661 0.028526714 0.5847921 0.16623096 0.4974809
0.18117444 -0.09228849 0.14631161 0.32139376 0.35637206 0.53524584 0.19901179 -0.0069020772
0.51664287 0.3471621 0.37714154 0.0717135 0.09565046 0.28328452 0.10678554 0.06406648
00000000: 2a0d c43d 9db3 153d 3ab5 723e a166 0b3e
00000010: 1c3e d5bb c844 2f3e eb6c 6a3d 0038 133e
00000020: 008e da3c 7239 013e af67 053e a1e8 bf3e
00000030: 1f91 663e 7812 f0bd 178f 543e 91ee a83e
00000040: 82a1 713e 51ac a83e 940f 863e 7946 2a3e
00000050: 6c31 403e 27b5 da3d 6fbc aa3d 3bef 0e3c
00000060: 6441 ff3c d082 913e 2f5a 5e3e 9601 043e
00000070: a877 1b3d 993d 5c3e e5db 31bc 46f2 d3bb
00000080: 9b9c 513d 205b aa3e a5fb 913d 13a4 b53a
00000090: 4205 953d e9cb da3e cf96 d23d ab42 c33e
000000a0: 15c8 d13d 5d8b 01be 5e28 453d a4d4 243e
000000b0: e453 d63e 1bc9 cc3e eb05 9b3e b5f1 cbbd
000000c0: aa42 8d3e 85cf 1f3e b2f7 693e 6f3c 243d
000000d0: aa54 bf3d c794 9b3e a253 9e3e f435 763e
000000e0: 0614 f4bd e8ec ccbd 23be 39be 5527 51bd
000000f0: cfab 8a3d 58ab 70be 5211 8bbe 2145 58bd
00000100: 08e8 6b3c a541 243f 44c8 4239 5e24 873e
00000110: 9059 203e 646e d03c ee85 8d3d 660b b7be
00000120: 7174 abbe d322 d83d c485 a93e 5470 b2bd
00000130: 70c1 313e 4d6a 273e 9351 563e 8788 13be
00000140: f793 6ebe 24a5 75be 1752 aa3e 8562 a1bd
00000150: 2d64 ba3e e238 fd3d fa5a c33d 86a5 7d3e
00000160: 78ea 07bc e043 573e 422c 44bd 02d0 423e
00000170: dbb0 e93c efb4 153f 7338 2a3e d1b5 fe3e
00000180: cb85 393e bf01 bdbd b6d2 153e b98d a43e
00000190: 6676 b63e df05 093f bfc9 4b3e d22a e2bb
000001a0: b542 043f 3bbf b13e b218 c13e 87de 923d
000001b0: 63e4 c33d ab0a 913e 61b2 da3d 4935 833d

fc.weight f4 [5, 28]
0.18593004 -0.14409491 -0.27700034 -0.22397362 0.12154366 -0.49354 0.1071336 -0.033468835
0.06268854 0.69208986 0.43504408 0.4013937 -0.032338757 -0.2140176 0.36029157 -0.45410794
-0.7909626 1.1783807 -0.018513273 -0.11132237 1.198666 0.015470604 0.97656214 -0.35660094
-0.22746491 -0.19549058 -0.16231464 0.24647917 0.10251013 0.0741739 0.7878517 0.038103007
0.36638752 -0.2268682 0.39323634 0.35975686 -0.518442 0.042134617 0.43933812 0.29309833
-0.667478 -0.13592315 -0.8368956 1.0524968 -0.47675008 0.7083575 -1.0396943 -0.3068655
0.68814766 -0.6891293 0.5491972 -0.5661574 -0.4317546 0.69441795 -0.7575647 0.08594482
0.99199975 0.22252908 -0.16711381 0.14652646 -0.3026953 0.7298107 -0.023188772 0.045952525
0.06599152 0.4671394 -0.072549514 1.2221535 -0.059462693 0.021847129 0.28346992 -0.22708118
-0.51162046 -0.7557311 0.10948214 -0.025384963 -0.33359164 0.3794951 -0.6696958 0.22288626
0.29924932 -0.22568054 0.36368543 -0.08271881 -0.85832024 -0.1668278 -0.2553597 0.1818105
-0.2403651 0.357593 -0.093104735 -0.08034071 0.040408228 -0.92911667 -0.26671666 -1.182923
0.08295535 -0.120195664 0.28401726 0.001529353 -0.2864576 -0.64995533 0.3517466 0.38256422
-1.2105718 0.067872815 -0.9390247 0.27003142 0.5840651 -0.32174626 0.25149438 -0.7190718
-0.70021677 -0.048176464 -0.0070328573 -0.4572536 0.23572826 -0.29540917 -0.27218014 -0.06539017
0.3950713 -0.6081389 -0.53800344 -0.95932215 0.55735165 0.1380233 0.12005747 -0.44501686
1.9553214 -0.51206 0.024859339 0.055754542 -0.47827315 0.040442333 0.2712085 0.39724863
0.010425709 0.054410405 0.18593656 0.54943967
00000000: 7264 3e3e 9e8d 13be fdd2 8dbe 5759 65be
00000010: e2eb f83d 46b1 fcbe dc68 db3d 9e16 09bd
00000020: d962 803d cd2c 313f 19be de3e 7a83 cd3e
00000030: a575 04bd 6e27 5bbe 2378 b83e d680 e8be
00000040: 867c 4abf 2ed5 963f 26a9 97bc fcfc e3bd
00000050: e36d 993f 6b78 7d3c faff 793f 6694 b6be
00000060: 90ec 68be af2e 48be cf35 26be 0965 7c3e
00000070: d5f0 d13d 7ce8 973d a6b0 493f e611 1c3d
00000080: 2597 bb3e 2350 68be 4656 c93e 0d32 b83e
00000090: 9db8 04bf 5995 2c3d edf0 e03e fc10 963e
000000a0: d7df 2abf 702f 0bbe ca3e 56bf 37b8 863f
000000b0: 9618 f4be eb56 353f b414 85bf 7a1d 9dbe
000000c0: 722a 303f c76a 30bf 3098 0c3f b1ef 10bf
000000d0: f00e ddbe 60c5 313f c3ef 41bf d603 b03d
000000e0: b2f3 7d3f aade 633e e21f 2bbe 080b 163e
000000f0: e1fa 9abe e0d4 3a3f 61f6 bdbc b738 3c3d
00000100: 9026 873d e52c ef3e d794 94bd 876f 9c3f
00000110: 278f 73bd c0f8 b23c f822 913e f887 68be
00000120: 8ff9 02bf 9877 41bf 2c38 e03d 20f4 cfbc
00000130: 86cc aabe 2f4d c23e 2f71 2bbf 4c3c 643e
00000140: 3537 993e cd18 67be fa34 ba3e 7b68 a9bd
00000150: e0ba 5bbf e8d4 2abe 82be 82be 882c 3a3e
00000160: 4522 76be 6e16 b73e b2ad bebd ac89 a4bd
00000170: 1983 253d 97da 6dbf 168f 88be 056a 97bf
00000180: 7fe4 a93d 2529 f6bd b66a 913e 9274 c83a
00000190: 92aa 92be 7963 26bf 2118 b43e 75df c33e
000001a0: 04f4 9abf e700 8b3d ec63 70bf 8f41 8a3e
000001b0: 4a85 153f edbb a4be dfc3 803e 1715 38bf
000001c0: 6841 33bf af54 45bd e273 e6bb 251d eabe
000001d0: c062 713e df3f 97be 325b 8bbe 48eb 85bd
000001e0: c946 ca3e feae 1bbf 98ba 09bf 2396 75bf
000001f0: 99ae 0e3f fb55 0d3e b1e0 f53d 40d9 e3be
00000200: f947 fa3f 5d16 03bf d0a5 cb3c e05e 643d
00000210: 38e0 f4be dca6 253d d7db 8a3e 2c64 cb3e
00000220: 98d0 2a3c 72dd 5e3d 2766 3e3e 14a8 0c3f

fc.bias f4 [5]
0.30477503 -0.31061944 0.29195675 -0.07639501 -0.15365687
00000000: 790b 9c3e 8309 9fbe 5b7b 953e fd74 9cbd
00000010: 3a58 1dbe
