models/2.2.1-lstm-network-model-test-4x2.pth (torch, 3466 bytes, 10 tensors)

lstm.weight_ih_l0 f4 [16, 3]
000000 65 4b 91 3e 13 82 c3 be 5e 92 e9 3e 59 5e b1 3d
       0.28377834 -0.38185176 0.45619482 0.086605735
000010 01 2c 95 3b 26 03 f5 bd fc 42 cd bd b3 74 0a bf
       0.004552365 -0.11963491 -0.10022542 -0.5408432
000020 8a d2 11 be e3 f1 70 be eb 58 64 3e a7 7b 69 3d
       -0.1424047 -0.23529772 0.22299545 0.05700269
000030 da af 35 3e 59 92 e0 be 01 16 5c 3d 0c eb 88 3e
       0.17742863 -0.43861654 0.053731922 0.26741827
000040 ec e1 b7 bd 7f 8d 25 bf 23 21 4d bf 6e 44 40 bf
       -0.08978638 -0.6466903 -0.8012869 -0.75104415
000050 21 6c 78 3e 53 75 31 3e 59 70 5b 3e 59 45 ba be
       0.24259998 0.17329912 0.21429576 -0.36381033
000060 db 4f ce 3f 7c 20 41 be c7 30 ca 3e c3 c2 ab bf
       1.611812 -0.18860048 0.3949034 -1.3418812
000070 8e 92 0f bf df ab d4 be d9 42 d4 bf 55 a9 c3 3f
       -0.56083 -0.41537377 -1.65829 1.5286051
000080 a5 2e 11 3f d7 ab d7 3b cb 7e fc 3e e8 71 dc 3e
       0.567118 0.006581764 0.49315485 0.43055654
000090 26 86 d6 be fc be bc bd 8e 24 05 bf 48 c0 a3 3d
       -0.41899222 -0.09216115 -0.52008903 0.07995659
0000a0 40 5f 84 3e 1c 05 03 bf 31 48 3d be 15 39 d0 be
       0.2585392 -0.5117967 -0.1848457 -0.4066855
0000b0 7d b0 09 bf 74 44 87 3e 05 db 37 3e ff 6b 27 3f
       -0.53784925 0.26419413 0.17954643 0.65399164

lstm.weight_hh_l0 f4 [16, 4]
000000 e0 eb d1 3e 43 6e b2 3e d5 b4 a8 3e f9 5d e8 3e
       0.4100027 0.34849748 0.32950464 0.45384195
000010 ed 4a f6 3d 0b 5b fc be a2 6c 8e be e7 8e ad bd
       0.1202601 -0.4928821 -0.27817255 -0.08474522
000020 9e f1 cb be 78 2e 64 be 7f b4 72 3e a4 e8 40 be
       -0.39832777 -0.22283351 0.23701666 -0.18838745
000030 51 af 73 3d 5d f6 2f 3d f8 cb 54 3d 9a 97 89 bd
       0.059493367 0.04295956 0.051952332 -0.06718369
000040 ed 3e 90 be 87 63 08 3f 71 2d 96 3d 9e f1 b5 3e
       -0.2817301 0.53276867 0.07332886 0.35535902
000050 ed 72 aa bd 59 0c ec be 36 b7 82 3d 5f d9 c5 3d
       -0.083227016 -0.4610317 0.06382601 0.09660601
000060 ee de 02 3e 48 c5 b1 3e 7c 30 5e 3e 36 26 92 be
       0.12780353 0.34720826 0.21698183 -0.28544778
000070 d2 fc 7d be d2 a2 c0 3d b8 42 c4 be df d3 e3 be
       -0.24803475 0.094060555 -0.38332152 -0.44497582
000080 6e b2 6d 3e 9d 23 03 bf 5b 54 a3 3d 87 ab 94 be
       0.23212597 -0.51226217 0.07975074 -0.29037115
000090 66 b6 4a bf 19 31 f4 3e de f7 36 be 56 06 8f be
       -0.7918457 0.4769371 -0.17867991 -0.2793452
0000a0 9f b5 f3 3e 7f f4 dc bd e8 f6 98 3c 91 0c 8e 3e
       0.47599503 -0.107888214 0.018672422 0.27743962
0000b0 e4 de 20 3e 7f 86 06 3d 63 3f c1 be 30 9d 59 be
       0.15710026 0.03284311 -0.37743673 -0.21251369
0000c0 66 b8 98 3e 77 7c aa 3e 17 b4 97 bd af c2 b6 3e
       0.29828185 0.33298084 -0.07407396 0.35695407
0000d0 e1 06 f7 be 15 8e e4 be 37 d8 98 be 98 ac 13 3f
       -0.48247436 -0.4463965 -0.2985246 0.5768523
0000e0 3c b1 3b 3e ae 91 38 3f dd 37 b8 3e a9 4b 77 3e
       0.18329328 0.7209729 0.3598012 0.24149956
0000f0 2f 2f af be a2 aa 93 bd 3f e7 63 3e 94 03 a9 b9
       -0.34215686 -0.0721028 0.22256182 -0.00032236858

lstm.bias_ih_l0 f4 [16]
000000 67 12 25 3f 9d 77 b4 3d 60 84 0c bf e6 fb 0f 3f
       0.64481205 0.08811877 -0.5488949 0.5624374
000010 36 98 37 3f 7f 2b e6 3e 53 e1 c8 3e ed 8e 69 3e
       0.7171663 0.4495506 0.3923441 0.22808428
000020 66 ab 3c 3e a8 6c 91 3d c4 b6 54 bf b1 51 49 3f
       0.18424758 0.07100803 -0.8309138 0.78640276
000030 5c 8d 22 3e a3 f2 77 3f 83 7e 0c 3e e5 11 b3 3d
       0.15874237 0.9685461 0.13720135 0.087436475

lstm.bias_hh_l0 f4 [16]
000000 6e bc b6 3e ca 52 02 be c3 9f 5a 3e 8a 86 00 be
       0.35690635 -0.12726894 0.21350007 -0.12551323
000010 58 df 5f 3f 77 f1 20 3f 73 19 8a 3e 70 20 90 3c
       0.8745017 0.62868446 0.2697254 0.017593592
000020 ef 9f 35 3f 76 49 34 3e 2d 47 54 bf 04 a0 d1 3d
       0.70947164 0.17606148 -0.82921106 0.10235599
000030 e9 92 46 3f 37 0e e1 3e 20 63 cc bd b6 63 cf 3e
       0.7756792 0.43956158 -0.09979844 0.4050576

lstm.weight_ih_l1 f4 [16, 4]
000000 a8 cf 2d 3e 0c 8e f4 bd 06 52 99 3e 5e 7c f6 3d
       0.16973746 -0.11941156 0.2994539 0.1203544
000010 f9 8e b6 be a5 4e 28 3e 1c 6a b8 bc b9 00 48 bd
       -0.35655954 0.1643625 -0.022511534 -0.048828814
000020 a8 a8 1a 3e 10 5d bd be f1 36 97 3e 8e 80 63 bd
       0.151034 -0.36985064 0.29534104 -0.05554252
000030 32 20 ef 3e d3 4d 9a 3e 04 6d d7 be 97 79 ca 3e
       0.4670425 0.301375 -0.4207536 0.3954589
000040 c6 96 be bd e0 b7 bd 3d 02 3e de 3e e5 77 a9 bc
       -0.093061015 0.09263587 0.43406683 -0.020687053
000050 94 0c 3c be 31 54 c6 be c2 a6 01 bf d8 cf 08 3f
       -0.18364173 -0.38736108 -0.5064508 0.53442144
000060 c9 72 75 bd e5 bf 03 bf 1e 2d b6 bd dc ef f9 3e
       -0.05992392 -0.5146468 -0.08895324 0.4881581
000070 db 8f 0b bf 41 11 f9 bd dd 37 a1 be 1b 23 03 3f
       -0.5451638 -0.12161494 -0.31487933 0.5122544
000080 41 a6 ff 3e 40 0c b1 be 74 6f 58 bf 7b 34 55 3f
       0.4993153 -0.34579659 -0.84545064 0.83283204
000090 09 8b a1 bd 2a 9c ac bf ad b3 18 be 9e 97 bb be
       -0.07887847 -1.3485157 -0.14912291 -0.36639112
0000a0 61 17 05 3f 08 7c 2a be bc 35 21 bf c2 f3 fd 3c
       0.519888 -0.16648877 -0.6297262 0.031000022
0000b0 9e 01 bc be 87 0c 9d 3d f3 20 06 3e 82 75 dc 3e
       -0.36719984 0.07668405 0.13098507 0.430584
0000c0 11 f2 a3 3f 38 bc d7 bf 13 5e a1 3f 22 17 56 3f
       1.2808248 -1.6854315 1.2606834 0.8362905
0000d0 17 b2 c3 3e 86 0a 93 be 10 45 6b be e9 c6 e5 3e
       0.3822181 -0.28718966 -0.22975564 0.4487832
0000e0 5d ad 9c bf 52 59 98 3f a0 6b 4e be 37 d3 59 3d
       -1.2240406 1.1902258 -0.20158243 0.053179946
0000f0 35 30 07 bf c6 49 95 bd 08 96 07 bf ee 50 81 3e
       -0.52807933 -0.07289462 -0.52963305 0.25257057

lstm.weight_hh_l1 f4 [16, 4]
000000 6f c0 81 3e f9 02 79 3e 6f b9 8b bd ca 95 87 bd
       0.25342128 0.2431754 -0.06822478 -0.06620367
000010 4e ea bc 3d 78 df df 3e 70 f6 2f be cb a6 3d 3f
       0.092243776 0.4372518 -0.17183852 0.7408263
000020 5d ef ba 3e 7f 25 d1 3e a1 83 fc be 73 6c 56 3e
       0.36510745 0.4084892 -0.49319175 0.20939808
000030 3f 24 a9 3e 75 e1 6b 3e dc f1 1a bf 55 0f a1 3e
       0.33035466 0.23035224 -0.605253 0.3145701
000040 48 6b e2 3e 05 a6 dd bd f8 ee b0 be 81 37 49 3e
       0.44222474 -0.10822681 -0.3455732 0.1965008
000050 0f d8 58 3e 18 48 5e be df 20 90 bd fa 1c 48 3f
       0.2117617 -0.21707189 -0.0703752 0.78169215
000060 39 63 88 be bf 98 87 be 44 50 72 be 7f 1e ed 3e
       -0.266382 -0.26483724 -0.23663431 0.4631233
000070 f5 3f 06 bf fb 77 67 3e 88 86 b9 3d ea 7a b3 bc
       -0.5244134 0.22604363 0.09058863 -0.021909196
000080 2c 20 62 3f 30 dc a4 3e 5c 04 02 3d 96 27 fd 3e
       0.8833034 0.3219924 0.03174244 0.49444264
000090 02 4d 92 3e de f1 67 3e cc bc c6 3e 0d b4 b1 3e
       0.28574377 0.22650859 0.38815916 0.3470768
0000a0 47 20 8e be 7d 78 c9 3e 5e 0f 0e 3f 59 02 91 bf
       -0.27759 0.39349738 0.554922 -1.1328841
0000b0 f8 62 ac be 8d 1c 1d 3e bf bd 6f bf e0 17 f2 3d
       -0.33669257 0.15342923 -0.93648905 0.1182096
0000c0 05 a1 2e 3d 7c 0f 27 3e 67 80 c3 3e e6 d0 45 3e
       0.04263403 0.163145 0.381839 0.1931797
0000d0 f2 5f ae 3e dd 5d f6 be 43 9f 4f bf ff bf 83 3e
       0.34057575 -0.48118487 -0.8110239 0.2573242
0000e0 f1 d0 8a be 44 67 39 bf aa d8 56 3d 10 83 d5 bb
       -0.27112535 -0.72423196 0.05245272 -0.006515868
0000f0 d2 76 17 be c1 90 94 be d7 ae c0 be d2 91 fa 3e
       -0.1479142 -0.29016688 -0.37633392 0.48939377

lstm.bias_ih_l1 f4 [16]
000000 4b 0a 9a 3e e5 61 5a 3c 4d 3c 8a 3e a4 50 89 3e
       0.30085978 0.013329004 0.2699913 0.26819336
000010 fe 69 8b 3e 92 08 53 3f 23 42 87 3f 16 81 49 3b
       0.27229303 0.8243495 1.0567058 0.0030747107
000020 ec 41 72 3f 56 48 e9 be 41 3d 86 bf f8 ae 42 3f
       0.9463184 -0.45563 -1.0487443 0.7604823
000030 70 8e f7 3e 50 d1 5e 3f e9 0e 68 3c e3 5e 8a 3e
       0.4835086 0.87038136 0.014163711 0.27025518

lstm.bias_hh_l1 f4 [16]
000000 d3 03 09 3f ea 84 01 3e 9a 3e a6 3e 3c aa f2 3d
       0.5352146 0.12648359 0.32469636 0.11848876
000010 53 26 7e 3f 45 66 a1 3e 26 5d 9b 3e 2d 01 1f 3e
       0.9927723 0.31523338 0.30344504 0.15527792
000020 d8 64 69 3f 18 f4 dc be 76 0d 13 bf 6a 18 bb 3e
       0.911695 -0.4315498 -0.57442415 0.36542064
000030 90 cd 24 3f 42 62 bb 3e da 7a bb 3e 5b 35 e4 3e
       0.64376163 0.36598402 0.36617166 0.44571957

fc.weight f4 [5, 4]
000000 18 2a 1b 3f ea a4 43 bf 7b 9b ab 3e 21 18 d7 3e
       0.60611105 -0.76423514 0.3351706 0.42010596
000010 c5 52 04 40 9c 51 14 40 45 54 08 40 04 27 ee be
       2.0675519 2.317481 2.1301434 -0.46514142
000020 1b 57 8a 3f 32 7c 50 bf 01 15 00 bf e9 cd 21 bf
       1.0807832 -0.81439507 -0.5003205 -0.6320482
000030 c4 16 e2 bf f6 fd 42 bf 85 ce 72 bf 51 18 1e 3f
       -1.7663198 -0.76168764 -0.94846374 0.61755854
000040 2e 91 0a c0 69 06 58 bf b6 6c 30 bf 34 c6 45 3f
       -2.165111 -0.8438478 -0.6891588 0.7725556

fc.bias f4 [5]
000000 fa 5b 70 bd f8 af d2 3e d6 50 b0 be 01 6e d1 bd
       -0.058681466 0.41149879 -0.34436673 -0.1022606
000010 d8 dc 86 3d
       0.06585091
