models/2.2.2-lstm-network-model-test-28x1.pth (torch, 17098 bytes, 6 tensors)

lstm.weight_ih_l0 f4 [112, 3]
0.13525155 0.09113707 -0.036343746 0.13785979 0.13406917 0.08290584 -0.14415525 -0.010580699
0.21012712 -0.024275972 -0.097416535 0.018448172 0.47086707 -0.11436235 0.07955064 -0.11336306
0.1173714 0.096013494 -0.045944832 0.075955845 0.110469 -0.04287583 -0.21447359 0.099872194
0.18102777 0.06721844 -0.23380695 0.04420929 -0.21916762 0.06454764 0.09234496 -0.04853326
0.09751553 0.15957074 0.113354854 0.10024595 0.20453677 0.13358185 -0.17468718 -0.10957016
0.24062207 0.027325526 0.11687651 -0.0008276637 0.024510404 0.37423673 0.07885154 -0.087143905
0.09386169 0.087118365 0.1454799 0.13959125 0.13337594 -0.03388559 0.20250659 0.30170432
-0.34041104 -0.0624746 0.28699127 -0.09570318 0.06973656 -0.029006163 -0.09252665 -0.0054044174
0.12143617 -0.02187041 0.058822762 0.049346197 -0.026878592 -0.05175811 0.09778502 -0.20081791
-0.023834314 0.12403531 0.16321073 0.35300246 -0.037428726 -0.24995318 0.0021518606 -0.18722078
0.26583385 0.0066455994 -0.20143482 -0.016920054 0.030942872 -0.058736153 -0.12319972 -0.07920366
0.019612875 -0.048772987 -0.029588494 0.086565696 0.10876649 0.12855588 -0.16650097 -0.42513636
0.5403295 -0.74214274 -0.78181446 -0.11328563 -0.18686873 -0.27268088 -0.08086379 0.18746704
0.16358139 -0.0048740525 -0.2745257 -0.16612564 0.097611465 0.10454438 -0.061984565 -0.32210752
-0.35307378 0.05521163 -0.09491595 -0.024654135 0.011922653 -0.1592439 0.13920388 0.02731829
-0.0412383 -0.16391844 -0.10195619 -0.24710406 -0.03904111 0.13781378 0.029201636 -0.22612706
-0.20440957 -0.021281425 -0.66033065 -0.27942684 -0.18220131 -0.20404097 -0.046848074 0.038082812
0.18935087 -0.05485859 0.40939784 -0.09546222 -0.8395714 0.21761817 -0.014414195 -0.20471433
-0.16220476 -0.17621821 0.08792264 0.09484883 0.10172784 -0.33002865 0.07780083 0.1532335
-0.28551084 0.03030714 -0.005395472 -0.18835881 -0.033929337 0.19457957 0.017293196 0.13906969
-0.30128324 -0.3079005 -0.32012326 -0.24772885 0.24631247 -0.29957482 0.20188183 0.13408042
0.40540758 -0.44294247 -0.36768624 -0.16555859 0.044411097 -0.12715466 -0.6169333 0.28164122
0.07424231 0.19996732 1.4252144 -0.37936085 -2.364751 -1.5639467 -0.45221964 0.5107554
-0.37907043 0.06684886 -0.1918774 -0.19069582 -0.18144414 -1.2150433 -0.029757934 -0.056128558
0.3895836 0.3533049 -0.25820044 1.3702734 0.023481412 -0.14728992 -0.028849475 0.28340182
0.17340446 -0.087018184 0.26026252 0.12383565 -0.65729564 0.08806694 0.29642308 -0.73716086
0.16232839 0.21797535 0.647108 -0.52415395 -0.62570083 -0.65274215 -0.09104038 -0.51527303
-0.2587993 0.22408518 0.27038616 1.5669554 0.04345243 -0.21913604 0.12544733 -1.7946441
-0.3156384 0.404062 0.21150073 -0.43729076 -0.32197818 0.1313853 0.40363255 -0.7619467
-0.022027314 0.62813705 -1.2463437 0.09466902 -0.11414377 -0.9757908 -0.34845388 -0.021754218
0.7002503 -0.3443059 -0.13125293 -1.068156 -0.27808863 -0.5614655 1.3220931 -0.9438232
-1.4307766 -1.7478721 0.76698816 0.26545277 0.14355695 -0.007916411 0.11079956 0.16187738
00000000: 627f 0a3e 12a6 ba3d 2edd 14bd 1e2b 0d3e
00000010: 6e49 093e 89ca a93d 6f9d 13be ab5a 2dbc
00000020: 902b 573e 67de c6bc 5282 c7bd 9f20 973c
00000030: 7d15 f13e cf36 eabd 72eb a23d e42a e8bd
00000040: 6b60 f03d b9a2 c43d a630 3cbd bd8e 9b3d
00000050: 923d e23d 919e 2fbd f79e 5bbe cb89 cc3d
00000060: 585f 393e d2a9 893d 176b 6fbe cd14 353d
00000070: 7a6d 60be 8e31 843d 5b1f bd3d d0ca 46bd
00000080: 39b6 c73d 8366 233e 9726 e83d c04d cd3d
00000090: 1672 513e aec9 083e 32e1 32be 5266 e0bd
000000a0: a265 763e c8d9 df3c f45c ef3d 92f7 58ba
000000b0: 0bca c83c f59b bf3e eb7c a13d 8178 b2bd
000000c0: 8f3a c03d 1d6b b23d aff8 143e 02f1 0e3e
000000d0: b493 083e 9ecb 0abd e35d 4f3e fd78 9a3e
000000e0: 5b4a aebe 5ee5 7fbd 85f0 923e 0700 c4bd
000000f0: 0bd2 8e3d 559e edbc 9d7e bdbd 8a17 b1bb
00000100: 87b3 f83d 9329 b3bc 23f0 703d 3d1f 4a3d
00000110: 7e30 dcbc 5000 54bd 8343 c83d 36a3 4dbe
00000120: 2e40 c3bc 3906 fe3d b720 273e bdbc b43e
00000130: dd4e 19bd baf3 7fbe 3b06 0d3b ceb6 3fbe
00000140: 601b 883e 54c3 d93b ee44 4ebe ed9b 8abc
00000150: e87b fd3c 5295 70bd 2350 fcbd 8735 a2bd
00000160: 2eab a03c 2fc6 47bd 9263 f2bc 5b49 b13d
00000170: f7c0 de3d 27a4 033e 3b7f 2abe 79ab d9be
00000180: 0953 0a3f 11fd 3dbf fe24 48bf 4c02 e8bd
00000190: 845a 3fbe d49c 8bbe ea9b a5bd 5cf7 3f3e
000001a0: e181 273e 84b6 9fbb a28e 8cbe d71c 2abe
000001b0: 85e8 c73d 5d1b d63d 87e3 7dbd 47eb a4be
000001c0: 16c6 b4be 9725 623d 4b63 c2bd 78f7 c9bc
000001d0: 3b57 433c d510 23be 768b 0e3e 9bca df3c
000001e0: 7ee9 28bd 3cda 27be 68ce d0bd d908 7dbe
000001f0: 92e9 1fbd 0e1f 0d3e 4538 ef3c da8d 67be
00000200: be50 51be 6256 aebc 6e0b 29bf 0911 8fbe
00000210: fb92 3abe 1ef0 50be c4e3 3fbd b9fc 1b3d
00000220: 32e5 413e 67b3 60bd 989c d13e b281 c3bd
00000230: 27ee 56bf 4cd7 5e3e 8429 6cbc a2a0 51be
00000240: 0119 26be 8c72 34be c910 b43d 1a40 c23d
00000250: b056 d03d 84f9 a8be 0b56 9f3d 3ee9 1c3e
00000260: 7a2e 92be ae46 f83c 80cc b0bb 22e1 40be
00000270: 7df9 0abd de3f 473e 76aa 8d3c 4968 0e3e
00000280: cc41 9abe 22a5 9dbe 32e7 a3be a2ac 7dbe
00000290: 5639 7c3e df61 99be 1cba 4e3e 614c 093e
000002a0: 9591 cf3e 5bc9 e2be 5f41 bcbe 3188 29be
000002b0: 69e8 353d d534 02be 57ef 1dbf 4733 903e
000002c0: 5a0c 983d 3cc4 4c3e 6d6d b63f 963b c2be
000002d0: 1558 17c0 682f c8bf 5589 e7be dec0 023f
000002e0: 8515 c2be 0ee8 883d 827b 44be c445 43be
000002f0: 7ecc 39be 8a86 9bbf e9c6 f3bc 0fe7 65bd
00000300: 8077 c73e 61e4 b43e d932 84be 1e65 af3f
00000310: 175c c03c 2bd3 16be bc55 ecbc 0b1a 913e
00000320: f090 313e 9736 b2bd 2141 853e 8c9d fd3d
00000330: 8744 28bf 715c b43d c4c4 973e 93b6 3cbf
00000340: 6a39 263e ee34 5f3e dfa8 253f f42e 06bf
00000350: ee2d 20bf 1c1a 27bf 6173 babd efe8 03bf
00000360: 5881 84be 9676 653e 0e70 8a3e ff91 c83f
00000370: 2dfb 313d 3365 60be 4475 003e e6b6 e5bf
00000380: 5b9b a1be 37e1 ce3e a693 583e 93e4 dfbe
00000390: 53da a4be de89 063e eda8 ce3e f00e 43bf
000003a0: a072 b4bc 97cd 203f 3188 9fbf d5e1 c13d
000003b0: 35c4 e9bd 6dcd 79bf 8c68 b2be e735 b2bc
000003c0: 9b43 333f dd48 b0be 2b67 06be 56b9 88bf
000003d0: a261 8ebe 34bc 0fbf 593a a93f 669e 71bf
000003e0: b023 b7bf 46ba dfbf 5659 443f 6de9 873e
000003f0: 9800 133e d6b3 01bc e1ea e23d 2fc3 253e

lstm.weight_hh_l0 f4 [112, 28]
-0.08864967 0.13428189 -0.053972825 0.14888677 0.16999413 0.03730992 -0.07625155 -0.0088308975
-0.13667916 0.088088565 -0.03921626 -0.039403696 0.09137441 -0.047949966 -0.09223749 -0.0027896732
0.17067888 0.0151329795 0.10459835 0.014514065 -0.03945917 -0.11220389 0.0258691 0.11652905
0.08544885 0.050109185 -0.021627728 -0.1008691 -0.08808201 -0.1315891 -0.031384908 -0.18288916
-0.11562413 -0.16654472 0.10598636 -0.047459416 -0.013203195 0.11826783 0.1470741 -0.09360615
0.09072291 0.15221979 -0.1014918 0.14924653 0.17731354 0.026877327 -0.07452313 -0.1699565
-0.10539664 0.18734388 -0.0012520911 0.12098356 0.13151932 -0.03808 -0.18767722 0.070107184
-0.14014004 -0.17359261 0.017236812 0.21853076 -0.32305092 0.1740108 -0.12302146 -0.15335584
0.07892457 -0.05284516 0.029786238 -0.18005754 0.058128584 0.21561252 -0.07305657 -0.024323475
0.16780333 -0.101071455 0.026178926 -0.17859934 -0.017027298 0.20372409 -0.23930803 -0.150014
0.043935467 0.13950205 -0.15663536 -0.017937813 -0.17819661 0.00796831 -0.002330349 -0.1276485
0.22219141 -0.14278936 -0.1372546 0.1958268 0.041163854 0.09758173 -0.01694787 0.043360088
0.06950283 0.10370909 0.15878756 0.07628009 0.06060496 -0.22599968 0.1241044 -0.06984362
0.09156562 -0.09438567 0.02914074 -0.005656671 0.16143316 0.07775153 0.04632912 0.21425979
0.08211278 -0.011059382 -0.05304286 0.023917675 -0.081433855 -0.008793001 -0.223975 -0.19533244
0.09446687 0.1840458 -0.098957635 -0.08306798 -0.2556797 0.06942106 0.18763207 0.15769273
0.003929125 -0.02596433 0.07775921 0.32399857 0.055690043 0.033497833 0.09851568 -0.07393429
0.13235077 -0.021459125 0.09166458 -0.11036284 -0.14405155 0.08395325 -0.09282789 0.14708939
-0.21546404 -0.045178562 0.120274216 -0.016077433 -0.11776957 0.077837326 0.10214679 -0.18342943
-0.20257035 -0.017910386 -0.1384999 -0.2019999 0.18130156 0.09472425 0.14550798 -0.07138846
0.073732495 0.036289595 -0.15452683 -0.07934925 0.021318506 -0.10259336 -0.03241174 -0.04825047
-0.048569568 -0.15480806 0.06654704 0.13361792 -0.15441574 0.13922979 0.13994433 -0.16053371
0.03716899 -0.08860339 0.11676973 -0.15475743 -0.14043957 0.14129949 0.0953549 -0.12624381
0.069225065 0.15014228 -0.19299354 0.11440136 -0.055468768 -0.11421068 -0.058424838 -0.16892785
-0.14978392 -0.0152121745 -0.031203669 0.059879366 -0.022661297 -0.10541959 0.18648958 -0.103489906
-0.013961574 0.08878837 0.07188938 -0.1633766 -0.039994188 -0.18909097 -0.009535147 0.05396543
0.01340834 0.11431944 -0.010464119 0.19229536 0.13300063 0.06837745 -0.11534321 0.0030052667
0.14281766 0.10073442 -0.006685461 -0.02352271 -0.076829635 0.07031565 -0.12017837 0.18420655
-0.12544322 -0.11793274 -0.10535462 0.08806436 0.19119234 0.121386096 0.1906609 -0.06622073
-0.0026856228 0.051447142 0.06759281 0.09918931 -0.16858046 0.23577078 -0.001837432 -0.18419893
-0.09080406 -0.06381804 -0.13301659 -0.09849344 0.083190136 -0.14884 0.024992865 0.0730215
-0.019492723 -0.000907185 0.23202159 -0.049983658 0.02468529 0.12188606 0.01851539 -0.10900338
00000000: f58d b5bd 3181 093e 9c12 5dbd c675 183e
00000010: f112 2e3e 49d2 183d c629 9cbd 78af 10bc
00000020: 9ff5 0bbe c767 b43d 3ba1 20bd c565 21bd
00000030: 8222 bb3d 2f67 44bd 02e7 bcbd f3d2 36bb
00000040: 72c6 2e3e 51f0 773c a937 d63d 67cc 6d3c
00000050: f09f 21bd 27cb e5bd 6feb d33c c8a6 ee3d
00000060: cfff ae3d 4a3f 4d3d a22c b1bc 7594 cebd
00000070: 5764 b4bd 4bbf 06be 768d 00bd 4c47 3bbe
00000080: 58cc ecbd b38a 2abe 600f d93d ce64 42bd
00000090: 3752 58bc 6736 f23d 989a 163e 95b4 bfbd
000000a0: efcc b93d 81df 1b3e efda cfbd 15d4 183e
000000b0: ae91 353e d72d dc3c 959f 98bd 1409 2ebe
000000c0: 32da d7bd 13d7 3f3e 351d a4ba 3bc6 f73d
000000d0: 00ad 063e c6f9 1bbd 752e 40be 5b94 8f3d
000000e0: df80 0fbe 43c2 31be 3734 8d3c 87c6 5f3e
000000f0: ee66 a5be e32f 323e adf2 fbbd 5009 1dbe
00000100: 34a3 a13d 2b74 58bd 4502 f43c 0161 38be
00000110: 3d18 6e3d 87c9 5c3e af9e 95bd 0642 c7bc
00000120: a3d4 2b3e 8dfe cebd 3075 d63c bfe2 36be
00000130: d57c 8bbc 0c9d 503e 2a0d 75be 459d 19be
00000140: adf5 333d a0d9 0e3e 0565 20be 52f2 92bc
00000150: 2c79 36be 848d 023c c5b8 18bb 4ab6 02be
00000160: 2586 633e 6037 12be 788c 0cbe d286 483e
00000170: 6e9b 283d eed8 c73d 42d6 8abc 599a 313d
00000180: 8057 8e3d 6e65 d43d 3599 223e bc38 9c3d
00000190: e83c 783d 766c 67be 732a fe3d 2c0a 8fbd
000001a0: c186 bb3d 464d c1bd 90b8 ee3c 985b b9bb
000001b0: bc4e 253e 323c 9f3d 9ac3 3d3d eb66 5b3e
000001c0: bf2a a83d 6932 35bc 7843 59bd 00ef c33c
000001d0: cbc6 a6bd 8510 10bc b459 65be 3a05 48be
000001e0: d977 c13d 8176 3c3e 4daa cabd 8c1f aabd
000001f0: 73e8 82be a12c 8e3d 9f22 403e 347a 213e
00000200: e4bf 803b 26b3 d4bc 3840 9f3d 24e3 a53e
00000210: 3e1b 643d 0635 093d 97c2 c93d dc6a 97bd
00000220: f686 073e 0ccb afbc a4ba bb3d ea05 e2bd
00000230: 4082 13be aeef ab3d 8c1c bebd 9a9e 163e
00000240: 9ba2 5cbe 280d 39bd 5452 f63d d2b4 83bc
00000250: 2c31 f1bd 2d69 9f3d 5632 d13d edd4 3bbe
00000260: 9a6e 4fbe cdb8 92bc ebd2 0dbe 10d9 4ebe
00000270: 1ea7 393e cafe c13d 0b00 153e 1d34 92bd
00000280: 1001 973d 66a4 143d 483c 1ebe dc81 a2bd
00000290: 26a4 ae3c 781c d2bd 2cc2 04bd 49a2 45bd
000002a0: e2f0 46bd 0186 1ebe d149 883d 23d3 083e
000002b0: 291f 1ebe 4192 0e3e 914d 0f3e f362 24be
000002c0: 833e 183d b275 b5bd f824 ef3d bb78 1ebe
000002d0: 64cf 0fbe d0b0 103e 6e49 c33d 0f46 01be
000002e0: dfc5 8d3d e6be 193e 19a0 45be 434b ea3d
000002f0: 3833 63bd 4ae7 e9bd e24e 6fbd 6cfb 2cbe
00000300: f560 19be 7c3c 79bc d69e ffbc 1144 753d
00000310: 2fa4 b9bc 3ae6 d7bd 20f7 3e3e 84f2 d3bd
00000320: 16bf 64bc add6 b53d bd3a 933d 324c 27be
00000330: f2d0 23bd 10a1 41be 4e39 1cbc db0a 5d3d
00000340: a7ae 5b3c 5020 ea3d b271 2bbc 13e9 443e
00000350: 5131 083e 7a09 8c3d 1039 ecbd 02f4 443b
00000360: cb3e 123e d94d ce3d b611 dbbb b3b2 c0bc
00000370: db58 9dbd a701 903d 1420 f6bd a4a0 3c3e
00000380: 3074 00be b886 f1bd 2ac4 d7bd 165b b43d
00000390: edc7 433e 4699 f83d 9c3c 433e bc9e 87bd
000003a0: 4601 30bb 3dba 523d 196e 8a3d c423 cb3d
000003b0: 5ba0 2cbe e56d 713e fdd5 f0ba a59e 3cbe
000003c0: 7bf7 b9bd 08b3 82bd 8035 08be eeb6 c9bd
000003d0: 975f aa3d 8369 18be d6bd cc3c 4c8c 953d
000003e0: 34af 9fbc 28d0 6dba 1197 6d3e aabb 4cbd
000003f0: ce38 ca3c 669f f93d 96ad 973c 2a3d dfbd

lstm.bias_ih_l0 f4 [112]
0.24588194 -0.15443367 -0.14927286 0.25902104 0.32942238 0.2716255 0.02388542 0.21321516
-0.03337863 0.18237314 0.029103033 0.13537993 0.21728398 0.089252196 0.04999467 0.01729419
0.05186652 0.28530952 0.054155905 -0.07156697 0.02559253 0.009601827 0.21349092 0.18318897
0.17558062 0.21736328 0.3564566 0.29326028 0.057818335 0.12152728 0.06049528 0.11681492
1.0012974 0.20731114 -0.0951082 0.6089969 0.22818895 0.31149092 0.24850543 0.1141367
0.37458143 0.33774972 0.04391616 0.66693836 0.04919039 0.13118339 0.14007229 0.15949193
-0.009101593 0.43989822 0.50411713 0.09009928 0.15814362 0.6978187 0.09334184 0.73115915
0.16747466 -0.060282394 -0.10818056 -0.31743124 -0.67760044 0.0015217141 -0.13539277 0.30863354
-0.0032500452 -0.037369084 0.06421716 0.22464825 -0.30750665 0.1696867 0.02582085 0.18032333
0.07523717 1.0899514 -0.22972836 -0.0024639012 -0.113909066 -0.29604214 -1.0671868 -0.65722084
-0.12696186 -0.24871828 -0.2731765 0.034803446 0.089612216 0.12589692 0.24240468 0.12648416
0.72495717 0.17279527 0.0911632 0.36315113 0.0056484835 0.4673032 0.042209383 -0.011652948
0.099860415 0.31958997 0.20704569 0.4117496 -0.08159493 0.26618636 0.38879392 0.24136928
-0.022425583 0.019618558 0.4927168 0.07653439 0.2705797 0.5797446 0.47607735 0.17647314
00000000: 7ac8 7b3e dc23 1ebe fcda 18be 689e 843e
00000010: 0daa a83e 7f12 8b3e 5bab c33c 1355 5a3e
00000020: 08b8 08bd 06c0 3a3e 7c69 ee3c 09a1 0a3e
00000030: b17f 5e3e dbc9 b63d 36c7 4c3d 8cac 8d3c
00000040: fd71 543d 1714 923e 95d2 5d3d b491 92bd
00000050: 6da7 d13c fb50 1d3c 5d9d 5a3e e495 3b3e
00000060: 68cb 333e 7b94 5e3e 7b81 b63e 3626 963e
00000070: ebd2 6c3d 4be3 f83d e6c9 773d a93c ef3d
00000080: 832a 803f 5f49 543e 17c8 c2bd 39e7 1b3f
00000090: 5daa 693e bd7b 9f3e 3578 7e3e 81c0 e93d
000000a0: 23c9 bf3e 88ed ac3e 6ee1 333d 79bc 2a3f
000000b0: dd7b 493d f054 063e 1c6f 0f3e da51 233e
000000c0: d91e 15bc 573a e13e d20d 013f f985 b83d
000000d0: 67f0 213e 3fa4 323f 022a bf3d 3f2d 3b3f
000000e0: 7a7e 2b3e acea 76bd c58d ddbd 5986 a2be
000000f0: 3977 2dbf 4174 c73a 67a4 0abe 3705 9e3e
00000100: b6fe 54bb 5310 19bd 4984 833d 310a 663e
00000110: 8371 9dbe 5ac2 2d3e 3f86 d33c aea6 383e
00000120: f215 9a3d 8783 8b3f e93d 6bbe 6779 21bb
00000130: 2849 e9bd d692 97be 9499 88bf a03f 28bf
00000140: 4a02 02be 01b0 7ebe cadd 8bbe 0f8e 0e3d
00000150: 9c86 b73d 1feb 003e ef38 783e 1085 013e
00000160: cb96 393f 3ef1 303e c6b3 ba3d f2ee b93e
00000170: ea16 b93b 5d42 ef3e bfe3 2c3d 02ec 3ebc
00000180: 9e83 cc3d 4ca1 a33e c903 543e d8d0 d23e
00000190: 3e1b a7bd 9449 883e ff0f c73e 8229 773e
000001a0: dbb5 b7bc 19b7 a03c 6045 fc3e 10be 9c3d
000001b0: 6c89 8a3e 246a 143f 69c0 f33e 60b5 343e

lstm.bias_hh_l0 f4 [112]
0.0009012338 -0.03415166 0.004144477 0.37422663 0.04670317 0.20275125 0.03495747 0.15568101
0.20534009 0.3226906 0.22334531 -0.10614202 0.14038919 -0.036167253 0.073377945 0.16121246
-0.07822814 0.056103047 -0.13252565 0.039942574 0.20828865 -0.041801147 -0.016112655 0.22518364
0.013789396 0.21567059 0.017920196 0.034015633 0.03232121 -0.06847123 0.24105564 0.13210648
1.2798634 0.23180328 -0.06571041 0.39302036 0.0025465027 0.47833362 0.09528749 0.061984073
0.17957349 0.33770648 0.13248925 0.5846097 0.0001258498 0.18855533 0.22809197 0.17734213
0.03981996 0.23105575 0.4257634 0.14031826 0.22730869 0.6364133 -0.12821941 0.6322302
-0.016075924 0.15146877 0.18891361 -0.42698252 -0.56278515 -0.2787956 -0.046979524 0.32711616
-0.018105285 -0.26542425 0.092381574 -0.08415656 -0.35007033 0.012923796 0.15611087 0.28539035
0.03785023 0.98488533 -0.37119865 -0.085912466 -0.14085084 -0.25700352 -1.1125525 -0.6543607
-0.37526748 -0.28716063 -0.24500439 0.26289362 0.19884963 0.062374726 0.07568789 0.4492576
0.8190989 0.0061051897 -0.03467488 0.40233716 0.09706033 0.32061577 0.0013974643 0.14817588
0.06919595 -0.03103567 0.09605434 0.55303174 0.074154094 0.38924414 0.17826878 0.19086476
0.09259272 -0.0987918 0.23094791 0.23738486 0.14822924 0.5553175 0.45079464 0.48962048
00000000: c740 6c3a 9ce2 0bbd 65ce 873b a29a bf3e
00000010: d34b 3f3d 069e 4f3e 902f 0f3d d86a 1f3e
00000020: ac44 523e b437 a53e a2b4 643e fd60 d9bd
00000030: 2fc2 0f3e 1d24 14bd 2d47 963d e114 253e
00000040: 1336 a0bd 4fcc 653d ceb4 07be d39a 233d
00000050: 9f49 553e ae37 2bbd b0fe 83bc 8a96 663e
00000060: ebec 613c c0d8 5c3e 60cd 923c fa53 0b3d
00000070: 3f63 043d a53a 8cbd 4ad7 763e ec46 073e
00000080: 90d2 a33f d75d 6d3e 2e93 86bd f739 c93e
00000090: 3ae3 263b 25e8 f43e 1626 c33d 03e3 7d3d
000000a0: 1de2 373e dde7 ac3e 43ab 073e fba8 153f
000000b0: 8cf6 0339 a614 413e f190 693e 2d99 353e
000000c0: 411a 233d e199 6c3e a9fd d93e 97af 0f3e
000000d0: 9cc3 683e fbeb 223f f34b 03be d7d9 213f
000000e0: a8b1 83bc a11a 1b3e 9272 413e 749d dabe
000000f0: b012 10bf 4cbe 8ebe 9a6d 40bd c57b a73e
00000100: 8951 94bc b0e5 87be 8d32 bd3d 465a acbd
00000110: 6b3c b3be 54be 533c 87db 1f3e af1e 923e
00000120: d808 1b3d 7221 7c3f c00d bebe e0f2 afbd
00000130: 343b 10be f795 83be 1f68 8ebf 2f84 27bf
00000140: 0f23 c0be b806 93be 6ee2 7abe fe99 863e
00000150: 3d9f 4b3e a47c 7f3d 4102 9b3d 1805 e63e
00000160: 77b0 513f 0b0e c83b 3f07 0ebd 23ff cd3e
00000170: 91c7 c63d c027 a43e 1f2b b73a 6bbb 173e
00000180: 9bb6 8d3d 843e febc 23b8 c43d 7d93 0d3f
00000190: 1ade 973d 024b c73e 178c 363e 0d72 433e
000001a0: 41a1 bd3d 5b53 cabd 9c7d 6c3e 0415 733e
000001b0: 68c9 173e 4a29 0e3f 8ece e63e 89af fa3e

fc.weight f4 [5, 28]
-0.100807436 0.035398643 0.40099356 0.014418627 -1.7767676 -0.47190765 -0.07447342 -0.2376493
0.08913008 0.23204492 0.40726206 0.17722584 -0.16710359 -0.37231138 -0.12229096 0.95427746
0.21466315 0.20176774 -0.06616357 -0.058564246 0.0874062 -0.055561934 -0.043561086 -0.09777275
0.12785406 -0.6122388 -1.1229652 0.085618265 0.4068776 -0.36960256 -0.8310254 -0.05150356
-0.828268 0.95297855 0.00024552355 -0.26810437 -0.31688702 0.005051896 -0.27003214 -0.023814801
-0.4158023 0.22777417 0.09565289 -1.847718 -0.15051964 0.9458853 -0.42227685 -0.4656502
-0.05482511 0.16020222 -0.5737614 -1.0107956 0.13082859 -0.70910263 0.16583833 -1.1332707
-0.57733 0.21429485 0.2824444 0.7004646 0.4538837 -0.14928883 -0.071661 -0.007869937
0.3899245 -0.27184275 -0.32975832 0.03070569 -0.31816378 -0.08000948 0.15790631 -0.008803475
-0.27149373 -0.38076586 -1.5494094 0.2908519 -0.28576672 -0.26429078 -1.5484966 -0.036598604
-0.15835422 0.71223813 -0.286602 0.29319033 0.14083596 -0.018028656 0.069752626 0.8485278
1.2419676 -0.32906693 0.13061547 -0.06687903 0.2358173 0.18662837 -0.04896015 0.3506751
-0.08019442 -0.12709145 0.0633948 0.46574655 -0.017880585 -0.32233173 1.4006609 0.543339
0.112093054 -0.5229026 0.89172655 0.45055777 -0.20922579 0.90509075 0.3996458 0.30226228
0.4776791 0.2746089 0.04183651 -1.521115 0.7661005 -0.023945116 0.25238967 0.46112993
-0.44812578 -0.17576478 -0.1291794 -0.3874266 0.7121321 0.40318596 -0.003812539 0.5076424
0.00026586908 -0.75997806 0.60652006 -0.49288014 0.28780293 0.3735996 0.9864341 0.8341646
0.22234373 -0.20701368 1.1202267 0.25023133
00000000: 2174 cebd 2bfe 103d 074f cd3e 1b3c 6c3c
00000010: 1f6d e3bf e19d f1be 8585 98bd 575a 73be
00000020: d589 b63d 2f9d 6d3e a784 d03e b17a 353e
00000030: 341d 2bbe 999f bebe af73 fabd 874b 743f
00000040: a8d0 5b3e 349c 4e3e c480 87bd 10e1 6fbd
00000050: 0602 b33d e994 63bd 1c6d 32bd 143d c8bd
00000060: 2dec 023e afbb 1cbf 53bd 8fbf a158 af3d
00000070: 4352 d03e 8c3c bdbe 15be 54bf 66f5 52bd
00000080: 5f09 54bf 67f6 733f 9db9 8039 fa44 89be
00000090: 043f a2be 608a a53b a741 8abe 4217 c3bc
000000a0: 0ae4 d4be a23d 693e aae5 c33d 0682 ecbf
000000b0: d221 1abe 8a25 723f ac34 d8be b469 eebe
000000c0: 4b90 60bd 0d0c 243e 07e2 12bf c061 81bf
000000d0: eef7 053e c087 35bf 86d1 293e 040f 91bf
000000e0: e6cb 13bf 1c70 5b3e 8d9c 903e a651 333f
000000f0: 7263 e83e 2cdf 18be 01c3 92bd e9f0 00bc
00000100: 2fa4 c73e f92e 8bbe 15d6 a8be 808a fb3c
00000110: 5de6 a2be 03dc a3bd 31b2 213e 733c 10bc
00000120: 3a01 8bbe bef3 c2be 0c53 c6bf 8aea 943e
00000130: 0450 92be 1f51 87be 2335 c6bf 6be8 15bd
00000140: 9c27 22be 3d55 363f 7fbd 92be 0b1d 963e
00000150: 4d37 103e d5b0 93bc 77da 8e3d 1e39 593f
00000160: cbf8 9e3f 767b a8be 10c0 053e dff7 88bd
00000170: 177a 713e 821b 3f3e 708a 48bd b08b b33e
00000180: f93c a4bd 4324 02be 22d5 813d 5576 ee3e
00000190: 4e7a 92bc aa08 a5be db48 b33f 4418 0b3f
000001a0: 0b91 e53d f2dc 05bf 3148 643f 82af e63e
000001b0: 493f 56be 07b4 673f 609e cc3e 1fc2 9a3e
000001c0: 5b92 f43e 8a99 8c3e c35c 2b3d e5b3 c2bf
000001d0: 2a1f 443f 8c28 c4bc 3839 813e 3919 ec3e
000001e0: be70 e5be affb 33be 9b47 04be c85c c6be
000001f0: 4a4e 363f 646e ce3e cadb 79bb daf4 013f
00000200: 5864 8b39 ec8d 42bf e644 1b3f c95a fcbe
00000210: e85a 933e 7248 bf3e f286 7c3f d08b 553f
00000220: 13ae 633e 65fb 53be 9763 8f3f 521e 803e

fc.bias f4 [5]
1.291712 -0.6940561 -0.064284004 -0.21129958 -0.5218954
00000000: d256 a53f a9ad 31bf 55a7 83bd eb5e 58be
00000010: f09a 05bf
