models/2.3-lstm-cell-network-model.pth (torch, 277349 bytes, 6 tensors)

lstmcell.weight_ih f4 [512, 3]
0	0xbea6889a	-0.32526094
1	0x3ec13ba3	0.37740812
2	0x3e90c647	0.28276274
3	0xbd28321a	-0.041063406
4	0xbd1bbd70	-0.03802246
5	0x3bbf6f2b	0.0058421097
6	0xbe0f2d96	-0.13982233
7	0x3d01956f	0.03163665
8	0x3df14414	0.11780563
9	0xbdaec9ac	-0.085345596
10	0xbdef46aa	-0.116834
11	0xbe66ab43	-0.22526269
12	0xbf1fa32c	-0.62358356
13	0xbba47de7	-0.0050198915
14	0xbea7ec1f	-0.32797334
15	0xbd483d83	-0.048886787
16	0xbeeb9d52	-0.46018463
17	0x3ca24dfc	0.019812576
18	0x3cd27ae1	0.025693359
19	0xbe89502f	-0.26818988
20	0xbe4fd10c	-0.20294589
21	0xbef9ef1e	-0.48815244
22	0x3e62b3aa	0.22138849
23	0x3e86c757	0.2632396
24	0xbc1cfa07	-0.009581096
25	0x3e1846cc	0.14870757
26	0xbd6b20b8	-0.05740425
27	0x3e1becd2	0.15227059
28	0xbcc2e2ee	-0.02378985
29	0x3bd6b760	0.0065526217
30	0xbe74c0f4	-0.23901731
31	0x3e3658e4	0.17807347
32	0x3cc12812	0.023578677
33	0xbe8765a7	-0.26444742
34	0x3e8b3870	0.27191496
35	0x3e8bfc8e	0.2734112
36	0x3d082f13	0.03324802
37	0x3d60f95b	0.054925304
38	0xbe28b11d	-0.16473813
39	0xbe674e35	-0.22588427
40	0x3ee1e9b6	0.4412362
41	0x3e2ea2be	0.17054269
42	0x3c7159ad	0.014730853
43	0xbd7efb61	-0.062251452
44	0xbdb0d27b	-0.08633896
45	0xbee30b76	-0.44344682
46	0xbf089d98	-0.5336547
47	0xbdc6c8bd	-0.097062565
48	0x3b8da960	0.0043231696
49	0xbd21cb59	-0.039500568
50	0xbd0b653b	-0.034032088
51	0xbe4b57a3	-0.1985765
52	0x3e7c824e	0.24659082
53	0xbe61cba0	-0.22050333
54	0xbe39b635	-0.18135913
55	0x3edd6473	0.432407
56	0x3e291060	0.16510153
57	0xbe87aae1	-0.26497558
58	0x3df3d041	0.11904956
59	0xbe191523	-0.1494947
60	0x3d21ea51	0.039530102
61	0x3cf5b520	0.029993594
62	0xbe5743cd	-0.21021958
63	0xbdc70993	-0.09718623
64	0x3e825228	0.25453305
65	0x3dde2ef2	0.10848798
66	0xbd93d5b7	-0.07218497
67	0xbd237bbe	-0.03991293
68	0xbc9acc04	-0.01889611
69	0xbfaa40bc	-1.3301005
70	0xbff8919d	-1.9419438
71	0x3cc46dfb	0.023978224
72	0x3e429c79	0.19005002
73	0x3e435b2e	0.19077751
74	0xbe0f5187	-0.13995944
75	0xbe19bbdc	-0.15013069
76	0xbe3a3a02	-0.1818619
77	0xbd765a42	-0.06014467
78	0xbec28c87	-0.3799784
79	0x3e7a7ea4	0.24462372
80	0x3d9a367d	0.07529924
81	0xbe045c3b	-0.12925808
82	0x3de14ac6	0.1100059
83	0x3d888b02	0.06667139
84	0xbe4abd0b	-0.19798677
85	0x3d3cfc49	0.046139035
86	0xbe21278e	-0.15737745
87	0xbe88a485	-0.26688018
88	0x3e9ef1d6	0.3104388
89	0x3bfd984b	0.007739102
90	0xbcf8770f	-0.030330209
91	0x3d63e56e	0.055638723
92	0x3e668f0e	0.22515509
93	0xbe4f95db	-0.20272009
94	0x3ef3ba4a	0.47603065
95	0x3d0b095b	0.03394447
96	0xbe157492	-0.1459525
97	0x3e40a866	0.18814239
98	0xbe39e5d9	-0.18154086
99	0x3d81cd92	0.063380376
100	0x3da7f60a	0.08201225
101	0xbdbf7ffc	-0.09350583
102	0x3ca1da85	0.019757519
103	0xbdec02c2	-0.115239635
104	0xbd4442b3	-0.04791517
105	0xbce9c8a0	-0.028538048
106	0xbdbaaed2	-0.091153756
107	0xbc38213f	-0.011238395
108	0xbd27ef38	-0.04099962
109	0xbe1dff79	-0.15429486
110	0xbda07bfb	-0.078361474
111	0x3da3d539	0.07999653
112	0x3d312710	0.043250144
113	0xbc9ad884	-0.01890207
114	0x3dc955f1	0.09830845
115	0x3e399cc0	0.18126202
116	0xbde95a7b	-0.11394211
117	0xbf241340	-0.64091873
118	0x3f47ffb4	0.78124547
119	0xbcd55292	-0.02604035
120	0xbd8fa450	-0.07013762
121	0x3e6ae1aa	0.22937647
122	0x3ba9a3f8	0.0051770173
123	0xbddc9cdc	-0.10772106
124	0x3e19f56a	0.15035024
125	0x3dfc7c08	0.123283446
126	0xbe409482	-0.18806651
127	0xbd81e222	-0.063419595
128	0x3dfc8f42	0.12332012
129	0x3e0415d8	0.12898958
130	0xbdf0c816	-0.11756913
131	0xbda04912	-0.07826437
132	0xbdfe5e00	-0.12420273
133	0x3cd82e5d	0.026389295
134	0x3c426a5e	0.01186618
135	0xbe2c97ec	-0.16854829
136	0x3c1f4ee0	0.009723395
137	0xbc97820b	-0.018494627
138	0xbe08b9e9	-0.13352169
139	0x3e87c862	0.26520067
140	0x3ddf3eb8	0.109006345
141	0x3e3c2d7f	0.1837673
142	0x3c166505	0.009179358
143	0xbe63e4b9	-0.2225522
144	0xbda22582	-0.0791731
145	0x3ec57cde	0.3857183
146	0x3e3e7a66	0.18601379
147	0x3e070359	0.13184871
148	0x3e56b551	0.20967604
149	0xbd2663b1	-0.040622417
150	0x3e667656	0.22506079
151	0xbd45076b	-0.048102777
152	0xbda8d96e	-0.082445964
153	0xbdb06c27	-0.086143784
154	0x3e5326cd	0.2062027
155	0xbe3de31e	-0.1854367
156	0xbca36228	-0.019944265
157	0x3e0a581d	0.13510175
158	0x3e3904d5	0.1806825
159	0xbd164125	-0.03668322
160	0xbe31c54f	-0.17360424
161	0xbd159cc5	-0.03652646
162	0xbe85fdfc	-0.26170337
163	0x3e279948	0.16367066
164	0x3d877869	0.06614763
165	0xbeb13b09	-0.34615353
166	0x3cdd8b40	0.027043939
167	0x3d92a3bb	0.07160135
168	0xbe17cbda	-0.14823857
169	0xbe48a401	-0.19593813
170	0xbcf765f0	-0.030199975
171	0x3d599ac8	0.053126127
172	0x3caf4ee4	0.021399923
173	0xbcbc52bf	-0.022988675
174	0x3da0add6	0.078456566
175	0x3e5fa000	0.21838379
176	0xbda9ee4a	-0.08297403
177	0xbe29d1aa	-0.16583887
178	0x3e880f53	0.2657419
179	0x3e299e18	0.16564214
180	0xbd8176c2	-0.063214794
181	0xbc3d147b	-0.011540527
182	0x3df801ef	0.12109744
183	0xbe372aff	-0.17887495
184	0xbd04d7ed	-0.032432485
185	0xbdb7b77b	-0.08970543
186	0xbd189afe	-0.037257187
187	0xbc8f5c7f	-0.01750016
188	0xbe1f4f8f	-0.15557693
189	0xbe37c83b	-0.17947476
190	0x3e85b39a	0.26113588
191	0x3d858394	0.06519237
192	0xbeaead2a	-0.3411649
193	0x3e663dce	0.22484514
194	0xbe95673b	-0.2918032
195	0xbe42de21	-0.19030048
196	0x3e80c649	0.2515128
197	0x3e504f67	0.2034279
198	0x3d425795	0.047446806
199	0x3ddfc9f0	0.109271884
200	0x3dc5b480	0.09653568
201	0x3dc2d308	0.09512907
202	0x3e6dae20	0.23210955
203	0x3d673dd2	0.05645544
204	0x3c99bf51	0.018767985
205	0x3e411e6d	0.18859263
206	0x3d803a2f	0.06261098
207	0x3d019cf3	0.03164382
208	0x3d28b6e6	0.04119005
209	0xbe35c8ed	-0.17752428
210	0x3d120f3c	0.03565906
211	0x3d577bcc	0.052608296
212	0xbd37eecf	-0.04490548
213	0xbdfc5d89	-0.12322528
214	0xbe058603	-0.13039403
215	0x3d525bbe	0.051357023
216	0xbe6c598a	-0.23081031
217	0xbec0a2e1	-0.37624267
218	0xbd58e2e4	-0.052950755
219	0xbeb1bbdf	-0.34713647
220	0x3ef78226	0.48341483
221	0x3dab41a3	0.083621286
222	0xbd9f1f89	-0.07769687
223	0x3dac1cbc	0.08403918
224	0x3e2e8024	0.1704107
225	0xbdb5cd59	-0.088770576
226	0x3e29b2e3	0.16572146
227	0x3cfdcaa2	0.030980412
228	0xbe1adff3	-0.15124492
229	0xbd87c648	-0.06629616
230	0xbe0584e8	-0.13038981
231	0x3de7bed3	0.11315694
232	0x3eb2c801	0.34918216
233	0xbd26cd17	-0.040722933
234	0x3d30185a	0.042991973
235	0xbd2fb039	-0.04289267
236	0xbcbdfcb5	-0.02319179
237	0xbce7ef9b	-0.028312495
238	0x3cd043cf	0.025422959
239	0xbc57bc42	-0.013167443
240	0xbccec5ae	-0.025240745
241	0xbdcdd88c	-0.10051069
242	0xbdbf9ebf	-0.0935645
243	0x3dedf93b	0.116198026
244	0xbd4c0269	-0.049806986
245	0x3d3c3bbc	0.045955405
246	0xbe4c2e41	-0.1993952
247	0x3ea97028	0.3309338
248	0x3e243908	0.1603738
249	0xbd056f19	-0.032576654
250	0xbe76557c	-0.24056047
251	0xbcf1ffac	-0.02954086
252	0xbe35fcc7	-0.17772208
253	0x3e1325ba	0.1436986
254	0xbe49eee4	-0.19720036
255	0xbe47259f	-0.19447945

lstmcell.weight_hh f4 [512, 128]
0	0xbd9e8888	-0.07740885
1	0x3dd46d42	0.10372402
2	0xbdddb93a	-0.10826345
3	0x3e1ff09b	0.15619127
4	0xbd560bd4	-0.052257374
5	0x3e2e0f59	0.16998042
6	0xbda13d9e	-0.07873081
7	0xbca881fe	-0.020569798
8	0x3c5f7d38	0.013640694
9	0xbe0729c9	-0.13199534
10	0x3d55d1c2	0.052201994
11	0xbca2fd44	-0.019896157
12	0x3cbb3c4f	0.022855906
13	0x3d4124df	0.047154304
14	0xbd97255f	-0.07380175
15	0x3cd1af68	0.025596336
16	0xbdaea477	-0.08527463
17	0x3d892e4e	0.06698285
18	0x3bb68d29	0.005571027
19	0x3bd4e678	0.0064972006
20	0x3d993139	0.074800916
21	0xbd0ca52c	-0.034337208
22	0xbc23c58c	-0.009995829
23	0xbdd24be5	-0.10268382
24	0xbdb48441	-0.08814288
25	0x3c367f57	0.011138759
26	0x3ccf8192	0.025330339
27	0x3cc76fc4	0.024345286
28	0x3c8dbed1	0.017302902
29	0xbc311d2d	-0.010810179
30	0xbdb4b6a6	-0.088239
31	0xbd85a148	-0.065249026
32	0xbc8bb0bc	-0.017052047
33	0xba138ceb	-0.00056286034
34	0xbc064327	-0.008194721
35	0x3d37bbaa	0.044856705
36	0x3d115921	0.03548539
37	0xbc840fff	-0.016120909
38	0x3d5fe36c	0.054660246
39	0x3bc46f31	0.0059947004
40	0x3d347f9c	0.04406701
41	0xbcf687c0	-0.030094028
42	0xbba5c594	-0.0050589535
43	0xbdfae677	-0.12250989
44	0xbc9569f8	-0.018239006
45	0x38914c8f	6.928399e-05
46	0x3be203ef	0.0068974416
47	0xbd031e08	-0.032011062
48	0xbd8b0029	-0.0678714
49	0x3d5b7647	0.053579595
50	0x3d9d529c	0.07681772
51	0x3d967c45	0.07347921
52	0x3ca93e09	0.020659463
53	0xbd796f1d	-0.06089698
54	0x3d24a513	0.04019649
55	0x3d01a9ad	0.031655956
56	0xbd4ffb12	-0.05077655
57	0x3ca82b8d	0.02052858
58	0x3de8557b	0.11344429
59	0x3e00489f	0.12527703
60	0xbd63f14c	-0.05565004
61	0xbc85524a	-0.01627459
62	0x3dc7eb2d	0.09761653
63	0x3d125866	0.035728835
64	0xbb514250	-0.0031930394
65	0x3db0c3ef	0.08631121
66	0xbd436c84	-0.04771091
67	0x3dcbdf26	0.099546716
68	0xbd7a6d6d	-0.061139513
69	0xbd0035d0	-0.03130132
70	0xbcc28960	-0.023747146
71	0xbdea2d7e	-0.11434458
72	0x3da9da64	0.08293608
73	0xbd810511	-0.062997945
74	0x3d0d377c	0.034476742
75	0xbd2c023e	-0.041994326
76	0x3d7a39e4	0.061090365
77	0x3d20f494	0.039295748
78	0x3d36560d	0.04451566
79	0xbd1a50d7	-0.03767475
80	0x3db052cf	0.086095445
81	0xbdd351d3	-0.10318341
82	0x3dbe3105	0.092866935
83	0xbd88d376	-0.06680958
84	0xbc365a9f	-0.011130004
85	0xbc9f1a83	-0.019421821
86	0xbd272c26	-0.040813588
87	0x3c06ce11	0.008227841
88	0xbd94cb5c	-0.0726535
89	0x3d67ab7f	0.056560036
90	0x3d73d1b1	0.05952615
91	0x3d30569a	0.04305134
92	0x3d79df44	0.06100394
93	0x3d00ce6c	0.03144686
94	0x3c3b23ef	0.011422141
95	0xbd36612f	-0.044526275
96	0x3d459092	0.048233576
97	0xbcfa7265	-0.030572126
98	0xbd0bf7de	-0.03417193
99	0xbcfc6935	-0.030811885
100	0x3d92aac6	0.07161479
101	0xbd7f96ad	-0.062399555
102	0xbe05cca8	-0.13066351
103	0xbdb9a7f7	-0.0906524
104	0x3baf2e2c	0.0053460803
105	0xbd192380	-0.03738737
106	0x3c86351a	0.016382743
107	0xbd002e56	-0.03129419
108	0x3cde914c	0.027168892
109	0x3d003a81	0.031305794
110	0x3e060b64	0.13090283
111	0x3d333539	0.04375193
112	0x3d02057b	0.031743508
113	0x3d89ac86	0.06722359
114	0xbcbaf248	-0.022820607
115	0xbd61dcd9	-0.055142257
116	0x3d649c2f	0.05581301
117	0x3bfd85b2	0.007736885
118	0x3ca6f19c	0.02037888
119	0x3d9b4394	0.07581249
120	0x3cf28fb8	0.029609546
121	0xbd70983f	-0.058738943
122	0x3e1a8b43	0.15092187
123	0x3d401e63	0.04690398
124	0xbce963af	-0.028489916
125	0xbd842aec	-0.06453499
126	0x3d7b6212	0.061372824
127	0x3c94fa43	0.01818574
128	0xbd57b34c	-0.052661225
129	0x3ce65378	0.028115973
130	0xbccb22fb	-0.024796953
131	0x3d209afd	0.03921031
132	0x3c980300	0.018556118
133	0x3e0ae1c1	0.13562681
134	0x3e0b83dd	0.1362452
135	0xbbe0855a	-0.0068518342
136	0xbd9e80f0	-0.077394366
137	0xbd871ae9	-0.065969296
138	0x3d1b9f4f	0.037993725
139	0xbc83cbb7	-0.01608835
140	0xbd23f890	-0.04003197
141	0xbda2082a	-0.079117134
142	0x3c34260f	0.010995402
143	0x3d597acb	0.05309562
144	0x3cdc5ceb	0.026899775
145	0x3ddb27eb	0.10700973
146	0xbd092ad4	-0.03348811
147	0x3dcb7a3a	0.09935422
148	0xbc56f33d	-0.013119516
149	0x3d1ff080	0.039047718
150	0x3d1438c7	0.03618696
151	0x3d85d6f9	0.065351434
152	0xbd81bad9	-0.063344665
153	0x3d5f3520	0.054494023
154	0x3cfe7377	0.031060917
155	0xbd479465	-0.048725504
156	0xbd18a78c	-0.03726916
157	0xbc8fef86	-0.017570268
158	0xbd1d8d6b	-0.038464945
159	0xbd49be5e	-0.049253814
160	0xbc9c9fa9	-0.0191191
161	0xbd12d89e	-0.035851113
162	0x3d8a6c83	0.06758978
163	0x3ca130d0	0.019676596
164	0x3db52be7	0.08846264
165	0xbd3dcd3f	-0.046338316
166	0x3db45062	0.08804394
167	0xbcde6010	-0.027145416
168	0xbd0922ca	-0.033480443
169	0x3d978f40	0.0740037
170	0x3dbacf8e	0.09121619
171	0x3c80efa6	0.015739273
172	0xbd444d5c	-0.04792534
173	0x3d0dfac8	0.03466299
174	0xbbd5d648	-0.0065257885
175	0x3d149c31	0.03628177
176	0x3da0cf62	0.07852055
177	0xbd5f6255	-0.054537136
178	0x3dbcd9ac	0.09221205
179	0x3d88bf87	0.06677156
180	0xbd62baa3	-0.055353772
181	0xbd2e781a	-0.042595007
182	0x3c1af12f	0.009456917
183	0xbb5a8734	-0.0033344747
184	0x3da59d81	0.08086682
185	0x3d707921	0.058709268
186	0xbd35b908	-0.044365913
187	0xbd08338f	-0.033252295
188	0x3d4f5523	0.050618302
189	0x3dc469b3	0.09590473
190	0x3ba9a046	0.005176577
191	0x3d65e9b3	0.056131076
192	0xbc7e7937	-0.01553183
193	0xbdce3abc	-0.100697964
194	0xbd37c6fd	-0.044867504
195	0x3d6847ee	0.056709222
196	0xbc206345	-0.009789293
197	0x3c73436e	0.014847619
198	0x3d725265	0.05916061
199	0xbe147a45	-0.14499767
200	0xbdcce95c	-0.10005447
201	0xbdbb5ff3	-0.0914916
202	0xbd66d396	-0.056354128
203	0xbd60029a	-0.05468998
204	0x3cf1f728	0.029536799
205	0xbb44b372	-0.0030014184
206	0xbc8aa005	-0.016922006
207	0x3d894e7c	0.06704423
208	0xbd0ae6d6	-0.03391155
209	0x3b46a59d	0.0030311116
210	0x3dd5c149	0.10437257
211	0x3dc7facb	0.09764632
212	0x3d5f6403	0.054538738
213	0x3d2070c6	0.03917005
214	0x3a599392	0.0008299883
215	0xbd9a8d8c	-0.07546529
216	0x3ddd0f98	0.1079399
217	0xbd4c1ac1	-0.049830202
218	0x3dc719db	0.097217284
219	0xbb066005	-0.002050401
220	0x3d0c242a	0.034214176
221	0x3cbe8400	0.023256302
222	0x3e1125f7	0.14174639
223	0x3c0f0ccf	0.008731081
224	0x3ca26c19	0.019826936
225	0xbde818e1	-0.1133287
226	0x3d658245	0.056032438
227	0x3ba0bb53	0.0049051433
228	0xbd4a1665	-0.049337763
229	0xbd744401	-0.059635166
230	0xbd6c7a90	-0.057734072
231	0xbcbb94c5	-0.022898087
232	0xbd84bf64	-0.06481817
233	0xbd9b11c2	-0.075717464
234	0x3d6de599	0.05808029
235	0xbcb17de4	-0.021666475
236	0x3c02fdb3	0.007995057
237	0x3dcd1ca2	0.10015227
238	0x3d8161f0	0.06317508
239	0x3de4aee0	0.11166167
240	0x3cb57f36	0.022155385
241	0xbd31a94d	-0.04337435
242	0xbb4fcedf	-0.0031708998
243	0xbb8f731f	-0.004377737
244	0x3d629263	0.055315387
245	0x3dfe2884	0.124100715
246	0xbc98998a	-0.0186279
247	0xbc2cfafb	-0.010557885
248	0xbd84e3cf	-0.064887635
249	0xbd49cc05	-0.049266834
250	0xbd2fa0b8	-0.042877883
251	0xbcef276e	-0.029193606
252	0x3db966a4	0.0905278
253	0x3e09a988	0.13443577
254	0x3c6e952f	0.014561935
255	0x3da5a7a2	0.08088614

lstmcell.bias_ih f4 [512]
0	0xbcd41687	-0.025889648
1	0xbb4858b3	-0.0030570447
2	0x3d9825a5	0.07429055
3	0xbc9189a0	-0.01776582
4	0x3e190510	0.14943337
5	0x3e9ab9ee	0.30219978
6	0x3de80c76	0.11330502
7	0x3deac449	0.1146322
8	0xbd1532cc	-0.036425397
9	0x3ec438fc	0.38324726
10	0x3cce8637	0.025210483
11	0xbd514868	-0.051094443
12	0x3e260ca9	0.16215767
13	0xbdcb2f25	-0.099211015
14	0x3c88b33e	0.016687032
15	0x3e99076c	0.29888475
16	0xbdaa1f76	-0.08306782
17	0x3dcd5f07	0.10027891
18	0xbd6b7fc2	-0.057494886
19	0x3e0ab36d	0.13545008
20	0x3d15a1d9	0.036531303
21	0xbda3dc57	-0.08001011
22	0x3dd04b13	0.10170569
23	0x3f5451d7	0.8293738
24	0x3de15e81	0.11004353
25	0x3e024e03	0.12725072
26	0xbc3b17cc	-0.011419248
27	0xbdd6521d	-0.104648806
28	0x3decab93	0.11556163
29	0xbc9e30b2	-0.01931033
30	0x3c01ccd7	0.007922373
31	0xbd03a72c	-0.03214185
32	0x3e66a472	0.22523668
33	0xbce53707	-0.02798034
34	0x3e99d56c	0.3004564
35	0xbe03dfc9	-0.12878336
36	0x3db0f1bb	0.086398564
37	0x3d9dc9a1	0.07704473
38	0x3e6a49f3	0.22879772
39	0x3dc498b7	0.095994405
40	0x3d532146	0.051545404
41	0xbdc9376c	-0.09825024
42	0x3cd69168	0.026192382
43	0x3dc18744	0.09449628
44	0xbda64626	-0.081188485
45	0x3d07e91c	0.033181295
46	0xbc98ba85	-0.018643627
47	0x3e95e947	0.2927954
48	0xbde1961b	-0.110149585
49	0x3e27b02e	0.16375801
50	0x3d74261e	0.059606664
51	0x3e5d7700	0.21627426
52	0x3e970285	0.2949411
53	0x3df87066	0.12130813
54	0xbda6a019	-0.08136005
55	0xbd129472	-0.0357861
56	0x3e163444	0.14668375
57	0x3e00a33f	0.12562273
58	0xbe28f6d6	-0.1650041
59	0xbd527456	-0.051380478
60	0x3d306234	0.043062404
61	0x3e72ff2c	0.23730153
62	0x3de38487	0.11109262
63	0x39d95ff4	0.00041460956
64	0x3e961a90	0.2931714
65	0xbdd3293f	-0.103106014
66	0x3e043fb5	0.12914927
67	0x3dfc7f5b	0.12328979
68	0x3e8828e8	0.2659371
69	0x3d857b61	0.06517673
70	0xbd01577c	-0.031577572
71	0x3e018cd5	0.1265138
72	0x3e082fa8	0.1329943
73	0x3bf00fa5	0.0073260837
74	0xbdcf5d93	-0.1012527
75	0xbd1e50cd	-0.038651276
76	0x3e151d0a	0.14561859
77	0x3ca5f77a	0.020259608
78	0x3e11f7c2	0.14254668
79	0x3e16ff6c	0.14745873
80	0x3cdc9263	0.026925271
81	0xbd6ea88c	-0.058266208
82	0x3dbe6ca3	0.092980646
83	0xbbecc88f	-0.007226057
84	0x3df92f3f	0.121672146
85	0xbdda971e	-0.106733546
86	0xbddc1ae4	-0.107473165
87	0x3c08ce6f	0.008349999
88	0x3eaadab3	0.3336998
89	0xbcdccdd0	-0.026953608
90	0xbe298f30	-0.16558528
91	0x3dc2862f	0.0949825
92	0xbd992f82	-0.074797645
93	0xbdf66c40	-0.12032366
94	0x3ed5af0b	0.4173511
95	0x3e810458	0.25198627
96	0x3d935da0	0.07195592
97	0x3e956a1c	0.29182518
98	0xbdb2d015	-0.08731095
99	0x3e42fb28	0.19041121
100	0xbcefcbfc	-0.029272072
101	0xbe12f339	-0.14350595
102	0x3e7a2df8	0.24431598
103	0xbe832a6c	-0.25618303
104	0x3dafa855	0.08577029
105	0xbd9d5a72	-0.07683267
106	0xbda05596	-0.07828824
107	0xbceea1c4	-0.02912987
108	0x3c378344	0.01120073
109	0x3d8bf516	0.06833856
110	0x3e85eabe	0.26155657
111	0xbcba9609	-0.02277662
112	0xbccab342	-0.02474368
113	0xbd3d2be2	-0.046184428
114	0x3c532106	0.012886291
115	0xbd4cacae	-0.049969368
116	0x3d96aeb4	0.07357541
117	0x3b49b35b	0.003077707
118	0xbdc92f0d	-0.09823427
119	0x3e154203	0.14575963
120	0x3d0f5a06	0.034997962
121	0xbd851f1d	-0.06500075
122	0x3daf9e8e	0.08575164
123	0x3db0f995	0.08641354
124	0x3e025a98	0.12729871
125	0x3e2fd5af	0.17171358
126	0xbd4712e4	-0.048602
127	0xbd47867e	-0.048712246
128	0xbe5a64be	-0.21327493
129	0xbe43eaaf	-0.19132493
130	0xbe80d84a	-0.25165015
131	0xbc7cde3d	-0.015433845
132	0xbd3492ec	-0.044085428
133	0x3ed6441a	0.41848832
134	0x3ed3b449	0.41348484
135	0xbe20f9b6	-0.15720257
136	0xbd0412e2	-0.03224457
137	0x3ec4f6d3	0.38469562
138	0xbcaca108	-0.02107288
139	0xbe5938ea	-0.21213117
140	0x3df52ca1	0.11971403
141	0xbe562e2b	-0.20916049
142	0xbd0605c2	-0.032720335
143	0xbaa76e15	-0.0012773896
144	0xbdbddc80	-0.09270573
145	0x3d1788db	0.03699575
146	0xbe1afc57	-0.15135323
147	0x3dfad095	0.12246815
148	0xbe838926	-0.25690573
149	0xbdc368bd	-0.095414616
150	0x3e814096	0.25244588
151	0xbf4cbf73	-0.7997963
152	0x3e093701	0.13399889
153	0xbd04eb64	-0.03245105
154	0xbe00f826	-0.12594661
155	0x3d018788	0.031623393
156	0x3d9f60f6	0.07782166
157	0xbe3f4a93	-0.18680792
158	0xbe2ab76f	-0.16671537
159	0xbe4bf4b8	-0.19917572
160	0x3e84b08d	0.25915948
161	0xbd3c9d43	-0.046048414
162	0x3e1f1b71	0.15537812
163	0xbe291b96	-0.1651443
164	0xbce823e2	-0.028337423
165	0x3dc67979	0.09691138
166	0x3e7f2c88	0.24919331
167	0xbe89a20b	-0.2688144
168	0xbd0be5d6	-0.034154736
169	0xbdd522c9	-0.10407025
170	0xbe74655d	-0.23866792
171	0x3e085157	0.13312279
172	0x3ed320fe	0.4123611
173	0xbd6333bb	-0.055469256
174	0xbd8b1946	-0.0679193
175	0x3de2ce06	0.11074452
176	0xbe06219e	-0.13098761
177	0x3ef857ae	0.48504394
178	0x3d29e47f	0.041477676
179	0x3e620646	0.22072706
180	0x3e767e44	0.24071604
181	0x3e22ff29	0.15917648
182	0xbe13eb37	-0.14445196
183	0x3e33f14f	0.1757252
184	0xbe725188	-0.23663914
185	0x3d423ff8	0.047424287
186	0xbc2b175b	-0.01044258
187	0xbd92135c	-0.07132599
188	0xbe03d548	-0.12874329
189	0x3e362ed0	0.17791295
190	0xbdc1bd2b	-0.09459909
191	0xbddd305e	-0.10800241
192	0x3e92ba54	0.28657782
193	0xbe8110ae	-0.25208038
194	0xbcd1a138	-0.02558957
195	0xbd7c729b	-0.061632734
196	0x3e025c83	0.12730603
197	0xbd423e19	-0.047422502
198	0xbdfa39f1	-0.12218083
199	0x3d994754	0.07484308
200	0xbda2a562	-0.079417005
201	0xbde600a2	-0.112305894
202	0xbc141b21	-0.009039671
203	0xbd1c8bf4	-0.038219407
204	0x3dd2f120	0.10299897
205	0xbca25cfa	-0.019819725
206	0x3d76b640	0.0602324
207	0xbd6a9f5d	-0.057280887
208	0x3de9edd9	0.11422319
209	0x3d422406	0.047397636
210	0x3cdb9142	0.026802663
211	0x3d59b382	0.053149708
212	0x3d3e01b8	0.046388358
213	0xbd8eac05	-0.06966404
214	0x3e8795a1	0.26481345
215	0xbdbfc81b	-0.09364339
216	0x3f440bb0	0.76580334
217	0xbdc9b677	-0.098492555
218	0xbcd722eb	-0.026261767
219	0x3c4a41ec	0.012344819
220	0xbd0d864d	-0.034551907
221	0xbdee42f1	-0.11633862
222	0x3f2ae388	0.66753435
223	0x3e9a2dc2	0.30113035
224	0xbdb59f5d	-0.08868287
225	0x3ea77025	0.32702747
226	0xbd971228	-0.0737651
227	0xbbd70344	-0.0065616686
228	0xbe53b26f	-0.20673536
229	0x3d212499	0.039341543
230	0x3e3d57e3	0.18490557
231	0xbe96212b	-0.2932218
232	0x3e3453aa	0.1761004
233	0xbe413c84	-0.18870741
234	0xbe09bf9c	-0.13452
235	0xbe886dba	-0.26646215
236	0xbe832ff7	-0.25622532
237	0x3e0081e0	0.12549543
238	0x3eb377a3	0.35052213
239	0xbd9f1e5d	-0.07769463
240	0xbdfbab9e	-0.12288593
241	0xbe6e5d85	-0.23277862
242	0x3dee0a34	0.1162304
243	0xbd290183	-0.041261207
244	0xbdfc5cbe	-0.12322377
245	0xbedcaaab	-0.4309896
246	0x3d4ef332	0.050524898
247	0x3d54c741	0.051947836
248	0x3ee0daa6	0.43916816
249	0x3e81dc3c	0.25363338
250	0x3e4524d4	0.1925233
251	0x3b484cba	0.003056331
252	0x3dabd1ff	0.08389663
253	0x3e6dec9d	0.23234792
254	0xbe598020	-0.21240282
255	0xbe0a1bb0	-0.13487124

lstmcell.bias_hh f4 [512]
0	0xbda9c48a	-0.0828944
1	0x3d0dfbc5	0.034663934
2	0x3d14dd89	0.036344085
3	0xbb5250e3	-0.003209167
4	0x3e01414b	0.12622564
5	0x3eae91fb	0.3409575
6	0x3d2d0a7a	0.04224632
7	0x3d7a9bcc	0.061183736
8	0xbdbf771e	-0.09348892
9	0x3e8dfdbd	0.2773265
10	0xbe088853	-0.13333254
11	0xbe3932a1	-0.1808572
12	0x3e4494e4	0.19197422
13	0xbd9781ce	-0.07397805
14	0x3db161a6	0.08661203
15	0x3eb704ce	0.35745853
16	0xbde40e03	-0.11135485
17	0x3e3bf08b	0.18353479
18	0xbe588b07	-0.21146785
19	0x3dcea640	0.100903034
20	0x3e089e7b	0.13341706
21	0xbd0501f5	-0.03247257
22	0x3d12ca8e	0.035837702
23	0x3f591071	0.8479071
24	0x3c167c6c	0.009184938
25	0x3cd3325f	0.025780855
26	0xbc4c91e4	-0.012485955
27	0xbd9d60a7	-0.076844506
28	0x3e52e1c3	0.20593934
29	0xbd148384	-0.036258236
30	0xbc0c705c	-0.00857171
31	0xbd28e543	-0.041234266
32	0x3e31e8ac	0.17373914
33	0x3d956881	0.07295323
34	0x3e59332f	0.21210931
35	0x3b3a4c9d	0.0028427013
36	0x3c502b87	0.01270569
37	0x3e623fa5	0.22094591
38	0x3e4d86d7	0.20070969
39	0x3b5eb24e	0.003398079
40	0x3cb158b4	0.021648742
41	0xbdaae77c	-0.083449334
42	0x3d8a09e2	0.06740166
43	0x3e1cdf84	0.1531964
44	0xbe20c54e	-0.15700266
45	0x3ddbbd7b	0.107295
46	0x3d0091b0	0.03138894
47	0x3e4c9052	0.19976929
48	0x3d07c498	0.03314647
49	0x3e6f489c	0.23367542
50	0x3e2c5fae	0.16833374
51	0x3e5ebb3d	0.21751113
52	0x3e9fa5c8	0.3118117
53	0x3dff6e82	0.124722496
54	0x3d230e06	0.039808296
55	0x3d84a9dd	0.06477711
56	0x3e25cb8d	0.1619093
57	0x3bb45b3d	0.0055040405
58	0xbded1f5c	-0.11578247
59	0xbc857fc6	-0.016296279
60	0xbc2ed8d5	-0.010671814
61	0x3e0f2777	0.13979898
62	0x3cedd77d	0.029033417
63	0xbd41567b	-0.047201615
64	0x3ebcff3b	0.36913475
65	0xbd82acc6	-0.0638061
66	0x3e0421c2	0.12903503
67	0x3cb57c89	0.02215411
68	0x3e5b6ade	0.21427485
69	0x3c2cb18d	0.010540378
70	0xbdae9329	-0.08524162
71	0x3dd93c0a	0.10607155
72	0x3e190d19	0.14946403
73	0x3e1718da	0.14755574
74	0xbdea803f	-0.11450242
75	0x3d31c46b	0.04340021
76	0x3e25cff0	0.16192603
77	0xbd798907	-0.060921695
78	0x3c8af28b	0.016961357
79	0x3dd8a884	0.10579017
80	0x3dac6e80	0.08419514
81	0xbd4ddc50	-0.050258934
82	0x3d4d0975	0.050057847
83	0xbd24cc7c	-0.040234074
84	0x3da5e883	0.08100989
85	0xbe039b91	-0.12852313
86	0x3b8beb72	0.0042700106
87	0x3d6603a2	0.05615581
88	0x3e5e78d5	0.21725781
89	0xbb57ca36	-0.0032926924
90	0xbc523bf3	-0.012831676
91	0x3df77f65	0.120848455
92	0xbe111c00	-0.14170837
93	0xbe183dbb	-0.14867298
94	0x3eed6837	0.46368572
95	0x3e03b373	0.12861423
96	0x3d808cd5	0.062768616
97	0x3e9e3597	0.3090026
98	0xbe009e35	-0.12560351
99	0x3e1125aa	0.14174524
100	0xbcaeeb3c	-0.021352403
101	0x3bc60b53	0.0060438304
102	0x3eba69fd	0.36408988
103	0xbe5c4d1b	-0.21513788
104	0xbd022929	-0.031777535
105	0xbe035edc	-0.12829155
106	0xbe5feb31	-0.21867062
107	0xbdfe559d	-0.12418673
108	0x3d500c3c	0.050792918
109	0x3cf6e595	0.03013877
110	0x3ea48291	0.32130864
111	0xbc497938	-0.012296967
112	0xbda66230	-0.081241965
113	0xbd5a1850	-0.053245842
114	0xbd2a04ef	-0.04150861
115	0xbc3cbb43	-0.011519256
116	0x3d4082f5	0.04699989
117	0xbca52712	-0.020160232
118	0xbe18d4d6	-0.1492494
119	0x3e0d19b9	0.13779344
120	0x3d88eacf	0.06685411
121	0xbe317512	-0.17329815
122	0x3c25e35a	0.010125006
123	0xbb863bbe	-0.0040964773
124	0x3e4be1d1	0.19910361
125	0x3ea05f33	0.3132263
126	0xbd14550e	-0.036213927
127	0xbe0842dc	-0.13306755
128	0xbe82d6ea	-0.2555459
129	0xbe3eef73	-0.1864603
130	0xbe743db1	-0.23851658
131	0xbcea7731	-0.028621288
132	0x3dc5c7e0	0.09657264
133	0x3ec6e0b2	0.38843304
134	0x3edf2c39	0.43588427
135	0xbe292e5d	-0.16521592
136	0xbcf65d81	-0.030073883
137	0x3e87eacd	0.26546326
138	0x3c171d01	0.009223224
139	0xbe5155ee	-0.20442936
140	0x3dbd497b	0.09242531
141	0xbe87cbb2	-0.26522595
142	0xbd7e6a9b	-0.062113386
143	0x3c9df885	0.019283542
144	0xbda17dd4	-0.07885328
145	0x3e142fc7	0.1447135
146	0xbe3e66ce	-0.18593904
147	0x3e783a4c	0.24240988
148	0xbe864ed3	-0.26232013
149	0xbd95409c	-0.07287714
150	0x3e92de06	0.28685015
151	0xbf462b2c	-0.77409625
152	0x3d8dc6ac	0.06922659
153	0xbdca95db	-0.09891864
154	0xbd8fa1ae	-0.0701326
155	0xbdce401a	-0.1007082
156	0x3d55e8a5	0.05222382
157	0xbde8500b	-0.11343392
158	0xbcde6f07	-0.027152551
159	0xbe42c86f	-0.19021772
160	0x3e3da3f0	0.18519568
161	0x3d20e1e2	0.03927792
162	0x3dd1fb9b	0.10253068
163	0xbe37dbf6	-0.17955002
164	0x3d07b395	0.033130247
165	0x3e64b4db	0.22334616
166	0x3e6e3adb	0.23264639
167	0xbe58bca6	-0.21165714
168	0x3a38efc5	0.00070547714
169	0xbe4d68f2	-0.20059565
170	0xbe10f317	-0.14155231
171	0x3de924e7	0.11383992
172	0x3ec0debd	0.37669936
173	0xbd66e635	-0.056371886
174	0xbcdc8288	-0.02691771
175	0x3d7a81ba	0.061158873
176	0xbd93f508	-0.072244704
177	0x3edeaf74	0.43493235
178	0x3dd8a290	0.10577881
179	0x3e474482	0.19459727
180	0x3ebd03dc	0.36917007
181	0x3de5d19a	0.11221619
182	0xbe2bf655	-0.16793187
183	0x3e1de8e2	0.15420869
184	0xbe1155b0	-0.14192843
185	0x3d86ac9d	0.06575892
186	0xbcf1b7a6	-0.029506516
187	0xbcbac4d1	-0.022798928
188	0xbdeac551	-0.11463416
189	0x3d922133	0.071352385
190	0xbb8b23fa	-0.004246232
191	0xbde9738e	-0.113989934
192	0x3e56ca78	0.20975673
193	0xbe845e12	-0.2585302
194	0x3c1c0cf9	0.009524577
195	0x3d3b7e84	0.04577495
196	0x3e805a12	0.25068718
197	0xbc429198	-0.011875533
198	0xbd32bf2c	-0.043639347
199	0x3d1e4a4e	0.03864508
200	0x3db0036c	0.08594403
201	0xbca110d3	-0.019661343
202	0xbcb5c863	-0.022190278
203	0xbdc8dbfb	-0.09807583
204	0x3de8da02	0.11369707
205	0x3c927cac	0.017881714
206	0x3e37ada7	0.17937337
207	0xbc03ca10	-0.008043781
208	0x3d9732a8	0.07382709
209	0x3d601659	0.054708812
210	0xbd5da6ea	-0.05411426
211	0x3d66f52b	0.056386154
212	0x3b660e56	0.003510376
213	0xbe2a5d94	-0.1663726
214	0x3e74ab27	0.23893414
215	0xbe273acc	-0.16331023
216	0x3f63361e	0.8875445
217	0xbd06a51d	-0.032872308
218	0xbe07a2a0	-0.1324563
219	0xbdc78519	-0.09742183
220	0xbe13e13f	-0.14441393
221	0xbdea57d8	-0.11442536
222	0x3f300a0b	0.68765324
223	0x3e4e3481	0.20137216
224	0xbe5d0859	-0.21585216
225	0x3e4ff659	0.20308818
226	0xba936086	-0.0011243976
227	0x3e16d5af	0.14729951
228	0xbe38db28	-0.18052351
229	0xbdb255ea	-0.08707793
230	0x3e883a64	0.2660705
231	0xbe1bb1bb	-0.15204518
232	0x3d900fa3	0.070342325
233	0xbe1c7d31	-0.15282132
234	0xbe3dc35c	-0.18531555
235	0xbe726e2c	-0.2367484
236	0xbe35539b	-0.17707674
237	0x3d0f27aa	0.034949936
238	0x3ec1a44a	0.37820655
239	0xbdd0aa3b	-0.10188719
240	0xbdbd6fdf	-0.09249853
241	0xbe64adc1	-0.22331907
242	0x3e217406	0.15766916
243	0x3d12f051	0.035873715
244	0xbdc420a7	-0.095765404
245	0xbed17494	-0.40909255
246	0xbb90395d	-0.0044013695
247	0x3d4a0c80	0.049328327
248	0x3ee8d566	0.4547531
249	0x3e52e34c	0.2059452
250	0x3e220120	0.15820742
251	0x3d16046e	0.03662532
252	0x3d77f79e	0.06053888
253	0x3e783085	0.24237259
254	0xbe3c02c6	-0.18360433
255	0xbdb9b3c7	-0.09067493

fc.weight f4 [5, 128]
0	0x3cc9a23f	0.024613498
1	0x3d174dc2	0.03693939
2	0x3e80a5d8	0.2512653
3	0xbde9e158	-0.11419934
4	0x3e4ecd6f	0.20195554
5	0xbeac2de3	-0.3362876
6	0xbea40e66	-0.32042235
7	0x3e60ce00	0.21953583
8	0xbc07bd7d	-0.008284924
9	0xbe6b60d1	-0.22986151
10	0xbe8d43b1	-0.27590707
11	0xbdc549a7	-0.09633189
12	0x3e00a15b	0.12561552
13	0xbc962610	-0.018328696
14	0x3df1dcb2	0.118096724
15	0x3e939037	0.28820965
16	0xbe6bb5a0	-0.23018503
17	0xbccd89a4	-0.025090046
18	0x3c918d35	0.017767528
19	0xbe407be3	-0.18797259
20	0x3ec47f5f	0.38378426
21	0x3d825705	0.06364254
22	0x3deb45ba	0.11487909
23	0xbf2389c8	-0.6388211
24	0x3d910647	0.070812754
25	0x3ecf2622	0.4045878
26	0x3d66a44f	0.05630904
27	0x3e410c1d	0.18852277
28	0x3d784d44	0.06062056
29	0x3d561e32	0.05227489
30	0xbe37e084	-0.1795674
31	0x3e5c5d7f	0.21520041
32	0xbd609ed5	-0.054838974
33	0x3d9c0ac9	0.076192446
34	0x3e9075f7	0.28215
35	0x3e0ecc2e	0.13945076
36	0x3ed0dc7b	0.40793213
37	0xbe59a821	-0.21255542
38	0xbebc5f86	-0.3679163
39	0x3d7c9049	0.06166104
40	0xbe8c3369	-0.27382973
41	0xbd19afa3	-0.037521016
42	0x3e04f5be	0.12984368
43	0xbe1bd146	-0.1521655
44	0x3eb3d9ad	0.3512701
45	0x3e9f0a4f	0.31062552
46	0x3e4d8f6a	0.2007424
47	0xbd382643	-0.044958364
48	0x3bc46b95	0.00599427
49	0xbf009d22	-0.50239766
50	0xbe546c58	-0.20744455
51	0x3e8d1f40	0.27562904
52	0x3d4986b4	0.04920073
53	0x3e3f4be5	0.18681295
54	0x3d24d43e	0.040241472
55	0x3ed26148	0.41089845
56	0x3d802eb0	0.06258905
57	0xbd90240d	-0.07038126
58	0x3e1cb6ef	0.15304159
59	0x3d2bde89	0.041960273
60	0x3ba06dcc	0.0048959013
61	0x3aca0a10	0.0015414376
62	0xbde20adc	-0.110372275
63	0x3a9a4893	0.0011770896
64	0xbc85f064	-0.016349979
65	0x3c4e96a3	0.012609157
66	0x3ded1cae	0.11577736
67	0x3d886ba9	0.066611595
68	0x3f02062e	0.5079068
69	0x3e40376f	0.18771146
70	0x3d7e7e64	0.062132254
71	0xbdbebafc	-0.09313008
72	0xbe2449b2	-0.16043738
73	0xbe04d514	-0.12971908
74	0xbdfc6589	-0.12324054
75	0x3d62ac8c	0.055340335
76	0xbc1ccb96	-0.009570023
77	0x3e80d327	0.25161096
78	0x3ea22546	0.31669062
79	0xbdda766b	-0.10667118
80	0x3caeb7b2	0.021327827
81	0xbda37a35	-0.079822935
82	0xbe7c7d00	-0.24657059
83	0xbe21bdab	-0.15795009
84	0xbde1f2be	-0.110326275
85	0xbde1bf71	-0.11022843
86	0x3e433c7a	0.19066039
87	0xbe9aac67	-0.30209658
88	0xbe4367fa	-0.19082633
89	0xbe00d11f	-0.12579773
90	0xbc38593b	-0.011251743
91	0xbd33e276	-0.04391714
92	0x3c123e0a	0.008925924
93	0x3ca3ad9e	0.019980248
94	0x3e97abad	0.29623166
95	0xbe55cdd1	-0.20879294
96	0xbc91f6cf	-0.017817883
97	0x3e60a4f2	0.21937922
98	0xbe17133e	-0.14753434
99	0xbdc980f9	-0.09839053
100	0xbd7afbe7	-0.06127539
101	0x3d3e136a	0.046405233
102	0x3e5cf4e5	0.21577795
103	0xbcc9487a	-0.024570692
104	0xbc711e20	-0.014716655
105	0x3db1fa7c	0.08690354
106	0xbe002287	-0.12513171
107	0xbe29ddf3	-0.16588573
108	0x3e945adf	0.2897558
109	0x3e4e2a3c	0.20133299
110	0x3dc56d8b	0.09640034
111	0x3e40a617	0.18813358
112	0x3ce56914	0.028004207
113	0xbd3875be	-0.045034163
114	0xbe0fe021	-0.14050342
115	0xbe9958b3	-0.29950485
116	0x3c20424c	0.009781431
117	0xbebd8940	-0.37018776
118	0xbe14b037	-0.14520346
119	0xbdd8f180	-0.105929375
120	0x3e14d36d	0.14533778
121	0xbe166eea	-0.14690748
122	0x3e316926	0.17325267
123	0xbe8fbf97	-0.2807586
124	0xbe38c50b	-0.18043916
125	0xbcf2bf99	-0.029632377
126	0x3d8177f6	0.06321709
127	0x3e34d53b	0.17659466
128	0x3dd1799b	0.102282725
129	0x3e7c96bb	0.24666874
130	0x3d5d6cb7	0.054058757
131	0x3eb54f36	0.35411996
132	0x3ee4c883	0.44684228
133	0xbe949392	-0.29018837
134	0x3f413dcd	0.75484926
135	0xbead29d0	-0.33820963
136	0xbe4068fb	-0.18790047
137	0x3a8d67e3	0.0010788407
138	0xbe83b72a	-0.2572568
139	0xbdd5024f	-0.10400831
140	0x3e034052	0.12817505
141	0x3beb83d6	0.007187347
142	0x3e348f27	0.17632733
143	0x3e9d7307	0.3075182
144	0x3e3740e1	0.17895843
145	0xbe58f37f	-0.21186636
146	0x3e12809f	0.14306878
147	0xbe331d8d	-0.17491741
148	0x3da2a3f5	0.079414286
149	0xbd6383df	-0.055545684
150	0x3f57160c	0.84018016
151	0xbebb8df1	-0.3663173
152	0xbf3f034c	-0.74614406
153	0xbd0de6b2	-0.034643836
154	0x3d99f987	0.07518297
155	0x3cb04566	0.021517467
156	0xbcf2e355	-0.029649416
157	0x3ec14f57	0.37755844
158	0xbde8f28a	-0.11374386
159	0x3d6e7768	0.058219343
160	0xbe81212a	-0.25220615
161	0xbcf30947	-0.02966751
162	0x3ef51933	0.47870788
163	0x3d4d2bc3	0.050090563
164	0xbe0f87c3	-0.14016633
165	0xbec58f32	-0.38585812
166	0x3ef688d2	0.4815126
167	0x3ba76c95	0.0051093795
168	0xbe02c9b8	-0.12772262
169	0xbd7a992d	-0.061181236
170	0xbd95479f	-0.07289051
171	0xbed2a469	-0.4114106
172	0x3e3e4004	0.18579108
173	0x3e96e909	0.29474667
174	0xbe10ed7b	-0.14153092
175	0xbdbaff6b	-0.09130748
176	0x3e56fcb3	0.20994835
177	0xbf0af404	-0.5427859
178	0x3db69ea1	0.08916975
179	0x3e1e2ad2	0.15446022
180	0x3f224f86	0.63402593
181	0xbec313bf	-0.38101003
182	0x3d46650b	0.048436206
183	0xbf8736d3	-1.0563606
184	0xbea71fac	-0.3264135
185	0x3e832cad	0.25620022
186	0xbd2a04af	-0.041508373
187	0xbe86370d	-0.26213875
188	0xbe5a6d22	-0.21330693
189	0xbf2d528d	-0.6770409
190	0xbdcc792e	-0.09984051
191	0xbcb3ba56	-0.021939438
192	0x3e6793b0	0.22614932
193	0x3c331cdc	0.010932174
194	0x3ddd9be1	0.10820747
195	0x3e409616	0.18807253
196	0x3e5a20d8	0.21301591
197	0x3ec43baf	0.38326785
198	0xbdfe0806	-0.12403874
199	0x3d8cbb95	0.06871716
200	0xbe7f3ca9	-0.24925484
201	0xbe138030	-0.14404368
202	0xbe6ca79b	-0.23110811
203	0x3cda0eaa	0.02661832
204	0xbda0a3c0	-0.07843733
205	0xbe4c11a5	-0.19928606
206	0x3df65fd5	0.12029997
207	0x3c37c186	0.011215573
208	0xbf58d16f	-0.8469457
209	0x3d226198	0.039643854
210	0xbd8ccc28	-0.06874877
211	0xbde6c5cf	-0.11268198
212	0xbdb9f3ea	-0.09079726
213	0x3eae7c6a	0.34079295
214	0xbf5c0ccf	-0.85957044
215	0x3e8e2e86	0.2776987
216	0x3f124c92	0.5714809
217	0xbe06bec3	-0.13158707
218	0xbef91b61	-0.486537
219	0xbc3bc674	-0.011460889
220	0x3e41075b	0.18850462
221	0xbe7398b0	-0.23788714
222	0xbf6cef28	-0.92552423
223	0x3f0ab56f	0.54183096
224	0x3dee2560	0.116282225
225	0x3ea71599	0.32633665
226	0xbd47b4c9	-0.048756395
227	0x3df28448	0.11841637
228	0x3e37c2e9	0.17945446
229	0x3e7c5865	0.24643095
230	0x3e84c2c5	0.25929847
231	0xbeb1279e	-0.34600538
232	0x3d9c38e0	0.076280355
233	0x3da69db9	0.08135552
234	0xbdf0da9f	-0.11760449
235	0xbcbd770c	-0.023128055
236	0x3e2e5d3f	0.17027758
237	0xbf1d2d8a	-0.6139761
238	0x3d025619	0.03182039
239	0xbd8f9f08	-0.07012755
240	0x3e170c3a	0.14750758
241	0xbde96625	-0.11396436
242	0x3dac33c9	0.08408315
243	0x3e3eab24	0.18619972
244	0x3e5e8603	0.21730809
245	0xbf172f5c	-0.5905664
246	0x3ddded71	0.10836304
247	0x3ef1a9a9	0.47199753
248	0xbe5e15d8	-0.2168802
249	0xbb90e95c	-0.00442235
250	0xbed60a72	-0.41804844
251	0xbde829fa	-0.113361314
252	0xbe1133d6	-0.1417993
253	0x3c942020	0.018081725
254	0x3d0d9299	0.034563635
255	0xbde29dd9	-0.11065263

fc.bias f4 [5]
0	0x3f0bc4eb	0.5459735
1	0xbedae569	-0.4275315
2	0x3e9f7c03	0.311493
3	0xbe11d60d	-0.1424181
4	0xbef2cf65	-0.47423854
