models/2.4-lstm-cell-network-byhand-model.pth (torch, 277677 bytes, 14 tensors)

lstmcell.W_xf f4 [3, 128]
000000 82 e3 37 bd 9a 20 da bc 1f a1 8a 3d d0 c1 77 3d
       -0.044894703 -0.026626874 0.06769013 0.06048757
000010 36 fc 49 bc 0f 0a 4d 3d 8e e4 f2 3c 85 50 a3 3d
       -0.012328198 0.05005842 0.029649999 0.07974342
000020 a1 5b a0 bc 10 46 f0 3c f3 7f 46 3c ff 77 80 bd
       -0.019574942 0.029330283 0.012115466 -0.062728874
000030 a6 39 68 bd 9c 6d e6 3b bc 9f 84 bc 44 39 42 3d
       -0.056695603 0.0070321094 -0.016189449 0.047417894
000040 2a 0f 5c bc b9 bf 7a bd f9 ab 96 bd 87 4d 66 bd
       -0.01343135 -0.061217997 -0.0735702 -0.05622628
000050 b9 10 e2 bc 4e 39 94 3d 04 49 60 3d e8 26 77 3d
       -0.027595865 0.072374925 0.054757133 0.06033984
000060 43 00 ac 3c a8 e7 b1 bc ba 20 3a 3c d0 60 5d 3d
       0.020996219 -0.021716908 0.011360342 0.054047406
000070 4c e4 84 bd 8d 5c 82 3c a6 c1 83 3c c1 14 8c b9
       -0.06488857 0.015913272 0.01608355 -0.00026718344
000080 61 e8 b9 bd 82 37 22 3c 48 13 aa 3d fa 39 08 bd
       -0.09077526 0.009900929 0.08304459 -0.033258416
000090 82 61 86 bd 67 33 9d bc e5 a0 e2 3c f7 ad 86 3c
       -0.06561567 -0.01918955 0.027664611 0.016440375
0000a0 bd 51 b6 bd 10 d2 90 3c 4d 81 2c bd c6 1c 8b 3b
       -0.08902309 0.01767829 -0.0421155 0.0042453734
0000b0 03 39 f4 bc f7 85 7a 3d 29 fa 22 bd 4a 8b 34 bd
       -0.029812342 0.061162915 -0.039789353 -0.04407815
0000c0 19 48 41 3d cc 6b 56 bd bf 10 93 bd 1e d9 6f 3d
       0.0471879 -0.052348897 -0.071809284 0.05855667
0000d0 77 af aa 3d 4c 79 2c bd ca 69 06 bc a8 b7 e7 ba
       0.083342485 -0.042107865 -0.008203933 -0.0017678635
0000e0 bb 84 6a bd 23 df 67 bd 14 4d eb bc 63 da 91 3d
       -0.057255488 -0.056609284 -0.028723277 0.07121732
0000f0 57 ea 4e 3d 9e 26 71 bd 6f 6c 9b 3d f1 88 e6 3c
       0.050516453 -0.05887472 0.075890414 0.02814147
000100 08 85 49 bb 48 fb 9b 3c 57 3d b1 bc b5 e3 c2 3c
       -0.0030749459 0.019040719 -0.021635694 0.02379022
000110 1c ef a7 3d 34 3e 76 3b 8f cc ee 3c ce a2 a0 bd
       0.08199903 0.0037573697 0.029150276 -0.078435525
000120 07 b2 02 bc e8 3f d6 3c 8f b1 67 bd 7c 06 8a 3d
       -0.007977015 0.02615352 -0.056565817 0.06739518
000130 97 be 97 3d 16 f9 fe 3c 6d 1b 69 bd ed 7a 94 3d
       0.07409399 0.031124633 -0.05691092 0.07250009
000140 50 22 52 bd 0e 9c 15 3d f7 b4 80 bd 65 97 64 bd
       -0.051302254 0.03652578 -0.06284516 -0.055808444
000150 7a 33 7a bc 69 f6 b7 bc 85 67 89 bd 2a 77 90 bd
       -0.015271062 -0.022456365 -0.06709198 -0.07053979
000160 3e 90 88 bc 99 30 cf 3c 48 cd 9f bd 5b 4d 44 3d
       -0.016670343 0.025291728 -0.07802826 0.047925334
000170 90 56 8b bd c4 a2 89 3d 0c d9 7f bd c5 df 64 bd
       -0.0680362 0.06720498 -0.06246285 -0.055877466
000180 74 93 a1 3d 94 90 5b 3d 05 e3 97 3d 79 77 db 3b
       0.078894526 0.053604677 0.074163474 0.006697592
000190 3a 10 bd bc 28 a4 19 bd ad 79 ad 3c e7 8e 50 bd
       -0.023079026 -0.037510067 0.021176184 -0.050917532
0001a0 29 bc 9f 3d 2d 6f e4 bc 57 f8 c0 3d b6 0a 5c 3c
       0.077995606 -0.027885044 0.09422367 0.013430288
0001b0 80 30 a1 3d e6 15 76 bd 8e 6c 1c bd 46 b2 77 bd
       0.07870579 -0.060079478 -0.038189463 -0.06047275
0001c0 dc 44 63 3d f4 b2 ad bd b7 35 2c 3d 1e 78 5c bd
       0.05548559 -0.08481398 0.042043414 -0.05382549
0001d0 c7 c5 d7 3c ab 89 07 3d 3c 89 44 3d 66 d6 f1 bc
       0.026339425 0.033090275 0.04798244 -0.029521178
0001e0 e1 3d 1e 3d b0 e7 2b bd a4 fd c2 bc b8 da 83 bd
       0.03863323 -0.041969 -0.023802586 -0.06438202
0001f0 ea 03 ef bc 5c a5 4f bd d0 bc df 3d ce 28 4c 3d
       -0.029176671 -0.05069481 0.10924685 0.049843602
000200 f3 4c bd 3d 3c 15 a7 3c a0 b3 26 bd f4 ea 5f 3c
       0.092431925 0.020395868 -0.040698647 0.013666857
000210 0e ea ca 3c 57 0b cf bc ea d7 8f 3d 68 ab 9f 3d
       0.02476981 -0.025273962 0.07023604 0.07796365
000220 8a a9 69 3c 95 57 69 3b 9f d1 09 bd 5d 77 57 3d
       0.014261613 0.0035605181 -0.033647176 0.052604068
000230 6e 39 25 bd c3 f5 b9 3d 63 57 16 bd cc 74 a2 3d
       -0.040337972 0.090800785 -0.036704432 0.079324335
000240 d6 4d 41 3b ee 4f a7 3d b2 d7 7e 3d 5b 76 c7 bc
       0.0029495857 0.08169542 0.06221742 -0.024348428
000250 44 00 8a 3d 02 02 54 3d 8e ff a8 3d e6 26 1c bb
       0.06738332 0.051759727 0.08251868 -0.0023826896
000260 ce 4c 3d 3d de c5 99 3d 3a eb b3 3d 98 91 b1 3d
       0.046215825 0.07508443 0.087851 0.08670348
000270 99 ec ab 3d aa 93 2f 3d 3b d5 0d bb a3 c3 56 bd
       0.08394737 0.042865433 -0.0021641988 -0.052432667
000280 f3 87 8f 3d 4a 13 d1 bc 9f 3c a4 3b b3 3c 3b 3c
       0.07008352 -0.025521893 0.0050121094 0.011428046
000290 10 2f f1 bc c7 ba 2d 3c d3 37 a7 bb d1 02 26 3d
       -0.029441386 0.010603613 -0.0051030903 0.04053003
0002a0 2d ef 6b 3d a0 f7 22 3d 56 66 49 3d c7 a8 93 3d
       0.057601143 0.039786935 0.04916986 0.07209926
0002b0 a0 ee c2 3d d6 64 3e 3d 75 81 86 ba e6 f4 03 3c
       0.0951817 0.046482883 -0.001026197 0.008053994
0002c0 15 92 15 3c d8 36 09 bd 4a 3d 86 3a 6a 3e c2 3d
       0.009129067 -0.03349957 0.0010241654 0.09484561
0002d0 b0 c5 b3 bc 73 f1 30 bd 3e dd 0c bc 73 e1 97 3d
       -0.02194485 -0.043199014 -0.00859767 0.07416048
0002e0 57 19 e3 bb ed 82 9a 3d 45 ab a8 3d c8 fa 86 bc
       -0.006930511 0.07544503 0.08235792 -0.016477004
0002f0 0c 4c 6f 3c 5b 4b 8a bd 51 09 e5 bc ad 26 6d 3d
       0.014605533 -0.06752654 -0.027958544 0.057898212
000300 62 e1 ed bc 71 9e 32 3c 09 46 35 3c cf 51 0f 3d
       -0.029038135 0.010902033 0.011064061 0.034990128
000310 60 d8 71 bd e6 c0 ea 3c 20 ee ac 3b 0a 0d db bc
       -0.059044242 0.028656434 0.00527741 -0.026739616
000320 8a 11 8a bd eb 14 66 3c 94 5c 83 3d 08 e6 37 bb
       -0.067416266 0.014043073 0.06414142 -0.0028060693
000330 29 03 87 3d 27 5f 6d 3d 88 1b 91 3d f6 85 51 bd
       0.065923996 0.057952072 0.07085329 -0.051153146
000340 59 ca 91 3d 36 67 08 bd a5 34 5e bb 3a ec 31 3d
       0.07118673 -0.033301555 -0.003390589 0.043438174
000350 fd 82 73 bd 95 f6 92 bc 3b 2f a6 bd 18 9c 1a 3d
       -0.059451092 -0.017939845 -0.08114477 0.03774652
000360 75 e7 23 bc 08 ab 29 bd 45 5b b8 bc c6 4e b9 3d
       -0.010003914 -0.041422874 -0.022504458 0.09048228
000370 82 0b 51 3d 46 66 4d bd e7 7e 9c 3c f4 ad 29 3d
       0.051036365 -0.050146364 0.01910348 0.04142566
000380 02 4a 70 bd 5a f6 41 3c 31 9e d9 3b b9 0b 34 3b
       -0.05866433 0.01183852 0.0066411723 0.0027472808
000390 ae 96 46 3d d3 0c f9 bb 49 80 bf 3d da 8b 0f 3d
       0.048483543 -0.0076004057 0.0935064 0.035045482
0003a0 88 ce e0 3c fd 70 47 bd 0f 94 96 3d ff d7 01 bd
       0.027442232 -0.04869174 0.07352459 -0.03170013
0003b0 5c 58 3b 3d 54 05 de bc 03 15 36 3d 6f f5 8e 3d
       0.045738563 -0.02710215 0.044453632 0.069804065
0003c0 e2 da 92 bc 37 77 89 3d 24 17 08 3d 47 b1 94 3d
       -0.017926637 0.067121916 0.033225194 0.072603755
0003d0 35 02 28 bd af 0d 5d bd cd 80 87 3d 7e 8e 97 3d
       -0.04101773 -0.053968128 0.06616364 0.07400225
0003e0 aa 5d 81 bd 57 c6 f0 3c e8 fd 77 3d 3b 05 8c bd
       -0.06316693 0.02939145 0.06054488 -0.06836935
0003f0 a5 ed 70 3d ff eb b6 3d 68 35 2f 3c 92 da 36 bc
       0.058820385 0.089317314 0.010693885 -0.01116051

lstmcell.W_hf f4 [128, 128]
000000 08 8c 4d 3d d6 54 2d 3d 88 b1 b1 3c e3 40 d7 bc
       0.050182372 0.042317234 0.021691099 -0.026276058
000010 4e ca 12 3d 11 a0 e7 3c 6e cc 07 3d 1c a1 63 3c
       0.035837464 0.028274568 0.033153944 0.013893392
000020 19 4a 7a 3d ab 03 42 3d 6a 54 5a bd 2e d5 9a 3d
       0.06110582 0.04736678 -0.05330316 0.07560192
000030 88 1e 83 bd ec 6e b4 3c 7a 16 ca bd 87 5c fb bc
       -0.06402308 0.022025548 -0.09867568 -0.030683769
000040 89 58 92 bd b9 e4 7e 3d da f7 3b 3d 33 4e 10 bd
       -0.07145793 0.062229846 0.045890667 -0.035230827
000050 71 31 d3 3c 99 2c 51 3d a8 c9 48 3d 3d d4 4e 3d
       0.025780411 0.051067922 0.04902044 0.050495375
000060 b1 c1 3d 3d 7d d5 aa bd a4 6e 89 3d 2b 12 34 bd
       0.046327297 -0.08341501 0.06710556 -0.04396264
000070 9f 47 6d bd 87 f6 ed bb 80 10 79 bd fb 19 b4 3d
       -0.05792963 -0.0072620544 -0.06080675 0.08794018
000080 fe 64 38 3d a7 7b a4 3c bd 13 ab 3c 03 13 12 bd
       0.04501819 0.020078493 0.020883435 -0.035662662
000090 aa f4 64 3d 7d 8c 75 bc 79 51 38 bd 6a 3e 93 bd
       0.055897392 -0.014987108 -0.044999573 -0.07189639
0000a0 ab 7f 8d 3d 56 20 25 3d e2 e9 52 bc 7e 6d 15 3c
       0.06909116 0.04031404 -0.012873145 0.009120343
0000b0 5e 62 a4 3d 0f 53 cb bd 1b 4e a8 bc bc b0 94 3d
       0.080265746 -0.099279515 -0.020545056 0.07260272
0000c0 61 bb b3 bd 96 b2 7e 3d c4 35 2b bd cd 0a 94 39
       -0.08775974 0.06218203 -0.04179932 0.00028236807
0000d0 94 49 7b bd 92 52 ae bd e2 b2 9f 3d bb c7 af bd
       -0.061349466 -0.08511843 0.07797791 -0.085830174
0000e0 e2 98 88 bd e3 ca 43 3c 59 eb ae 3d 2d 3a 93 3c
       -0.06669785 0.011950227 0.08540983 0.017972076
0000f0 e0 9c a8 3d 7e 59 1b bd e7 58 a3 3b fe e5 d3 bc
       0.082330465 -0.037927143 0.004984963 -0.025866505
000100 3d 28 f3 3c 4e 6f 40 3d f1 5c 9c 3d 71 84 90 bc
       0.029682273 0.04698115 0.07634915 -0.017641278
000110 54 b3 95 3b 74 ab 86 bd 18 ac a1 bd 2c c0 d6 3c
       0.0045684967 -0.06575671 -0.078941524 0.026214682
000120 51 46 85 3d 70 69 c7 bd 67 04 92 bd 1b 95 9d bd
       0.065075524 -0.097369075 -0.07129746 -0.07694455
000130 7c 44 66 bc ae 5d 3f bd da 7c 5b 3c 84 8a ac 3d
       -0.014054414 -0.0467202 0.013396466 0.08424857
000140 11 8e a4 3d 35 d3 95 bd ff 2c 13 3d 86 53 17 3d
       0.080349095 -0.07315675 0.035931583 0.03694489
000150 99 da 78 3d 27 86 65 bc fa c5 aa bd 15 49 07 3d
       0.060755346 -0.014009035 -0.08338542 0.03302868
000160 15 b0 33 bc 32 2f 6d 3d 6d f1 96 bd fb 96 50 bd
       -0.010967274 0.057906337 -0.07370267 -0.050925236
000170 b1 fa de bc 29 15 5e 3d d4 45 3c bd 70 25 04 bd
       -0.027219148 0.0542194 -0.04596503 -0.032262266
000180 0d 7d 47 3d dc 6e 54 3d 2b 80 8a 3d 37 48 8a bd
       0.048703242 0.051863536 0.06762727 -0.06752055
000190 37 33 9c 3d b2 a4 1c 3d 08 8a 13 3d a5 4e 54 3d
       0.07626956 0.038243003 0.03602031 0.051832814
0001a0 28 5b 2f bc b4 ac b2 3a 0d 70 41 bd 73 69 6f 3d
       -0.010702886 0.0013631792 -0.047226 0.058450174
0001b0 42 40 fe 3c 15 3e de bc e1 16 38 bc b0 a6 a8 bc
       0.0310365 -0.027129212 -0.0112359235 -0.020587295
0001c0 32 dd 98 3b 07 9c 17 3c 96 5c 71 bd 44 78 5f bd
       0.0046650404 0.009253508 -0.058926187 -0.054558054
0001d0 c5 52 12 3d bb 48 bf bd 65 1a c8 bc 99 4b 9d 3d
       0.035723466 -0.09340044 -0.024426648 0.07680435
0001e0 87 30 23 3c 5f 64 c9 bc fe c9 2e 3d 36 33 94 bd
       0.0099603 -0.024583993 0.042673104 -0.0723633
0001f0 94 4e a8 3d 61 e3 81 bc 53 f9 8a bd d5 2a 82 bd
       0.082181126 -0.015855493 -0.06785836 -0.06355826
000200 e6 4c 8a 3d 89 a0 9c bd fc ae 51 3c 25 dd c0 bc
       0.067529485 -0.07647807 0.012798067 -0.02354295
000210 9e 7c f9 bc 1c c8 69 bb 17 7b c5 bc 76 84 73 3b
       -0.03045493 -0.0035672253 -0.024106545 0.003715781
000220 45 83 23 3d 3b b4 88 bd fa ea 87 bc bf a0 c1 3c
       0.03992011 -0.06675001 -0.016591538 0.02363622
000230 cd 04 74 bd f7 3e 4a 3d 63 87 41 3d 1e c3 a3 3c
       -0.05957489 0.049376454 0.047248255 0.0199905
000240 9b 37 aa bb d3 7a 98 bd c0 c2 c6 3c 17 3d 55 bc
       -0.005194617 -0.07445302 0.024262786 -0.013015053
000250 6d 1b df 3c 73 53 32 bb 0f 61 53 3d ff d9 99 3d
       0.027234757 -0.0027210384 0.051606234 0.075122826
000260 0e 25 b1 bd 4d 19 18 3d 1d 09 70 bd 3b 9e 95 bd
       -0.08649646 0.037133504 -0.05860244 -0.07305571
000270 d7 08 a4 3d 75 40 0a bc 3e bb 4b bc ef 1b a0 3d
       0.080094986 -0.008438219 -0.012434779 0.07817828
000280 46 1c 68 3d b9 d8 1d 3d 31 5a aa 3c f5 5a 05 bd
       0.05666759 0.03853676 0.02079496 -0.032557447
000290 4b 95 90 bd 1a e7 59 bd 64 39 7f bd 39 b8 8b bd
       -0.070597254 -0.05319891 -0.06231059 -0.06822247
0002a0 22 37 b9 bd b1 81 a0 3d ba fe 66 bc dd 35 08 bd
       -0.09043719 0.07837237 -0.0140988175 -0.033254493
0002b0 aa 29 35 bc 73 a9 41 bc 69 e7 10 bd 73 65 30 bd
       -0.011057297 -0.011820185 -0.03537694 -0.0430655
0002c0 39 88 f8 3c c2 77 32 bd 7b 9b a5 bb 15 bb 35 bd
       0.030338394 -0.04357124 -0.005053935 -0.04436787
0002d0 16 58 8c bc 08 e7 6d 3d d8 12 f0 bb 57 76 82 bd
       -0.017131846 0.058081657 -0.007326465 -0.06370228
0002e0 d5 1e 7f 3d 15 8b 96 bd f7 4c f7 3c 32 0f a1 bd
       0.062285263 -0.073507465 0.030188067 -0.078642264
0002f0 a9 b5 e6 3c 10 c0 66 3d 08 8e a9 bd af b6 98 3c
       0.028162794 0.05633551 -0.082790434 0.018641798
000300 84 f1 8d bd b8 ca 81 bd 9b 55 ea bb 47 e6 2f 3d
       -0.06930831 -0.06337494 -0.0071513182 0.04294422
000310 a7 6e 06 3d 0c 04 9e 3c 6e 4d 89 bd 7e a9 19 bd
       0.03282037 0.01928904 -0.06704222 -0.037515156
000320 3a 72 40 3d 0f 0e 92 bc 55 f7 99 3d 4e 2c e3 bc
       0.046983935 -0.01782897 0.07517878 -0.027731087
000330 ef 13 35 bd 69 e0 8c 3d 02 07 e8 bc 04 91 04 3c
       -0.044208463 0.0687874 -0.028323654 0.008091215
000340 26 2e 8e 3d a9 e9 f9 3b 2a 4a 3b bd 6e 4f af 3d
       0.06942396 0.0076267314 -0.045725025 0.08560072
000350 69 93 2a 3d be ea 74 3d be 0c 8e 3d 4f 32 20 bc
       0.041644488 0.05979418 0.06936024 -0.0097776195
000360 d4 a3 0b 3d aa 3e 73 3d fd 91 49 3c 64 40 27 3c
       0.034091786 0.059385933 0.012302873 0.010208223
000370 af 22 ff bc 92 05 a5 3d 2e a1 35 bd 09 3d a0 bd
       -0.031144468 0.08057703 -0.044343166 -0.078241415
000380 5c 62 4c bd db 17 29 3d f3 91 71 bc 3c a0 a5 3d
       -0.04989849 0.041282516 -0.01474427 0.08087203
000390 a9 7a 2b bc fe f9 7d 3c f4 75 8a bb c0 b5 9a bd
       -0.010466256 0.015501497 -0.004225487 -0.07554197
0003a0 65 59 93 3d 4d 0c 4d bd 03 58 83 3d 2e 18 e5 3c
       0.07194785 -0.05006056 0.06413271 0.027965631
0003b0 19 3f 3b 3d ae 9a 6a bd 4b e7 10 3b 4e 2f 9f bd
       0.04571447 -0.05727642 0.0022110518 -0.077726945
0003c0 08 77 e6 ba 1a 07 62 3b a2 b6 5e bd 01 ff 25 3d
       -0.0017583081 0.0034489096 -0.05437339 0.040526394
0003d0 09 f8 96 bd 3e af 02 bd 52 43 84 3d fe 0b 96 3d
       -0.07371528 -0.031905405 0.06458153 0.07326506
0003e0 6a a5 a2 bb e1 b6 65 bd c6 1d 8e 3d 37 5f 55 bd
       -0.0049635665 -0.05608261 0.069392726 -0.052092757
0003f0 a8 df 2e 3c 2e 90 89 3d 61 b6 30 bd 14 98 8a 3d
       0.010673441 0.06716953 -0.04314268 0.06767288

lstmcell.b_f f4 [128]
000000 6c f0 9a 3d 88 55 5a 3d c3 b7 07 3d 82 d6 a3 3d
       0.07565388 0.053304225 0.033134233 0.079998985
000010 6e ac c0 3d 96 e3 70 bd 6b 28 ac 3d 9e 1b 4b 3d
       0.09407888 -0.058810793 0.084061466 0.049586885
000020 73 cb 3c 3e 24 a6 2b 3d fb bf 97 bd 8b 28 9b bc
       0.18436985 0.04190649 -0.07409664 -0.01894023
000030 a9 47 b9 3d ae 6d 01 3e f8 41 1d 3e dd 2b 47 bd
       0.09046871 0.12639496 0.15357196 -0.048625816
000040 20 b6 9f 3d f5 5f 21 3e b8 30 3b bd e4 15 7b bd
       0.077984095 0.15759261 -0.04570076 -0.061300173
000050 ca 77 06 3e 4b 39 9b 3b 3a 15 71 3d b8 f0 b3 3c
       0.13131633 0.0047370545 0.058858134 0.02196537
000060 1f 02 42 3d c2 ff ec bc 8c e4 07 bd 66 b3 45 bd
       0.047365304 -0.028930549 -0.033176944 -0.04826679
000070 bb e0 a4 bb dd f9 b6 3d a2 40 27 bd 70 42 b7 3d
       -0.005031673 0.089343764 -0.040833123 0.08948219
000080 41 fe 54 bc 92 e6 df 3b 3d 02 b6 3c 22 cf 2b bb
       -0.013000072 0.006832906 0.022217864 -0.002621599
000090 6a 16 32 bc 84 57 9b 3d 4e 50 da bc 64 25 df bc
       -0.010869602 0.07585052 -0.02664962 -0.027239509
0000a0 c9 43 0c 3c 9e a6 3e 3d 10 d1 0f 3e 7b af 4a 3d
       0.008561083 0.046545617 0.14044595 0.049483757
0000b0 38 8e 45 3d 51 e1 53 bd b5 eb da 3d ca b8 06 3c
       0.048231333 -0.05172855 0.10689489 0.008222768
0000c0 34 87 0f bd 98 09 b4 3d 0f a4 05 3d d9 a6 73 3e
       -0.03504105 0.08790892 0.03262716 0.23794116
0000d0 37 57 70 bc 04 85 49 bc 88 da 12 bc be cd a2 bd
       -0.014669231 -0.01229978 -0.008963235 -0.079493985
0000e0 54 af 72 3c 80 a6 fb 3d 69 18 90 bd 6c 0a aa 3c
       0.014812309 0.12287617 -0.07035906 0.020756923
0000f0 93 9e 75 3c e3 7a f2 bc 1e 7d 06 3e b7 2f 96 bc
       0.01499142 -0.029599613 0.13133666 -0.0183333
000100 18 a0 f4 bc 0a f5 ae 3b 36 45 11 3d 1a c8 fd 3d
       -0.029861495 0.0053392695 0.035466395 0.12391682
000110 37 8b 33 3c d9 8a 9e 3d 1d dc 37 3d 0a 96 c2 3c
       0.010958484 0.07741327 0.04488765 0.023753185
000120 d7 d9 d9 3d 37 c3 2f 3d a0 0c 0e 3d d4 9f c1 3c
       0.10637253 0.04291078 0.03468001 0.023635782
000130 2b e9 3d bd 3b 4a 04 bd 43 2a 93 bd d3 00 b6 3d
       -0.046364944 -0.032297354 -0.07185795 0.08886876
000140 fe 4e 2a 3c 44 15 6a bb 15 62 e5 3d f7 c0 2e bd
       0.01039481 -0.0035718242 0.11200348 -0.042664494
000150 2c 74 be 3d 6a 50 e8 bc aa a8 09 3c 69 0e e3 3c
       0.09299502 -0.028358657 0.008402029 0.027716832
000160 83 a3 4e 3d 45 fe 9c bc 3f 00 54 3d 6d 01 b8 3b
       0.050448906 -0.019164214 0.051758047 0.0056154043
000170 e9 32 77 bd 1d 3f 63 3d a9 9a a0 bd 79 56 1f bd
       -0.060351286 0.05548011 -0.07841999 -0.038900826
000180 e8 30 8d 3c 5e bc f2 bc 0a 79 48 3d 03 9d a5 3d
       0.017235234 -0.029630836 0.048943557 0.08086588
000190 ce e4 a8 3d b7 72 ae 3d 69 6a 73 bd 9d 40 32 3d
       0.08246766 0.08517974 -0.059427653 0.04351865
0001a0 f9 b0 66 bd 96 8d 17 3c 63 d1 35 3c 8c a8 fa 3d
       -0.056321118 0.009250065 0.011097285 0.12239179
0001b0 2e b0 05 3e 58 f0 94 3d bc 69 93 3d ba d8 bd 3d
       0.13055488 0.072724044 0.071979016 0.09269853
0001c0 a8 bf 8a 3c 41 3f 70 3c cb 9f 80 3c 42 93 43 3d
       0.016937092 0.014663518 0.015701195 0.047747858
0001d0 88 f7 92 3c ab fb 69 3d db 1c a9 3d 46 c0 f5 3d
       0.017940298 0.057124775 0.08257457 0.11999564
0001e0 0c 89 14 3d 50 c5 37 3d 68 2a ab 3d 7e df 02 bb
       0.03626351 0.044865906 0.08357698 -0.0019969638
0001f0 5b b1 f8 bc 93 0c ae 3b 74 23 fa 3c e5 f8 30 3d
       -0.030358007 0.0053115576 0.030534483 0.043206114

lstmcell.W_xi f4 [3, 128]
000000 17 01 60 bd 7a dc 3b 3d e0 d1 60 3d 8f 16 6b bd
       -0.05468854 0.04586456 0.054887652 -0.05739456
000010 7f 5d 05 bd 31 4d 6b 3d 78 6f c3 3d 30 fc 30 3d
       -0.032559868 0.057446662 0.09542745 0.043209255
000020 18 c1 95 bc cf b6 0f 3d 02 a2 ac bd 6e fc ac bc
       -0.01828055 0.03508645 -0.08429338 -0.021116462
000030 1a c2 51 3c ff 9e e5 3c a6 9b ab bc 1d 7a 96 bd
       0.012802625 0.028029917 -0.020948242 -0.0734751
000040 c4 2e 6a bd 0c 0d e4 3d 41 4a 97 3d 06 b7 08 bd
       -0.057173505 0.11135301 0.0738721 -0.03337767
000050 48 c1 70 bc d1 e6 05 3d ba 3c 48 bc 39 2e 9c bd
       -0.014694519 0.032690827 -0.01222151 -0.07626004
000060 47 d1 a3 3d c5 52 cb 3c e0 cb 5f bc 38 5e e7 3b
       0.07998901 0.024819741 -0.013659447 0.0070607923
000070 e6 eb 86 3a d6 e8 46 bd 18 37 d5 bc 33 e1 5b bd
       0.0010293692 -0.048561893 -0.026027247 -0.053681564
000080 56 4f af bd a4 52 23 3d bb d3 da 3d bb f7 8b 3d
       -0.08560054 0.039873734 0.10684916 0.0683436
000090 1c 42 59 bd ac 2e 46 bd 84 14 90 3d 8b 0d 80 bd
       -0.053041562 -0.048384354 0.07035163 -0.06252583
0000a0 95 7d d8 bc cb 11 d3 3d e7 1f 9c 3d 04 af 99 3c
       -0.02642707 0.10306128 0.076232724 0.018760212
0000b0 f7 95 c0 3c 54 ac 24 3c 76 3a 3c 3d 86 da 90 3d
       0.023509009 0.010050852 0.04595419 0.0707293
0000c0 c2 e3 7f bd 9b dc a9 3c dc 9d 1c 3d 69 4d 61 3d
       -0.062473066 0.020735076 0.038236484 0.055005465
0000d0 be 7a a3 3c c2 c7 b1 bd 36 19 47 bd aa 26 28 bd
       0.019955989 -0.08680679 -0.048608027 -0.041052498
0000e0 b8 b3 07 bd 1a 25 5c bd e2 d8 66 3c 0a a0 6e bd
       -0.033130378 -0.05374632 0.014089795 -0.058258094
0000f0 cc bf 13 3d ca fc 3d 3d cb 76 64 3d f4 d2 4d bd
       0.036071584 0.046383657 0.055777352 -0.05025001
000100 e2 fc ce bc 2f db 81 bc 04 d9 ac 3d 1e 04 56 3c
       -0.025267068 -0.015851585 0.0843983 0.013062505
000110 ed 44 92 39 b9 c4 ba 3d 48 06 ad 3d b8 cf cf 3d
       0.00027898644 0.09119553 0.08448464 0.10147041
000120 b3 3a 17 bd 9c c5 8d 3d 75 d3 8b bd f9 d8 f0 3c
       -0.036921214 0.069224566 -0.068274416 0.029400336
000130 08 09 f4 3c 1e b5 a6 3d 90 b4 46 3d f0 e2 b3 3d
       0.029789463 0.08140014 0.04851204 0.08783519
000140 8c 3c 8a bc 64 c3 04 3d 24 25 7e 3d 76 3a a2 3d
       -0.016874574 0.0324129 0.06204714 0.07921307
000150 f2 c5 2b 3c 3c ea c1 ba 5a e5 0e bd 3f de 0c bd
       0.010484206 -0.0014794539 -0.034886695 -0.034391638
000160 6b 39 8c bc 64 5e 3b 3d 44 33 cd 3d c4 10 66 bd
       -0.017117223 0.045744315 0.10019544 -0.056168333
000170 4f 5c 4d 3d 75 f3 82 bc c8 48 e9 bc 74 b6 8c 3d
       0.05013686 -0.01598523 -0.028477088 0.06870738
000180 48 86 9d 3c 76 e5 e6 3b 25 e4 92 3d 01 ef e0 bc
       0.01922907 0.007046397 0.07172421 -0.027457716
000190 e6 e7 80 3d 65 90 73 bd ba 84 7c bc fa 3c 50 bd
       0.06294231 -0.059463877 -0.015412504 -0.0508394
0001a0 c1 2e b4 3c f1 3b 3b bc 4e 8e 98 3b c4 e2 15 bc
       0.02199495 -0.011427865 0.004655636 -0.009148303
0001b0 25 c9 a6 3c 09 b2 67 3d ae b6 5d bd 08 6e a0 3d
       0.020359585 0.056566272 -0.054129295 0.07833487
0001c0 35 b1 1c 3c c5 fa 8d 3d 34 3f 0f 3d 7b 60 44 3b
       0.009563734 0.06932596 0.034972385 0.0029964733
0001d0 26 69 6b 3d 6a fd 82 bd b2 a8 0d 3d 1b bd 8b 3d
       0.057473324 -0.06395991 0.03458471 0.068231784
0001e0 67 61 b1 bd 8f 62 9b bc 2d 5f 04 bd 73 d0 b1 bd
       -0.08661156 -0.018967895 -0.03231733 -0.08682337
0001f0 ca 82 2f 3c c4 db 85 3d 79 71 81 3d e3 14 26 bd
       0.010712335 0.065360576 0.06320471 -0.040547263
000200 be b2 df ba 72 96 c7 bc 7d 45 7e 3d 29 6f 33 bd
       -0.0017066819 -0.02436373 0.062077988 -0.043807182
000210 5c 59 c7 bc fb 2a 13 bd cd 8b 9d 3c 04 63 a8 3d
       -0.024334602 -0.03592966 0.019231701 0.08222011
000220 e3 34 87 bc e4 28 4f ba 60 10 b2 bd aa f4 81 bd
       -0.01650471 -0.00079025165 -0.086945295 -0.06345494
000230 ff c4 24 bb b1 50 ce bb 2a 45 69 bd e8 6f 16 3d
       -0.0025141833 -0.0062962403 -0.056950726 0.036727816
000240 8b fe d3 3b de 09 d4 bc 9e 94 8a 3c 81 6a 88 3d
       0.006469553 -0.025883611 0.01691657 0.06660939
000250 d4 5a f0 3c 99 3e 66 bd d7 b4 ab 3d fe 9b 4e 3d
       0.029340185 -0.05621204 0.08384102 0.050441734
000260 00 e5 75 3c d7 2f e5 bc d4 a0 0b bd 5c 3e e9 3c
       0.015008211 -0.027976913 -0.034088925 0.028472118
000270 5d 46 6b 3c d7 74 e6 3c 4d 9b bb bc 22 af a7 bd
       0.014360038 0.028131885 -0.022901202 -0.08187701
000280 97 49 ca bb af 1b 12 3d 92 10 1e bd d2 d6 72 3d
       -0.0061733234 0.035670932 -0.03859002 0.0592869
000290 b3 3f 54 3c e2 5a 93 bd a1 07 64 3d 5b b4 27 3d
       0.01295464 -0.07195069 0.055671338 0.040943485
0002a0 22 16 1f bd 67 b8 31 bd 60 8d 4c 3c 9d 10 e0 bc
       -0.038839467 -0.04338875 0.012484878 -0.027351672
0002b0 11 5c 8a 3c a1 7f b0 3d 30 6e 89 3d 56 33 b5 bd
       0.016889604 0.08618093 0.0671047 -0.08847682
0002c0 b4 17 2c bb b9 b1 a2 3d 4f 6b 9e bd fa ff be bc
       -0.0026259245 0.07944054 -0.07735311 -0.023315419
0002d0 cc e3 83 bd b2 b5 b1 bc a6 78 74 3c ae d4 b7 bc
       -0.06439933 -0.021693084 0.014921343 -0.02244028
0002e0 0a 07 c4 bb c3 eb ad 3d 08 6d 71 bd 48 a0 87 bd
       -0.0059822844 0.084922336 -0.05894187 -0.06622368
0002f0 72 b9 d4 3c 51 53 8e bd 97 d2 a8 3d ee e3 ba 3d
       0.025967333 -0.06949485 0.08243292 0.091255054
000300 c5 fe ff 3c de c4 47 3d a5 63 20 bb a5 f2 52 3d
       0.031249413 0.04877173 -0.0024473455 0.051500935
000310 58 f7 59 3d 39 36 7c 3d 43 23 af bc 85 bc 8e 3d
       0.0532144 0.06157515 -0.021379119 0.06969551
000320 0b cf 76 3d db 22 40 bd a5 70 c3 3d 87 f5 ea bb
       0.060256045 -0.04690824 0.095429696 -0.0071703824
000330 22 31 66 bb 02 36 87 3d 02 4b 39 3d f6 9c a8 bc
       -0.00351245 0.06602098 0.04523755 -0.020582657
000340 9d 48 16 3d 88 b5 8b bd a8 49 ae bb dc 8e 38 3c
       0.036690343 -0.06821734 -0.005318839 0.011264529
000350 77 0c 5a 3c 68 51 97 3c b2 83 89 bd 01 49 9c bd
       0.013308636 0.018471435 -0.06714572 -0.07631112
000360 8a 75 95 3d f7 54 96 3d 60 c3 07 3d 66 ed 83 3d
       0.072978094 0.073404245 0.03314531 0.064417645
000370 ac 50 22 bd c1 8c c8 3c fb 67 b5 3c e5 08 1e 3d
       -0.039627716 0.02448118 0.022144308 0.0385827
000380 8e 88 d0 bc 0d dd 88 3d 08 99 b2 3d db 8e 2f 3d
       -0.02545574 0.06682787 0.08720595 0.042860847
000390 48 8e 91 3c a6 f2 ad 3d d2 8d 01 bc de 25 f7 3c
       0.01776804 0.08493547 -0.007907348 0.030169424
0003a0 dd 24 1b bd 63 3d 78 bd 0f 40 98 bd ac 73 b5 3c
       -0.037876952 -0.060605418 -0.07434093 0.022149883
0003b0 dc ff 75 bd 75 80 8b 3c cf 2d 20 bd 12 1e 9e 3c
       -0.06005846 0.017029027 -0.039106186 0.019301448
0003c0 14 80 97 bc ef 59 85 bc 30 35 a7 3d e0 27 dc bc
       -0.01849369 -0.016278235 0.081644416 -0.026874483
0003d0 70 18 43 3d e3 48 81 3d e6 67 a0 3d 9b 30 8e 3d
       0.047630727 0.0631273 0.07832317 0.069428645
0003e0 a7 13 f3 3b ee 15 16 bd d3 ca 72 3c b5 7d 91 3d
       0.007418114 -0.036642008 0.014818865 0.07104055
0003f0 9c 80 cc 3c 8a 36 7d bd 56 1c fa bc 01 32 9d 3d
       0.02496367 -0.06181959 -0.03053109 0.07675553

lstmcell.W_hi f4 [128, 128]
000000 ba 79 2e bd 76 99 a2 3c d3 c0 0f bd 93 c1 65 bc
       -0.042596556 0.019848567 -0.035096 -0.0140232025
000010 af 7b aa 3d 0e 6f a0 bd bb d7 9a 3d 17 7c b6 bd
       0.08324372 -0.07833682 0.075606786 -0.08910387
000020 af 85 e5 3c d4 b4 85 3d a6 7c 86 bd 65 ee 7d bc
       0.028017847 0.06528631 -0.065667436 -0.015498732
000030 68 74 18 bd 40 c3 14 bd 53 a9 b7 3c 95 b8 05 bd
       -0.03722039 -0.036319017 0.022419607 -0.032646734
000040 24 08 7c bc 38 04 45 3d fb 20 5b bd 3c 46 7b 3d
       -0.0153828 0.048099726 -0.05349825 0.061346278
000050 47 2c 9c bd 38 fe 26 bd 6e 63 b0 bd 8e 23 e7 3c
       -0.07625633 -0.040769786 -0.08612715 0.028215196
000060 b4 40 77 bc 16 ea a2 3d 71 46 19 3d 46 73 85 bd
       -0.01509111 0.079548046 0.037420694 -0.06516127
000070 70 9f 54 3d 9d f9 0d 3d ad 4c b2 3c db 0b bc 3b
       0.051909864 0.034661878 0.021765077 0.005738718
000080 8e cb 8e bd bd 28 f0 3c 96 77 a2 3c 02 f0 0b 3d
       -0.06972419 0.0293163 0.019832414 0.034164436
000090 fa 8a 27 3d 7b a1 c9 3c 28 07 9c bd 43 86 4c bd
       0.040904023 0.024613133 -0.076185524 -0.04993273
0000a0 6a 85 66 3d c5 36 f3 bc 4b c9 36 bd 28 e6 40 3c
       0.056279577 -0.029689202 -0.04462556 0.0117736235
0000b0 3f 97 5d ba 36 45 74 bc a6 5e 8c 3d f4 36 9d 3d
       -0.00084530184 -0.014909079 0.0685399 0.07676497
0000c0 3d 5f 93 bd a8 16 0e bc e6 f3 a2 bd c1 61 13 bd
       -0.071959 -0.008672394 -0.07956676 -0.035981897
0000d0 3b 72 8c bd 65 15 b2 bc 03 f4 a8 bd 17 3d 74 bd
       -0.06857725 -0.021738717 -0.082496665 -0.059628572
0000e0 9a ba 20 bb 42 08 a1 bc 84 47 ee bc 76 88 84 bd
       -0.0024525286 -0.019657258 -0.029086836 -0.0647134
0000f0 45 b6 9c 3c b5 ca d5 3c 86 44 64 3d 50 6a a9 3d
       0.019129882 0.026097635 0.05572941 0.082722306
000100 e1 b4 4d bc 23 c0 b2 bd d1 0a 5e 3d c7 a0 a1 3d
       -0.012555332 -0.087280534 0.054209534 0.07891994
000110 a2 43 2a bd 8a b6 03 3d d7 8d 97 bd f8 b1 f8 3c
       -0.041568406 0.032156505 -0.07400101 0.0303583
000120 d2 eb fd bc bd 6c 19 bd f4 26 58 bd f3 92 07 bc
       -0.030996237 -0.037457217 -0.052771524 -0.0082747815
000130 8e 33 71 3d 4d 59 a7 3d 3f d8 80 3d 7b 22 6d bd
       0.058887057 0.0817133 0.06291246 -0.05789421
000140 21 ca 6e bd fa 67 0f bd 6e fb af bd af 12 63 3c
       -0.058298234 -0.03501127 -0.08592878 0.013859435
000150 98 f0 b3 bb ea 93 a7 bd f2 2a 2d bc 25 eb 04 bd
       -0.0054913275 -0.08182509 -0.010569321 -0.032450814
000160 1e 48 01 bd c8 14 95 bd ba 13 98 bc 3f 74 a6 3c
       -0.031562917 -0.07279354 -0.018564094 0.020319102
000170 41 91 65 3d 14 a0 ea bc 37 33 06 3d a7 0e 97 3d
       0.056046728 -0.028640784 0.032763686 0.073758416
000180 4e 0b 18 bd af 79 70 bd 96 9f 8f bd c6 0d 0d 3d
       -0.037120156 -0.058709797 -0.070128605 0.034436963
000190 c5 e1 61 bd d7 17 15 bd 85 c0 4b bd f6 d2 3b 3d
       -0.05514695 -0.03639969 -0.049744148 0.045855485
0001a0 51 6d 9a bd a2 de 8d 3d 1e ef 25 3d 6c b5 74 bc
       -0.07540382 0.069272295 0.040511243 -0.0149358325
0001b0 b5 04 12 bd 8c 56 9d 3d 2c a1 19 3d 66 43 83 3d
       -0.03564902 0.07682523 0.03750722 0.064093396
0001c0 7f 7e 9c bd ad d3 3d bc 77 63 91 bc 03 05 a3 3b
       -0.07641315 -0.011586112 -0.017747624 0.0049749627
0001d0 ae 88 9c 3c bc a7 e9 bc 60 d5 f4 3b 82 2f 91 3d
       0.019108143 -0.028522365 0.0074717253 0.070891395
0001e0 13 31 a6 3d cb 70 5f 3c e9 8f 15 bd f8 7b 4c 3d
       0.08114829 0.013637732 -0.036514197 0.049922913
0001f0 85 99 0c 3d c5 fd 71 bd 1d 19 60 bd 58 ee 15 bd
       0.034326095 -0.059079904 -0.05471145 -0.036604255
000200 f9 f8 56 bc 74 17 a4 bd f2 a1 33 3d 08 1d d1 bb
       -0.013120883 -0.08012286 0.043855615 -0.0063816346
000210 b2 e0 7a bd 83 93 2e bd 34 05 75 bd e8 8b 4f bd
       -0.061249442 -0.042621147 -0.059819415 -0.050670534
000220 9b db 5a 3c db 41 89 3d 0c af 07 3d 12 68 b2 bd
       0.013358022 0.06702014 0.033125922 -0.08711256
000230 6a d8 6a bd 80 d7 2d 3b bc ae 85 3d ac 9c aa 3d
       -0.057335295 0.0026526153 0.065274686 0.08330664
000240 3f 0b 4f 3d 6f da e5 bb d6 4c 79 bd 43 4f 96 bd
       0.050547834 -0.0070145647 -0.060864292 -0.07339337
000250 9e cb 04 3d 62 62 bc bc 98 b0 58 3c 13 d6 1c 3d
       0.032420747 -0.022996131 0.013225697 0.038290095
000260 80 e4 69 bc bf e3 f3 bc 05 00 1b bd 51 9b b1 3d
       -0.01427567 -0.029771684 -0.037841816 0.086722024
000270 79 67 49 3d 2b f4 f1 3c 2f ac 8f 3d da c9 08 3d
       0.049170945 0.029535374 0.07015263 0.033395626
000280 18 36 90 3d c8 98 a5 3d 5b 47 c6 bc 1e fd 89 3d
       0.070415676 0.08085781 -0.024203947 0.067377314
000290 93 2c 6d bc 34 10 a3 3c 72 a8 83 bd f0 c0 7c bd
       -0.014475959 0.019905187 -0.06428613 -0.061707437
0002a0 6e fd 5b 3d c8 2a 5e 3c 3d 54 f5 bc e9 37 92 bd
       0.053708486 0.0135600045 -0.029947395 -0.0713957
0002b0 ea 58 94 bd 9b ba 5c bd e6 62 32 3d 8e 3d f3 bc
       -0.072435215 -0.0538889 0.04355135 -0.029692437
0002c0 56 45 05 3d c1 f5 76 bc 2e ac 68 3d f9 6f 6f 3d
       0.032536827 -0.015073241 0.05680483 0.058456395
0002d0 c8 99 67 bd 3d 3b a6 3c cd d1 d0 bc 0a 3a a7 bc
       -0.05654314 0.020291919 -0.025490666 -0.020413417
0002e0 ee 86 88 3d 4a c1 4f 3d 05 4a 9a 3d e7 48 83 bc
       0.06666361 0.050721444 0.07533649 -0.016025973
0002f0 5c b9 41 3d c6 e5 9a 3d f3 be 90 3d 4a 1d 3f 3d
       0.047295913 0.07563357 0.07067671 0.04665879
000300 aa 44 10 bd b0 2f dc bc 47 cc 8d bc c4 44 00 3c
       -0.035221733 -0.026878208 -0.017309321 0.007828895
000310 17 19 ed bc f1 fa 24 3b 54 1a d5 bb 91 9f 22 bd
       -0.028942628 0.0025173987 -0.0065033827 -0.039702956
000320 f5 31 54 bd be 89 25 bd a8 f8 a9 bd bf da 8f bd
       -0.051805455 -0.040414564 -0.082993805 -0.070241444
000330 2e 7a f5 3c 8d 6c 1e 3d 9d b6 db bb 06 4b 10 3d
       0.029965486 0.03867774 -0.006705119 0.035227798
000340 75 0a 79 bd ad 74 3a 3d eb e9 a0 bb ca 47 1c bd
       -0.06080099 0.045521427 -0.0049106977 -0.0381544
000350 43 4a 71 bd 88 5b 21 bc 54 31 f6 3c 7a cd 8d 3d
       -0.058908712 -0.009848483 0.030052818 0.06923957
000360 2d 67 91 3c d7 5a ba bc 4b aa 71 bd ce 70 b0 3d
       0.017749393 -0.022748394 -0.059000295 0.08615266
000370 cb ff 93 3d 61 f6 c7 3a 5d b3 99 bd 38 b8 24 bd
       0.07226523 0.0015255922 -0.07504914 -0.040214747
000380 fc 5d a6 bb ca e4 e6 3c 1e b7 58 bd 0d f6 a3 bd
       -0.005077122 0.028185267 -0.05290901 -0.08005915
000390 83 d3 80 3d 4a f2 a5 3d 02 7c 03 3d 97 6e ad 3d
       0.06290343 0.081028536 0.032100685 0.08468359
0003a0 5e 8d b2 3d 18 d9 1e bd 8c f0 ae bd 8e e8 87 bc
       0.0871837 -0.038781255 -0.085419744 -0.016590383
0003b0 72 b6 d8 3c 09 e8 9b bc fc b6 9e 3c 70 a8 3d 3d
       0.026454184 -0.019031541 0.019374363 0.046303213
0003c0 45 c4 0a bd 74 9f 55 bd e9 3f 16 bd 62 78 6c bd
       -0.033878583 -0.05215402 -0.036682043 -0.057731993
0003d0 16 97 cc bc 7c 23 6f bd b4 8b 74 3d bf d8 97 3d
       -0.024974387 -0.05838345 0.059703544 0.07414388
0003e0 47 f5 29 bd fa bf 07 bd 5f ef 8b 3c e2 7d 96 3d
       -0.04149368 -0.033142067 0.017081914 0.07348229
0003f0 d1 f1 9c bd 7b d8 92 bd ea 5a 91 bd 8e e0 fc 3c
       -0.0766331 -0.071701966 -0.070974186 0.030868795

lstmcell.b_i f4 [128]
000000 af 40 24 3d 7b da 3d bd 39 9f 2c bd cd 93 5e 3d
       0.04010075 -0.046350937 -0.042144034 0.054340173
000010 c5 32 58 3c d0 e1 7f 3d 3a ee fa bb 9b 55 38 3d
       0.013195698 0.06247121 -0.0076577934 0.045003515
000020 48 29 61 3d 72 e9 9d 3d 5c 5b 6f bd b8 f3 93 3d
       0.05497101 0.07710542 -0.058436736 0.0722422
000030 cc 52 8f 3b ad 90 1a 3e c9 c8 08 3e 7c 47 b7 3c
       0.004373884 0.15094252 0.13357843 0.022372954
000040 f3 96 8d 3d ad ae 25 3e 26 2b 64 bd 19 ea 54 bd
       0.06913557 0.16179915 -0.055705212 -0.051981065
000050 a9 69 c1 3d 6a 83 6c 3d 2b 2f db bc b5 b0 c9 3d
       0.09443981 0.057742514 -0.02675589 0.09848157
000060 59 0a 31 3d e3 c2 a6 3d 2c 5c 11 bd e0 23 17 bd
       0.04322276 0.081426404 -0.035488293 -0.036899447
000070 a0 51 0a 3d e9 11 07 bd 3d af 7d 3c 21 d2 b4 3d
       0.03376925 -0.032976065 0.015483675 0.088291414
000080 d0 a8 da 3d ed ea 45 bd ea 93 06 bd fd 87 fd bc
       0.1067673 -0.048319746 -0.032855906 -0.030948633
000090 9a 23 31 bd b1 a3 be 3d 6d 21 22 3d 28 ff e0 3b
       -0.043246843 0.093085654 0.03958266 0.0068663545
0000a0 85 57 10 bd f5 13 0f 3e 31 e6 98 bb 4a 6d b8 3d
       -0.035239715 0.13972457 -0.004666113 0.0900522
0000b0 03 03 04 3d f3 51 d6 3d ab 72 7c 3d ec 5f 83 3d
       0.032229435 0.10464849 0.061632793 0.0641478
0000c0 cc 40 9a 3d 0f 63 fc bc 60 be 75 3c 32 ad 32 3e
       0.0753189 -0.030808954 0.014999002 0.17448881
0000d0 14 9b e0 3c 5f 0f 8a bd a1 5e 3c 3d 36 c7 1a bc
       0.027417697 -0.06741213 0.045988683 -0.00944691
0000e0 7f 8e 48 3d d6 d7 aa 3d 7f 7d 8e 3d 58 0b 87 bd
       0.04896402 0.08341949 0.0695753 -0.065939605
0000f0 83 7b 23 bc 24 da 6e 3c f0 89 08 3e 09 77 4d 3d
       -0.009978178 0.014578376 0.13333869 0.05016235
000100 21 d3 e1 3b 95 91 c1 bc ac 44 41 bd d8 02 d1 3d
       0.0068916236 -0.02362899 -0.04718463 0.102056205
000110 77 a5 5d 3d 57 04 56 3d b8 1b 63 3d b3 08 aa bc
       0.054112878 0.052250233 0.055446357 -0.020756101
000120 ef 48 6f 3d d4 8d dd 3d fc 32 71 3d a3 9e 7b 3d
       0.058419164 0.10818067 0.058886513 0.061430585
000130 4a 33 ce 3d f9 e0 89 bd fb 2e 5c bd 90 61 bb 3d
       0.10068376 -0.06732363 -0.05375574 0.09149468
000140 27 94 b2 3d 92 f3 c0 3d 4e 2b d5 bc 76 49 6f 3d
       0.08719664 0.09421457 -0.026021626 0.058419667
000150 69 b4 dd 3d 1a d3 b1 3d db 8e e3 bc 8f d0 26 3d
       0.10825426 0.086828426 -0.02777808 0.04072624
000160 e0 67 bb 3d 80 93 98 3d e7 bf 8d 3c 40 35 bd 3d
       0.09150672 0.074500084 0.01730342 0.09238672
000170 16 c4 84 3d da cf 8d 3d fd da b7 3c cc c2 83 3d
       0.06482713 0.0692441 0.022443289 0.06433639
000180 ac 60 12 3e e7 c5 00 3d 76 e2 19 3e ac 08 f7 bc
       0.1429469 0.031438734 0.15027794 -0.030155502
000190 6e 16 af 3d e8 31 0c 3b 2f ea 76 3d a1 1a 1b 3d
       0.085492 0.002139205 0.06028193 0.037867192
0001a0 54 1b ee bc f3 02 80 bb 3f 12 d4 3d 4f 32 de 3d
       -0.029065765 -0.0039066016 0.10355043 0.10849439
0001b0 aa 79 6f bc dc d8 8d 3d b2 d3 20 3d 33 99 62 bd
       -0.014616409 0.06926128 0.03926439 -0.055321883
0001c0 bf b4 b6 3d b1 87 5c 3d d1 35 68 bc 11 e3 36 3d
       0.08921193 0.053840343 -0.014172987 0.04465014
0001d0 f4 16 c0 3c 31 d9 bc 3c 5d c7 9a bd e5 b8 a2 3d
       0.023448445 0.023052784 -0.07557557 0.07945422
0001e0 81 a9 da bc 7c 11 d2 3c dd f7 0d 3b f3 d8 86 bc
       -0.026692154 0.025643103 0.002166263 -0.016460871
0001f0 16 5d 90 3c 27 ee 6e bd 74 70 c1 3d 8d 4f 95 3d
       0.017622512 -0.05833259 0.09445277 0.07290564

lstmcell.W_xC f4 [3, 128]
000000 58 0f 08 3e 96 47 cd 3d 05 cf 49 be 9c af 66 be
       0.13287103 0.100234196 -0.19707878 -0.22527927
000010 3d 3a 47 be 1c 44 11 be b6 ff 61 be f4 70 55 3e
       -0.1945581 -0.14186138 -0.22070202 0.2084387
000020 02 86 96 be 5f c2 4c 3e cf ad 4a 3d f9 db 0f 3e
       -0.29399115 0.19996022 0.049482163 0.14048757
000030 63 c0 a0 bd 7e b9 90 be 23 f1 5a be ab 67 c2 3c
       -0.07849195 -0.2826652 -0.21381049 0.023731073
000040 b2 ee be bc c6 61 78 3e 80 d8 d4 bd 2a 4e 4a 3e
       -0.023307178 0.24256048 -0.103928566 0.1975638
000050 a9 ea 3c be 10 c0 2d be af 8e b2 bd 0a 7d 09 3e
       -0.18448891 -0.16967797 -0.08718621 0.13426605
000060 a1 50 37 3e 35 b2 2a 3e dc 87 88 3d c2 b8 1f 3e
       0.17901851 0.16669543 0.06666538 0.15597823
000070 2d 1e f1 3d b5 23 8c b8 9f b7 2f be 05 a9 d1 bd
       0.11773334 -6.682371e-05 -0.1715989 -0.10237316
000080 5f 0a 72 3b 83 df e8 3d 26 ff 3e be ee 21 1c be
       0.0036932451 0.113707565 -0.18652019 -0.15247318
000090 4e 95 45 3e 35 c6 69 3e 4f 11 77 be 27 3d aa 3d
       0.19295236 0.22829516 -0.24127696 0.08312445
0000a0 31 2c 8e bc ce 5e 8a 3e 50 cd 2f be 14 e3 8d be
       -0.017355056 0.27025455 -0.17168164 -0.2771231
0000b0 60 f5 cd 3d fd c7 cc bd 12 71 c6 bd b6 a3 64 3e
       0.10056567 -0.09999082 -0.09689535 0.22328076
0000c0 b7 0e d9 bd 65 d7 bf bc f7 ee b1 bc 13 36 a1 3e
       -0.1059851 -0.023418138 -0.021720393 0.31486568
0000d0 87 20 ee bd ee 8e c0 3c e8 4c 08 3e 8a 23 d9 bd
       -0.11627298 0.023505654 0.13310587 -0.10602482
0000e0 11 e8 0d 3e 11 59 59 3e 22 40 cb 3b be 73 39 bd
       0.13858058 0.21225382 0.0062027136 -0.045276396
0000f0 c9 68 f0 bc 1b a3 4d 3e 42 15 b5 3e 97 97 1c 3e
       -0.02934684 0.20081751 0.3536778 0.15292202
000100 24 4e 7c be 02 a7 ca bd aa d5 da bd b4 fb aa 3d
       -0.24639183 -0.098951355 -0.106852844 0.0834879
000110 2e f7 2f 3c 5c 23 87 3d 6c 22 6f bd 61 fb a0 3e
       0.010740085 0.06598541 -0.058382437 0.31441787
000120 71 9f 12 3e 58 93 21 be 09 9d 86 3e 5d 14 64 be
       0.14318635 -0.15778863 0.26291683 -0.22273393
000130 99 c6 f3 bd 61 34 84 3c 04 9a 03 3e aa e9 51 be
       -0.11903114 0.016138257 0.12851721 -0.20499292
000140 92 76 cd bd bd 57 05 3e aa d0 12 3e 62 4f 20 3e
       -0.10032381 0.13021751 0.14337412 0.15655282
000150 c5 82 0c bd 5e 6f 4f bd 00 3c e9 3d 8d 80 53 be
       -0.0343044 -0.050643317 0.11388397 -0.20654507
000160 28 39 f0 bd ad 8d 04 3e b2 3a 84 be 82 8b c2 bd
       -0.11729652 0.1294467 -0.2582603 -0.09499265
000170 2b 20 61 3d 8a 18 f9 3c e6 ce 8c bc 91 b1 49 3a
       0.05496232 0.030407209 -0.0171885 0.0007694001
000180 9d 2f 7d be 01 62 76 bd 89 16 cf 3e 18 05 5f be
       -0.24725194 -0.060152058 0.4044688 -0.21779287
000190 c4 b1 1a 3e 10 6e bb be b3 ce 5f bd 0f f3 2f 3d
       0.15106875 -0.3660741 -0.054640483 0.042956408
0001a0 d1 2d 2d be a5 14 0a 3e 42 fb 9d be 48 96 9a 3e
       -0.16912009 0.13484438 -0.30855757 0.3019278
0001b0 02 53 4c 3e 42 cf d2 bd e9 05 87 3e 6f 94 08 3e
       0.1995354 -0.102934375 0.26371697 0.13337873
0001c0 8d ff d1 3d d0 f1 d3 3d e5 a0 3e be ee 93 dc 3d
       0.102538206 0.103488564 -0.18616064 0.10770403
0001d0 e8 0d b1 3d f6 9d 2d be 19 f8 96 bd 79 06 13 3e
       0.086452305 -0.16954789 -0.073715396 0.14357938
0001e0 9f c5 0f 3c 91 bc f1 bd ac f1 b1 3d 18 a0 31 bd
       0.008775144 -0.11803544 0.086886734 -0.043365568
0001f0 b2 70 b5 3c 9e 8f a4 bc 6f 78 80 be 10 a1 a5 3d
       0.022148464 -0.020088013 -0.25091884 0.08087361
000200 e4 c3 97 3d 1f fb 2b bd 5d 32 1f bc 8d 55 9e 3d
       0.0741041 -0.041987535 -0.009716597 0.07731161
000210 0b 38 51 3c e7 6e da 3c 6d 72 85 3d 9d 38 35 bc
       0.012769709 0.02666421 0.065159656 -0.011060861
000220 7d 3f 0b be 6c 69 9d bd 48 e0 06 bd e7 31 9a 3d
       -0.13598438 -0.07686123 -0.032928735 0.07529049
000230 42 30 86 bd c0 46 32 3e d6 b4 97 3d 3d a8 d0 3d
       -0.06552173 0.17409801 0.074075386 0.10188339
000240 05 28 a3 3c 57 5d 64 bd 2a 2d 5b 3d 2b f1 1d 3d
       0.019916544 -0.05575308 0.05350987 0.038560074
000250 9d d6 85 3c 69 82 20 bd 14 c3 0f 3d ad 92 e9 3c
       0.016337687 -0.03918687 0.03509815 0.028512323
000260 58 42 af bc 8c 0f 88 3d dc fb 6c 3d 62 b7 b0 3b
       -0.02139394 0.0664359 0.05785738 0.0053929547
000270 d5 76 e9 3d 30 eb 3c bd 33 4a be 3d f5 01 3c bd
       0.113996185 -0.04612273 0.09291496 -0.045900304
000280 d6 13 88 3c b8 4c 1c bc 07 78 74 3d 23 a2 c2 3d
       0.016611021 -0.009539776 0.05968478 0.095035814
000290 69 19 69 bd 34 64 4b bd 33 b6 c1 bd 4f 6a f5 3d
       -0.056909 -0.049656108 -0.0945858 0.119831674
0002a0 97 3c 8a bd 6c b5 c0 bd af f5 6f bc 84 76 93 3d
       -0.06749838 -0.094096035 -0.014645978 0.072003394
0002b0 b9 44 01 3d b1 f8 af bb 6a 36 43 bc 65 13 d0 bd
       0.03155968 -0.0053702225 -0.011914829 -0.10159949
0002c0 56 80 fe 3d 26 29 63 3d 53 c6 19 3d 93 5c 80 3e
       0.12426822 0.055459164 0.037542652 0.2507063
0002d0 0d b9 ac bd a1 4f 5e 3d 66 57 12 bd b5 92 58 bd
       -0.08433733 0.05427516 -0.03572788 -0.052874286
0002e0 cc bc 4e bd ee 54 b5 3d 7f 3c 14 3c ac 3b 23 3d
       -0.05047302 0.0885409 0.0090476265 0.03985183
0002f0 25 33 94 3c 16 d0 d0 bd 94 3d a2 bc ce d5 72 3d
       0.018090794 -0.10195939 -0.019804753 0.05928593
000300 4e 75 8c bd 83 21 95 3c 8f 57 dd bd 06 f2 25 bd
       -0.068583116 0.018204456 -0.10807716 -0.040514015
000310 36 bc 2c bd a0 3f d4 3d d5 ec c8 3b 4b ae fc bd
       -0.04217168 0.10363698 0.006131748 -0.12337931
000320 df d5 a1 bc 70 97 a0 3d db 24 04 bd a7 a4 93 3c
       -0.019755302 0.078413844 -0.03226171 0.018022848
000330 4f cd 51 3d 43 24 ad 3d 57 8f 2e bd a5 7d e2 bb
       0.05122119 0.08454182 -0.04261717 -0.0069119507
000340 71 40 c5 3c 34 35 0e be 10 d8 e6 3d d3 e4 bf bd
       0.02407858 -0.13887483 0.112716794 -0.09369817
000350 7d e6 8e bc a9 1a 75 3d 5e 43 b2 bd f6 08 62 bd
       -0.01744389 0.05983988 -0.087042555 -0.055184327
000360 cf 23 5f bd dc 38 c2 bc 72 25 bd 3b bd c6 a3 bd
       -0.05447751 -0.023708753 0.005772286 -0.07996891
000370 a0 54 e1 bd 52 3e 8b bd 44 84 b1 bd 88 46 c9 bd
       -0.11002469 -0.06798996 -0.08667806 -0.09827906
000380 ea 75 82 3d c8 4c c6 3d cf cc d4 bc dd 3e 60 3a
       0.063701466 0.096826136 -0.025976567 0.0008554289
000390 ae 42 06 3c 9e 0c 97 bd ab b7 8f bd 9b b1 5f 3d
       0.008194609 -0.073754534 -0.07017454 0.054612737
0003a0 f8 12 50 3d 8a 1f e6 3d f7 5c 5a 3d dc a1 e9 3d
       0.05079934 0.11236484 0.053311314 0.11407825
0003b0 ca 11 b5 bd 71 a0 82 3d 9b 9a cd 3d c9 77 f8 3c
       -0.088412836 0.06378258 0.10039254 0.030330556
0003c0 1b 28 93 3d 4d 9b c5 bd 5b 62 a3 bd 06 0a b3 3d
       0.07185384 -0.09648762 -0.07977744 0.08742146
0003d0 7d 7f e9 3d b5 73 80 3c 7a 9f 2d bd e0 91 56 bd
       0.114012696 0.015680173 -0.042388417 -0.05238521
0003e0 24 1c 6c bd 74 ff a8 3c b0 cb 76 bd b6 b8 8c bd
       -0.057644024 0.020629622 -0.060252845 -0.06871168
0003f0 b5 8b 37 bd 1a 28 a6 bd 99 7b 5a bd df 0e 5c bb
       -0.04481097 -0.081131175 -0.05334053 -0.00335782

lstmcell.W_hC f4 [128, 128]
000000 50 a3 9f bc 4b b6 88 bc ef fe 9c bd af 0b ce bc
       -0.019487053 -0.016688487 -0.07665812 -0.025152056
000010 71 df 11 bd 3b 27 8d bd 7a 39 fe 3c 7f 19 fd 3b
       -0.03561348 -0.06892248 0.031033266 0.0077239866
000020 2c a9 4a bd 1d 28 bb 3b 2a 4e a6 bd cf 5a 3f bd
       -0.04947774 0.005711569 -0.08120377 -0.04671746
000030 ac 02 2e 3c 48 9c ad 3a 95 53 e0 bb a4 30 46 3d
       0.010620754 0.0013245428 -0.0068459013 0.04838623
000040 4c c2 f8 bb ba 53 20 3b 35 f0 ea 3c 43 45 42 bc
       -0.0075915214 0.0024463967 0.028678993 -0.011857334
000050 13 58 fd 3c 7d 45 a2 3c 3e 1a 22 bd d7 81 76 3d
       0.030925786 0.019808525 -0.039575808 0.06018242
000060 51 bf fe 3b 25 74 08 bd 79 b7 c3 3b 94 79 29 bd
       0.0077742715 -0.03331389 0.0059727994 -0.04137571
000070 af bd 81 bd b5 84 70 3d ef c4 14 bd ed 2d 10 bd
       -0.063350074 0.05872031 -0.036320623 -0.03520005
000080 f4 20 c6 3c 8a 0f 7d bd e6 22 8d bd 5c 34 b6 ba
       0.024185635 -0.061782397 -0.06891422 -0.0013901102
000090 41 e8 ec 3c ff e5 6a 3d 61 36 d5 3c df cd 3f bd
       0.028919341 0.057348248 0.026026906 -0.046827193
0000a0 17 1c 4c bd ae f1 e7 bc 1a 15 ec bc b9 8d 5f 3d
       -0.049831476 -0.028313484 -0.028818656 0.054578517
0000b0 b7 95 4b 3c b5 a3 10 bb dc a5 29 3d 6b 2d 00 bd
       0.0124258315 -0.0022070233 0.04141794 -0.031293314
0000c0 98 9a 2a bd 50 1c 2d bb b9 35 b5 bd bc 7e 29 bd
       -0.04165134 -0.002641458 -0.088481374 -0.04138063
0000d0 7a df e3 3a 8e 48 c0 3d e9 4b f4 3c e9 2e 80 3c
       0.0017385327 0.09388839 0.029821353 0.015647369
0000e0 88 ba aa 3c 34 87 19 3d 95 99 22 3d ee 33 4e bd
       0.020840898 0.037482455 0.03969725 -0.050342493
0000f0 20 77 c8 3d 14 73 10 3d 70 e3 61 3d 45 48 cf 3d
       0.09788346 0.035265997 0.055148542 0.10121206
000100 d2 99 ab bb 8d 20 67 bc 3d 96 8f bd 0b 58 9b 3d
       -0.0052368427 -0.014106882 -0.070110776 0.07585152
000110 c5 f0 1b 3d 11 4b 91 bd c0 ae ea 3c ea 82 25 3d
       0.038071413 -0.07094396 0.02864778 0.040408053
000120 a3 98 9a 3c 38 27 1f 3c f2 25 9e 3c d2 46 99 bc
       0.018871611 0.00971394 0.019305203 -0.018710528
000130 0e 44 d6 bc 29 e5 ac 3d dd 75 86 3d 50 13 4e bd
       -0.026155498 0.08442146 0.065654494 -0.050311387
000140 1e 8b 2d 3c 53 c6 a3 3d 0c 68 59 bb ba 61 8d bd
       0.01059225 0.07996812 -0.003317359 -0.069034055
000150 95 41 7a bc c9 54 7e 3d aa d4 82 3d 67 96 ae bd
       -0.015274425 0.062092576 0.06388219 -0.08524781
000160 44 6e 73 3d f1 bc 98 3d 85 4e 27 bd 80 4f 96 bd
       0.05943133 0.07457913 -0.040846366 -0.07339382
000170 7e ca c0 3d fc 2c 8f 3d 07 c6 54 3d 2e 1d 94 bb
       0.09413622 0.06991002 0.051946666 -0.00452008
000180 7b 12 d7 bc 90 b8 f1 3c a2 c1 0f 3d 41 6a 54 3c
       -0.02625393 0.029506952 0.035096772 0.012964786
000190 78 37 79 3d ab 13 b6 bd 88 83 64 bd 26 ca 6a 3d
       0.060843915 -0.0889047 -0.0557895 0.05732169
0001a0 0c e7 8e 3d 79 dc 43 bc fb 10 91 bd 6c 1b 4a 3d
       0.069776624 -0.01195442 -0.07083317 0.049342558
0001b0 53 b3 05 3d 4c c8 ac bd aa 58 9d 3d 6c 38 8a bd
       0.03264172 -0.08436641 0.07682927 -0.06749043
0001c0 7f 7f 87 bd 9b 59 9a 3d c4 cc b5 3c 74 30 31 bd
       -0.06616115 0.07536622 0.022192366 -0.0432591
0001d0 b6 9f 1a bc d0 10 68 bc c5 82 a7 bd 46 d9 5c 3d
       -0.009437492 -0.014164165 -0.08179239 0.053918146
0001e0 af 3e 68 3d 5c 88 61 3c 35 56 4b bd 5a 28 75 bd
       0.056700405 0.013765421 -0.04964276 -0.059852935
0001f0 d4 a6 da 3c 2a c0 12 bc 1e e7 67 bc 8d 0c 62 3d
       0.026690878 -0.008956948 -0.014154224 0.05518775
000200 c8 6c 5b bd 4f 9f 64 3c c1 2d 34 bc 25 c7 36 bb
       -0.05357054 0.013953998 -0.010997237 -0.0027889695
000210 c8 0a 8a 3d cf 27 87 3c 15 6c 4b bc 69 04 0c 3c
       0.067403376 0.016498474 -0.0124159055 0.008545973
000220 57 4c fe 3c b8 89 b5 3c ad 99 66 3d 69 21 80 3d
       0.031042261 0.022160396 0.0562989 0.062563725
000230 3d c3 7f 3d c7 b0 fc 3c e0 a8 67 bd 32 c5 12 3d
       0.062442053 0.030846013 -0.056557536 0.03583259
000240 db b3 b2 bd 80 35 0b bd 9b 62 d1 bd 8e c5 64 bd
       -0.08725711 -0.03398657 -0.102238856 -0.055852465
000250 d0 c0 91 bc 96 1c ac bd 24 c8 d3 bb aa 19 65 3d
       -0.017792135 -0.0840389 -0.0064630676 0.05593268
000260 1a 18 0f bd cc 57 5e bd 5d 17 8d 3d 00 b7 e1 3c
       -0.034935094 -0.05428295 0.06889222 0.027553082
000270 c1 b6 10 3c 29 df 92 3c 2c 98 4f bd 90 ef e1 3b
       0.008832634 0.017928677 -0.05068223 0.006895013
000280 4f dc 7b 3d 6a 3a cf bb 6e ca 1d bd 5b 5b 81 bd
       0.0614894 -0.006324102 -0.03852313 -0.06316253
000290 e8 6c a5 ba 72 90 95 3d c2 f4 a2 bb 49 7c c6 bb
       -0.0012620958 0.073029414 -0.004973025 -0.0060572964
0002a0 ee fe aa bc 88 86 e0 bc 11 5c 6c 3d ed 58 be bd
       -0.020873513 -0.0274079 0.05770499 -0.09294305
0002b0 5e 84 a6 bc 2a 67 b5 bd 4c 31 bb bd 97 0d 7e 3d
       -0.02032679 -0.088575676 -0.09140262 0.06202468
0002c0 3e 9d 31 3d 13 9b 1d bd 50 73 90 3d 08 66 8f bd
       0.04336285 -0.03847797 0.07053244 -0.07001883
0002d0 a0 9c cb bd 71 d9 ae 3d b8 49 5a 3d 11 ab a6 bd
       -0.09941983 0.085375674 0.05329296 -0.08138097
0002e0 93 a9 33 3b 5e e8 4b bd 9d 74 a6 ba da 4a 9f bd
       0.0027414307 -0.04978215 -0.0012699548 -0.07777949
0002f0 a6 f7 55 bd 5c 62 49 bd 7f 02 fd bc 2f 6c 60 bd
       -0.05223813 -0.04916607 -0.03088498 -0.054790672
000300 5c 49 c0 bd 19 16 6f 3d d4 97 2c 3d 6d 8a 29 3d
       -0.09388992 0.058370683 0.042136982 0.04139178
000310 f7 c7 8d bc 21 e6 44 3d 94 e0 b7 bd 53 2c 8c 3c
       -0.017307265 0.04807103 -0.08978382 0.01711098
000320 06 1e 89 3c dc d4 a4 bd 10 32 89 3d 18 ac 1f bd
       0.01673795 -0.08048412 0.06699002 -0.03898248
000330 56 5e 3a bc 5c 5e ca 3c be ca 81 bd 2b 83 1a bc
       -0.0113750305 0.024703197 -0.06337498 -0.009430687
000340 a4 2a ae bd 5e 11 28 3d b4 d3 b6 3d 72 3c 79 3d
       -0.08504227 0.041032188 0.08927098 0.06084866
000350 69 5b a6 bd 2f ad 7c bc b1 cf 3b 3d 3e 6b a1 3b
       -0.08122904 -0.01542215 0.045852367 0.0049261143
000360 f3 12 0b 3d d5 39 81 bd e9 79 d3 bd 4f fa 62 bc
       0.03395362 -0.06309859 -0.10325987 -0.0138536235
000370 2c 19 98 bd 7c 6e bc bd 3b 51 1d 3d ea b0 1d bc
       -0.07426676 -0.09200761 0.038407546 -0.009624699
000380 90 05 72 bd 86 35 44 bd fd 1c 3b 3d 4d a4 d7 3c
       -0.059087336 -0.047902606 0.045681942 0.026323462
000390 5d 52 9b 3d c3 32 25 3d b2 90 b9 bc ba 06 58 bd
       0.07584069 0.040331613 -0.022652004 -0.05274079
0003a0 77 29 95 3c 51 fe ff ba b9 2a 2f bd 28 38 d8 bc
       0.018208249 -0.0019530748 -0.042765353 -0.026393965
0003b0 ce d8 1c bd 56 f8 58 bc c8 ed be 3c 7b 18 d1 3d
       -0.0382927 -0.013242802 0.023306742 0.102097474
0003c0 7c ee e1 bc 78 e5 c2 3d 02 1d b9 bd dd 84 51 bc
       -0.027579539 0.09516424 -0.09038736 -0.012788025
0003d0 a3 aa ae bc 87 50 f2 bc 07 8f 2b bd 00 8c 9b 3d
       -0.0213216 -0.029579414 -0.04188445 0.07595062
0003e0 3f 5e 32 3d 1c 58 07 3d 96 18 a6 b8 5b 99 a0 bd
       0.04354691 0.033043012 -7.920076e-05 -0.0784175
0003f0 75 25 93 bd 63 1a 8a 3c 5b 3a 5b 3d 3d 35 42 bd
       -0.07184879 0.016858285 0.05352245 -0.047414053
