models/2.4-2-lstm-cell-network-byhand-model.pth (torch, 275036 bytes, 5 tensors)

lstmcell.W_x f4 [3, 512]
0	0xbc858d39	-0.016302692
1	0xbd08a274	-0.033358052
2	0x3f2d7509	0.67756706
3	0xbdae8170	-0.08520782
4	0xbcd88534	-0.026430704
5	0xbdccf96a	-0.100085095
6	0x3eb0adc1	0.34507564
7	0x3bfd081d	0.0077219144
8	0x3d84d0fe	0.064851746
9	0x3f10b6b3	0.56528777
10	0xbc1b465f	-0.009477227
11	0xbeabad59	-0.3353069
12	0x3dda2984	0.1065245
13	0xbf893c02	-1.0721438
14	0x3d44b5f4	0.048025087
15	0xbf4a2098	-0.78955984
16	0xbd66e34d	-0.056369115
17	0x3d9169be	0.07100247
18	0x3d15a215	0.036531527
19	0x3e846277	0.25856373
20	0xbe078190	-0.13233018
21	0x3e1317b3	0.1436451
22	0xbe68406b	-0.22680824
23	0xbe866c95	-0.26254717
24	0x3e9509b0	0.29108953
25	0xbeb0adee	-0.34507698
26	0xbe77d051	-0.2420056
27	0xbd08f175	-0.033433396
28	0x3db54f18	0.088529766
29	0x3d421f42	0.04739309
30	0xbe2b274e	-0.16714212
31	0xbdcdbd9b	-0.1004593
32	0xbe92f52e	-0.28702682
33	0x3e3a1d3b	0.18175213
34	0x3e979c2f	0.29611346
35	0x3d90877e	0.07057093
36	0x3d1a4b65	0.037669558
37	0x3c0fcb0c	0.0087764375
38	0xbe1b9ae5	-0.15195806
39	0x3daa796a	0.08323939
40	0x3e902546	0.28153437
41	0xbea559b2	-0.32294995
42	0xc03ee350	-2.982624
43	0xbec04b67	-0.37557527
44	0xbe27fa0b	-0.16403978
45	0xbead14b6	-0.33804864
46	0x3eadf7fd	0.33978263
47	0xbbfe6440	-0.0077634156
48	0x3bb80922	0.005616323
49	0x3e84722f	0.25868365
50	0x3ecf07e2	0.40435702
51	0xbec85b28	-0.39132047
52	0xbc344bc8	-0.011004396
53	0x3e53a4d7	0.2066835
54	0xbd4a91d9	-0.049455497
55	0xbcd3b59f	-0.02584344
56	0xbcfa2c6f	-0.030538766
57	0xbea8ee8b	-0.32994494
58	0x3e038b75	0.12846167
59	0x3e17cd71	0.14824463
60	0xbdb04c29	-0.086082764
61	0xbe067ab5	-0.13132747
62	0x3e704f87	0.23467837
63	0x3f081aff	0.5316619
64	0x3e15e41f	0.14637803
65	0x3f6da53b	0.92830247
66	0xbeb35106	-0.35022753
67	0xbe42afc9	-0.19012369
68	0xbed22b64	-0.4104873
69	0x3eb6deac	0.3571676
70	0x3daaba25	0.083362855
71	0x3fbafcae	1.4608362
72	0x3e9a9583	0.30192193
73	0x3e0abbf0	0.13548255
74	0x3dbba05a	0.09161444
75	0xbee843b9	-0.45364168
76	0xbccc95c6	-0.024973761
77	0xbe8486a9	-0.25883988
78	0xbddc4fe6	-0.10757427
79	0x3e08db24	0.13364846
80	0x3e03fe8c	0.1289007
81	0x3e6252a3	0.22101836
82	0xbd05fae1	-0.03270996
83	0xbc177811	-0.009244935
84	0xbf17e956	-0.5934042
85	0x3f20d022	0.62817585
86	0xbe6c5c31	-0.23082043
87	0xbe2f14a4	-0.17097718
88	0xb8d9fdcb	-0.00010394639
89	0x3e56d420	0.20979357
90	0x3ec1f1d5	0.37879816
91	0xbc32d99b	-0.010916139
92	0x3d7cf13d	0.0617535
93	0x3c3debb1	0.011591838
94	0x3f042eab	0.5163371
95	0xbdcd0dea	-0.100124195
96	0xbe6a7259	-0.22895183
97	0x3e82400e	0.25439495
98	0xbda0caef	-0.078512065
99	0x3d883b9b	0.06651994
100	0x3e171c7f	0.14756964
101	0x3b2d1ad1	0.002641369
102	0x3dbfaa21	0.093586214
103	0x3d1fb31f	0.038989183
104	0x3e75c38c	0.24000376
105	0x3e64bc42	0.2233744
106	0x3ef8d0ea	0.4859689
107	0x3b392b61	0.0028254616
108	0xbec79b38	-0.3898561
109	0x3e130ac5	0.14359577
110	0xbe7b98c4	-0.24569994
111	0x3e1171ad	0.1420352
112	0xbe350846	-0.17678937
113	0xbe137b28	-0.14402449
114	0xbcbb9e07	-0.022902502
115	0xbd2c97dd	-0.042137016
116	0x3d1a4b92	0.037669726
117	0xbe51a224	-0.20472008
118	0x3fa6f1ea	1.3042576
119	0x3e2880d4	0.16455394
120	0xbe685a7c	-0.22690767
121	0x3c854750	0.016269356
122	0xbdf6cf3f	-0.12051248
123	0xbc6e0ab8	-0.014528923
124	0xbd47f013	-0.048812937
125	0x3e86610d	0.2624592
126	0xbe697b16	-0.2280086
127	0xbe4b95d6	-0.19881377
128	0xbd495380	-0.049151897
129	0xbcafa048	-0.021438733
130	0x3f3a0164	0.7265837
131	0x3d092d83	0.03349067
132	0xbda41a2c	-0.080128044
133	0xbdb8c939	-0.09022755
134	0x3e819f32	0.2531677
135	0x3d8c0c51	0.06838287
136	0x3db33f79	0.08752341
137	0x3f07e85e	0.5308894
138	0x3c86da24	0.01646144
139	0xbea3b556	-0.31974286
140	0x3db6fa77	0.08934491
141	0xbf799f12	-0.9750835
142	0xbc54071e	-0.01294115
143	0xbf456b72	-0.77117074
144	0xbe2fd52a	-0.1717116
145	0x3d85323f	0.06503724
146	0x3bb7b7ee	0.005606643
147	0x3e83eb60	0.25765514
148	0xbd6c3012	-0.05766303
149	0x3e1c43c5	0.15260227
150	0xbe632682	-0.22182658
151	0xbe2f3b11	-0.17112376
152	0x3e8e21cc	0.2776016
153	0xbe7a26c0	-0.24428844
154	0xbdae0fb3	-0.08499088
155	0x3cadf5d9	0.021235393
156	0x3de02138	0.10943836
157	0x3c9da65b	0.019244364
158	0xbe236934	-0.159581
159	0x3d8eebde	0.06978582
160	0xbe66dfeb	-0.22546355
161	0x3e3d50e1	0.18487884
162	0x3e8fd8eb	0.28095183
163	0x3cef070c	0.029178165
164	0xbd2384e0	-0.03992164
165	0x3da84fb7	0.082183294
166	0xbdffb61f	-0.12485909
167	0x3cbfde23	0.023421353
168	0x3e33fb04	0.17576224
169	0xbee5e46e	-0.4490084
170	0xbfbfa5f0	-1.4972515
171	0xbf052a82	-0.52017987
172	0xbe3e8cbc	-0.18608373
173	0xbea7e8f5	-0.3279492
174	0x3e9d9276	0.30775803
175	0x3c94dd0c	0.01817181
176	0xbd9c8055	-0.07641665
177	0x3dd3eb04	0.1034756
178	0x3ed890e3	0.4229804
179	0xbec39528	-0.38199735
180	0xbdd09267	-0.10184174
181	0x3dc9b9a1	0.09849859
182	0xbdf2d0a8	-0.11856204
183	0xbde2e822	-0.11079432
184	0xbe0a64dc	-0.13515037
185	0xbe82ffe7	-0.25585863
186	0x3e086a2d	0.13321753
187	0x3e144949	0.14481081
188	0xbd623c7f	-0.055233475
189	0xbd0896ce	-0.033346944
190	0x3e8b824b	0.27247843
191	0x3f1a6989	0.60317284
192	0x3d995027	0.07485991
193	0x3f52e06b	0.82373685
194	0xbf03b624	-0.514498
195	0xbe204113	-0.15649824
196	0xbef14575	-0.47123304
197	0x3ee0c487	0.43899938
198	0xbd528b95	-0.051402647
199	0x3fc5693e	1.5422742
200	0x3e542ee2	0.2072101
201	0x3c408ffa	0.011753077
202	0x3e051e06	0.12999734
203	0xbebb0e2d	-0.36534253
204	0xbdab2ed4	-0.08358541
205	0xbe133e17	-0.14379154
206	0xbdc48223	-0.09595134
207	0x3d94b917	0.072618656
208	0x3e39519e	0.1809754
209	0x3da14df5	0.07876197
210	0xbc9a23b8	-0.01881586
211	0xbd857470	-0.06516349
212	0xbf24b7a5	-0.6434272
213	0x3f10b21f	0.5652179
214	0xbddc847d	-0.10767458
215	0xbdf10e58	-0.11770314
216	0x3c27157c	0.010197993
217	0x3e5410cb	0.20709531
218	0x3ea36655	0.3191401
219	0x3d43dace	0.04781609
220	0x3d1039f2	0.03521151
221	0x3c94311d	0.018089825
222	0x3f084eda	0.5324532
223	0xbdb1e6a8	-0.08686572
224	0xbd82eb55	-0.06392542
225	0x3e84da26	0.25947684
226	0xbcb243c3	-0.021760827
227	0x3cbb29d2	0.02284709
228	0x3dee7526	0.11643438
229	0x3b84d84b	0.0040541044
230	0xbd2d842a	-0.04236237
231	0x3dc10c03	0.09426119
232	0x3e34c158	0.1765188
233	0x3ea7a6a5	0.32744327
234	0x3f15ec9d	0.5856417
235	0x3dec7442	0.11545612
236	0xbec707cd	-0.3887314
237	0x3d44a255	0.048006374
238	0xbe0e02d0	-0.1386826
239	0x3e6ddeb6	0.23229489
240	0xbdb5757f	-0.08860301
241	0xbe529b17	-0.20566975
242	0x3b07fa9e	0.0020748745
243	0xbd6b43b4	-0.057437614
244	0xbc7d33e2	-0.015454264
245	0xbddb6245	-0.10712103
246	0x3f93f999	1.1560546
247	0x3e4dab41	0.2008486
248	0xbe8415a6	-0.25797766
249	0x3e0f1947	0.13974486
250	0x3c7152c2	0.014729204
251	0x3d98895f	0.074480765
252	0xbc2197f1	-0.009862886
253	0x3e932837	0.2874162
254	0xbe7f4c20	-0.24931383
255	0xbe200013	-0.15625028

lstmcell.W_h f4 [128, 512]
0	0xbd8a3cd2	-0.06749882
1	0xbd7f1e1d	-0.062284578
2	0xbd811d1c	-0.0630438
3	0xbcdfb21d	-0.02730661
4	0xbd907211	-0.070530064
5	0xbd1b5d5d	-0.037930835
6	0xbcf6d10d	-0.03012898
7	0x3c838309	0.016053693
8	0xbd4d4d0f	-0.050122317
9	0xb9128390	-0.00013972656
10	0xbd91e5bc	-0.071238965
11	0xbda2a5a7	-0.07941752
12	0xbd483763	-0.048880946
13	0xbd2c9e78	-0.042143315
14	0xbd0b0fd1	-0.03395063
15	0x3d73a427	0.05948272
16	0xbc182870	-0.009286985
17	0x3d781296	0.0605646
18	0xbdb00b80	-0.085959435
19	0x3ad07e82	0.0015906843
20	0xbd8e9243	-0.06961491
21	0x3d24f7bd	0.040275324
22	0xbc49e1f3	-0.012321937
23	0x3daa0f53	0.08303704
24	0x3d747234	0.059679225
25	0xbda95184	-0.08267501
26	0x3d88d96d	0.06682096
27	0xbc135c66	-0.0089941975
28	0x3c966e34	0.018363096
29	0xbd145376	-0.036212407
30	0xbbfd3c49	-0.007728134
31	0x3badf07c	0.005308209
32	0x3bd7b3f3	0.006582731
33	0xbd519529	-0.05116764
34	0x3c386ec4	0.011256877
35	0x3d17ab93	0.03702886
36	0xbd1d463e	-0.038397066
37	0x3d137c52	0.036007233
38	0xbd98c898	-0.07460135
39	0x3d777076	0.060409985
40	0x3d65bc23	0.056087624
41	0x3d453c34	0.048153117
42	0xbddf6443	-0.10907795
43	0xbd772649	-0.060339246
44	0xbc0c358a	-0.008557687
45	0x3d724186	0.05914452
46	0xbd7540b3	-0.059876155
47	0x3d29673c	0.041358218
48	0x3d81ddfc	0.06341168
49	0xbdbe295d	-0.09285233
50	0xbd58cd7b	-0.052930336
51	0x3d651922	0.05593217
52	0x3d8965a4	0.067088395
53	0x3d3887d8	0.045051426
54	0x3c053c9c	0.008132126
55	0xbcda5593	-0.026652133
56	0x3d71f611	0.059072558
57	0x3cf5106c	0.029915057
58	0xbd9eb66f	-0.0774964
59	0x3d37ce5a	0.044874527
60	0xbc9b9b4c	-0.01899495
61	0x3d71b44f	0.059009846
62	0x3a9f1822	0.001213793
63	0xbce384c5	-0.02777327
64	0xbd69928f	-0.057024535
65	0x3cb1c6fb	0.021701327
66	0x3cd906b0	0.026492447
67	0xbd4754ca	-0.048664846
68	0xbcc9863f	-0.024600146
69	0xbbdcf1cb	-0.006742691
70	0x3d2fead0	0.042948544
71	0xbdd56a9c	-0.10420725
72	0xbdcdad06	-0.10042767
73	0x3a3197ca	0.00067746325
74	0xba388b90	-0.00070398394
75	0xbd222f76	-0.039596044
76	0x3d1a1484	0.03761722
77	0xbda1efed	-0.0790709
78	0xbd8a5122	-0.06753756
79	0x3d3f654a	0.046727456
80	0x3d2434bc	0.040089354
81	0x3c34f747	0.011045284
82	0xbcfcbc06	-0.030851375
83	0x3cf5db12	0.030011687
84	0x3c709920	0.014684945
85	0xbde2f499	-0.110818096
86	0xbd02b900	-0.03191471
87	0xbda1e395	-0.07904736
88	0x3ca29d75	0.019850472
89	0xbdb6453f	-0.088999264
90	0x3c0f7daa	0.008757988
91	0xbd0571e8	-0.032579333
92	0x3cdc249d	0.026872927
93	0xbcb03a0c	-0.021512054
94	0xbc5013cc	-0.012700032
95	0xbd9a6d55	-0.07540385
96	0x3d9f76c1	0.077863224
97	0xbda8ef9f	-0.08248829
98	0x3d897b9e	0.06713031
99	0x3c807bd0	0.015684038
100	0xbd390544	-0.045171037
101	0x3d720a78	0.059092015
102	0xbd9702bd	-0.07373569
103	0xbce99ca2	-0.028517071
104	0x3d907199	0.07052917
105	0xbd97694d	-0.073931314
106	0xbde2a7b5	-0.11067144
107	0x39c7f091	0.00038135474
108	0x3d9531eb	0.07284912
109	0x3c0a5d11	0.00844504
110	0x3d0c81a0	0.034303308
111	0xbd0b0783	-0.03394271
112	0x3d3b695c	0.045754775
113	0xbd42a848	-0.047523767
114	0x3d58edf7	0.052961316
115	0x3b0c908a	0.0021448457
116	0xbd3443ac	-0.04400985
117	0x3d616841	0.055031065
118	0xbe196cd5	-0.14982922
119	0x3c8da354	0.017289795
120	0xbda0ff93	-0.07861247
121	0x3c6ebfb3	0.014572072
122	0xba9fe095	-0.0012197668
123	0x3d2d908a	0.04237417
124	0xbd43fc80	-0.047848225
125	0xbcfbc8fb	-0.030735483
126	0xbdb069e4	-0.08613947
127	0x3c65bca7	0.014022029
128	0x3d1d0bbb	0.038341265
129	0x3c9c2c79	0.019064175
130	0x3d774f7c	0.060378537
131	0xba2ec060	-0.00066662394
132	0x3cd4789e	0.025936421
133	0x3baa1f4d	0.0051917196
134	0xbd4de3cf	-0.050266083
135	0xbd904c89	-0.07045848
136	0xbd88ac6e	-0.06673513
137	0xbc2d364d	-0.010572028
138	0x3dadb496	0.0848171
139	0xbd1e578a	-0.038657703
140	0xbdbc416e	-0.09192167
141	0x3deed0c9	0.11660916
142	0xbd917459	-0.0710227
143	0x3dbffb18	0.09374064
144	0x3ca48e36	0.020087343
145	0x3cb31a0e	0.02186301
146	0xbd1992e8	-0.037493616
147	0x3d46c060	0.048523307
148	0xbd4d60d4	-0.05014117
149	0x3cd5626d	0.02604791
150	0x3daeb01f	0.08529686
151	0x3b733774	0.003711191
152	0xbda801bc	-0.08203456
153	0xbcc42251	-0.023942145
154	0xbcd2aebb	-0.025718084
155	0xbd85fe6d	-0.065426685
156	0x3d270b8a	0.04078249
157	0xbd32a3ac	-0.04361312
158	0xbd57a93d	-0.052651633
159	0xbc2ce5d4	-0.010552842
160	0x3d81ec39	0.06343884
161	0x3da7c54f	0.081919305
162	0x3dc71dc8	0.09722477
163	0xbc9f29f8	-0.019429192
164	0xbd0ea087	-0.03482106
165	0xbd7fd88f	-0.062462386
166	0xbd971a62	-0.07378079
167	0x3d9afbab	0.07567533
168	0xbc6f7e93	-0.01461758
169	0x3d09ac5f	0.03361165
170	0x3e04692b	0.12930743
171	0xbbef9531	-0.007311486
172	0x3d6d7d01	0.05798054
173	0x3d99fd90	0.07519066
174	0xbd08e3d2	-0.03342039
175	0x3d088967	0.033334162
176	0x3da23f1b	0.07922193
177	0xbc247873	-0.010038483
178	0xbd8e7658	-0.06956166
179	0x3cf0f14c	0.029411934
180	0x3bbb6278	0.0057185255
181	0x3bbe6e44	0.0058114845
182	0xbda9dbe3	-0.08293893
183	0xbd71c7bd	-0.059028376
184	0x3d0d1cb0	0.034451187
185	0x3cc75773	0.024333691
186	0xbdb4605a	-0.0880744
187	0x3cdc3d8b	0.026884815
188	0xbd93c0af	-0.07214486
189	0xbd3bab42	-0.04581762
190	0x3d03885a	0.032112457
191	0xbd3e500d	-0.04646306
192	0x3d9aee8c	0.075650305
193	0x3c9b4076	0.018951636
194	0x3daae70d	0.08344851
195	0x3c4b9dc3	0.01242775
196	0x3da6924a	0.08133371
197	0x3d0325dd	0.03201853
198	0x3d119628	0.03554359
199	0x3c86a04e	0.016433861
200	0x3cf87bd3	0.030332481
201	0xbb950b12	-0.004548439
202	0x3d9275ea	0.071513966
203	0xbd8c93ac	-0.06864104
204	0x3d8d0a60	0.068867445
205	0x3d275e81	0.04086161
206	0xbd998b2f	-0.0749725
207	0xbd0ef53f	-0.034901854
208	0xbce2831f	-0.027650414
209	0xbc9d984b	-0.019237658
210	0xbcca8122	-0.024719778
211	0xbcff6b6d	-0.031179154
212	0xbd0d0bc5	-0.034435052
213	0x3d267660	0.040640235
214	0x3a2a26fe	0.00064907956
215	0xbc3e6e07	-0.011622912
216	0x3cd2998a	0.025707979
217	0xbc71be22	-0.014754804
218	0x3b701af5	0.0036637161
219	0x3d9c2b5c	0.07625458
220	0x3cd40a5a	0.025883842
221	0x3c339e82	0.010963084
222	0x3cea676a	0.028613765
223	0x3d851d6a	0.06499751
224	0x3b56c478	0.0032770913
225	0xbd8eae51	-0.06966842
226	0x3d177e65	0.036985774
227	0xbd0878e3	-0.03331841
228	0xbd765304	-0.060137764
229	0x3d7cf22b	0.061754387
230	0xbc449366	-0.011998033
231	0xbd9d0d2f	-0.0766853
232	0xbd02ccc9	-0.03193358
233	0x3c9c74f8	0.019098744
234	0x3d35197a	0.04421375
235	0x3da88e42	0.082302585
236	0xbd02108f	-0.031754073
237	0x3cf0fdd0	0.029417902
238	0xbbca1ff4	-0.00616836
239	0xbd4be807	-0.049781825
240	0xbd9cad15	-0.076502
241	0x3d66e030	0.056366146
242	0xbd204698	-0.039129823
243	0xbdaa354d	-0.083109476
244	0xb905e9b7	-0.00012770934
245	0x3ad047b3	0.0015890509
246	0x3cb105cb	0.021609208
247	0x3dad97e1	0.08476234
248	0xbd604526	-0.054753445
249	0x3bc41a81	0.005984605
250	0x3d2361a3	0.039888036
251	0x3cc42ae0	0.023946226
252	0xbc9bb592	-0.019007478
253	0x3da0d27c	0.07852647
254	0xbda53343	-0.08066418
255	0x3d2727f2	0.04080958

lstmcell.b f4 [512]
0	0xbd55e1f0	-0.052217424
1	0xbd4a813d	-0.049439657
2	0xbe05e5fd	-0.13076015
3	0x3cc2fd47	0.023802413
4	0xbca0cc7b	-0.019628754
5	0xbd45bfda	-0.048278667
6	0xbd6a4911	-0.057198588
7	0xbde5f655	-0.11228625
8	0xbe155ec4	-0.14586931
9	0xbe844dda	-0.25840646
10	0xbdc4cec0	-0.09609747
11	0xbceadc88	-0.02866961
12	0xbda48599	-0.08033294
13	0xbdc0c5ca	-0.09412725
14	0x3bf65a6c	0.0075181033
15	0xbe023c13	-0.12718229
16	0xbdce3c22	-0.10070063
17	0xbdfb2dc5	-0.12264589
18	0xbe159bcd	-0.14610215
19	0xbe246c8b	-0.16057031
20	0xbdd26263	-0.10272672
21	0xbe23c57c	-0.15993303
22	0xbd62299f	-0.055215474
23	0x3bd48193	0.006485173
24	0xbcb76371	-0.022386285
25	0xbdcc89ba	-0.09987207
26	0xbd95023b	-0.07275816
27	0xbe1013dc	-0.14070076
28	0xbdcce122	-0.10003878
29	0xbd833b41	-0.06407786
30	0xbd1f9c48	-0.0389674
31	0xbdc592e4	-0.09647158
32	0x3bd48595	0.006485651
33	0xbd343c2b	-0.044002693
34	0xbc059dee	-0.008155329
35	0xbc1a2220	-0.00940755
36	0xbd7d8de4	-0.061902896
37	0xbbb2cdf1	-0.005456679
38	0xbd9256ee	-0.07145487
39	0x3b20c066	0.002452874
40	0xbe0fba0e	-0.14035818
41	0xbd36e268	-0.04464951
42	0xbfbb176a	-1.461652
43	0x3b1f574a	0.0024313503
44	0x3d9bc1e9	0.07605345
45	0x3ba3d006	0.0049991636
46	0xbdfb08e0	-0.12257552
47	0xbd809f08	-0.06280333
48	0xbbbd3045	-0.0057735764
49	0xbe241074	-0.16021901
50	0xbbfeeb50	-0.0077795163
51	0xbe4f0d54	-0.20219928
52	0xbe11e056	-0.14245734
53	0x3c913f6f	0.017730443
54	0xbd2f2acb	-0.04276542
55	0xbe28834e	-0.16456339
56	0xbd9071f4	-0.07052985
57	0xbd276edd	-0.04087721
58	0xbd098014	-0.03356941
59	0xbc13dadd	-0.009024349
60	0xbcbeafe2	-0.023277227
61	0xbceb7556	-0.028742474
62	0xbd42cc16	-0.047557913
63	0xbe4b5095	-0.19854958
64	0xbb857748	-0.0040730573
65	0xbed874f4	-0.42276728
66	0xbd787164	-0.060655013
67	0xbdd439c0	-0.103625774
68	0xbe1e2348	-0.15443146
69	0xbe092852	-0.13394287
70	0x3d10ef55	0.035384495
71	0xbe9425e6	-0.28935164
72	0xbd7cfcd4	-0.061764553
73	0xbdbefdb9	-0.093257375
74	0xbcdfeb70	-0.027333945
75	0xbd576156	-0.05258306
76	0xbc9b472e	-0.01895484
77	0xbdfd69c7	-0.12373691
78	0x3cdf8295	0.027283946
79	0xbc14e06c	-0.0090867095
80	0xbd99c453	-0.07508149
81	0xbdf16154	-0.11786142
82	0x39cfc079	0.0003962552
83	0x3d653010	0.05595404
84	0xbe8215f8	-0.25407386
85	0xbe450c93	-0.19243078
86	0xbe12ff5f	-0.14355229
87	0xbd135521	-0.035969857
88	0xbe081489	-0.13289084
89	0x3b02f3b7	0.001998169
90	0xbe3aedda	-0.18254796
91	0xbc8e9a98	-0.0174077
92	0x3c9fa2f5	0.019486884
93	0xbdda3216	-0.106540844
94	0xbe0d9e85	-0.13830002
95	0xbc2778f7	-0.010221711
96	0xbdbe8e15	-0.09304444
97	0xbd8b6c7f	-0.06807803
98	0xbdfee1b1	-0.12445391
99	0xbdd456cf	-0.1036812
100	0xbcfc944c	-0.030832432
101	0x3b81db37	0.0039629
102	0xbdddb450	-0.108254075
103	0x3b8baaa8	0.004262287
104	0xbe11840f	-0.14210533
105	0xbd6f66db	-0.0584477
106	0xbe5fb0f6	-0.21844849
107	0xbd745f71	-0.059661333
108	0xbd173795	-0.03691824
109	0xbc69f66b	-0.014279942
110	0xbdf62afa	-0.12019916
111	0x3c021940	0.00794059
112	0xbd7a568d	-0.061117698
113	0xbdf51d90	-0.11968529
114	0xbe22ebb3	-0.15910225
115	0x3ca45106	0.020058166
116	0xbcd87104	-0.026421078
117	0xbd8cbe27	-0.06872206
118	0xbf1e7674	-0.61899495
119	0xbd2620d8	-0.040558666
120	0x3c7418e1	0.01489851
121	0xbcb05011	-0.021522554
122	0xbc9e9671	-0.019358845
123	0xbd357f26	-0.04431071
124	0xbe43a282	-0.1910496
125	0xbc7f57d2	-0.015584903
126	0xbda3dd8b	-0.0800124
127	0xbcde7908	-0.027157322
128	0xbd5ce3ff	-0.05392837
129	0x3cc4281a	0.023944903
130	0x3ea68937	0.32526562
131	0xbddd5a69	-0.1080826
132	0x3d028259	0.03186259
133	0xbda07933	-0.07835617
134	0xbd83cc01	-0.06435395
135	0xbc810e11	-0.015753778
136	0xbd832f47	-0.06405502
137	0x3d2a1d1c	0.041531667
138	0xbca42d2a	-0.020041067
139	0x3e006069	0.12536778
140	0xbdbf16e3	-0.09330537
141	0x3e2cff63	0.16894297
142	0xbce57437	-0.028009517
143	0x3def48a1	0.11683775
144	0xbdab29e1	-0.08357597
145	0xbd930fe0	-0.07180762
146	0xbdf1f1c8	-0.11813694
147	0x3be8371f	0.007086649
148	0x3bd4e467	0.0064969542
149	0xbd310121	-0.043213967
150	0xbd1a2f1c	-0.037642583
151	0x3d223284	0.039598957
152	0x3d038a91	0.03211457
153	0x3d1ab2b2	0.037768073
154	0xbd15e889	-0.036598716
155	0xbda436c1	-0.08018256
156	0xbac827ba	-0.0015270629
157	0xbc990a5d	-0.0186817
158	0xbde8472e	-0.113417014
159	0xbca769bf	-0.020436166
160	0xbcfa1b8e	-0.030530717
161	0xbdc21667	-0.09476929
162	0x3dca69db	0.098834716
163	0xbc526ebd	-0.012843785
164	0xbcce7f01	-0.025207045
165	0xbd21ec6a	-0.039532103
166	0xbdf160b0	-0.1178602
167	0xbddf2ac4	-0.10896829
168	0xbdce8bab	-0.10085233
169	0x3d0b19bc	0.03396009
170	0x3f84fe6d	1.0390145
171	0xbc2e096e	-0.010622365
172	0x3dc777dd	0.09739659
173	0x3dd728d9	0.10505838
174	0x3db649e9	0.08900816
175	0xbd1af640	-0.0378325
176	0xbd84caad	-0.0648397
177	0xbd35925d	-0.044329036
178	0x3d7c3e19	0.06158266
179	0x3d629c6a	0.05532495
180	0xbd70f5cd	-0.058828164
181	0xbdcfaf13	-0.10140815
182	0xbde0df9c	-0.1098015
183	0xbba7b1b7	-0.005117621
184	0xbc9fc017	-0.019500775
185	0xbda1defe	-0.079038605
186	0xbcb45065	-0.022010991
187	0xbca3459f	-0.019930659
188	0xbdb08fb1	-0.08621157
189	0xbcc558cb	-0.024090191
190	0xbc071846	-0.008245533
191	0x3e2146e5	0.157497
192	0x3dd278cc	0.102769464
193	0x3e09e2f2	0.13465479
194	0x3c1026d9	0.0087983245
195	0xbcbd825a	-0.023133446
196	0x3c0d3785	0.008619194
197	0x3cd0f28f	0.025506286
198	0x3e1c9c0a	0.15293899
199	0x3eb04f7d	0.34435645
200	0x3c91f2f5	0.017816046
201	0xbdfa8a34	-0.122333914
202	0x3bdc3675	0.006720359
203	0xbc6565de	-0.014001338
204	0xbd32f86d	-0.04369395
205	0xbd4aab9b	-0.049480062
206	0xbdbd41fb	-0.092411004
207	0x3c16f64a	0.009213993
208	0xbc0dee21	-0.008662731
209	0x3d522fd4	0.051315144
210	0xbd869aac	-0.0657247
211	0x3d724f1e	0.059157483
212	0x3e5c6007	0.21521007
213	0x3d222a17	0.03959092
214	0x3c5657e0	0.0130824745
215	0xbdf7c884	-0.12098792
216	0xbe06b964	-0.13156658
217	0xbc8bf11c	-0.017082743
218	0x3d49306f	0.049118455
219	0xbe14a5b9	-0.14516343
220	0x3d3a437a	0.045474507
221	0x3bc70a26	0.006074208
222	0x3d0bc5ac	0.03412406
223	0xbe071c03	-0.1319428
224	0x3d9db4aa	0.077004746
225	0xbd799c6f	-0.060940202
226	0x3b91e9ad	0.004452905
227	0xbda6f507	-0.08152204
228	0xbcfe4d81	-0.031042816
229	0xbd500bc9	-0.05079249
230	0xbdb202db	-0.08691951
231	0xbd7a18d5	-0.061058838
232	0xbd7d78c3	-0.061882745
233	0x3d6e339a	0.05815468
234	0x3dca62c4	0.09882119
235	0x3ce5ee5b	0.028067758
236	0xbdc40a09	-0.095722266
237	0xbc2242fb	-0.009903665
238	0xbdbdb82f	-0.09263646
239	0xbcb45e72	-0.022017691
240	0xbd3e903c	-0.04652427
241	0xbd1a4539	-0.037663672
242	0xbb8ddf56	-0.0043296022
243	0xbd9703db	-0.07373782
244	0xbc831024	-0.015998907
245	0x3d455939	0.048180792
246	0x3d05b463	0.032642733
247	0x3cdde508	0.02708675
248	0x3daed255	0.085362114
249	0xbd81d889	-0.06340129
250	0x3c8b31dc	0.016991548
251	0x3d19c141	0.037537817
252	0x3b6d7ef1	0.0036238993
253	0xbd111d70	-0.035428464
254	0xbdb16892	-0.08662523
255	0x3d881c38	0.06646007

fc.weight f4 [5, 128]
0	0x3e34e3fc	0.17665094
1	0x3e30a252	0.1724942
2	0x3f143686	0.57895696
3	0x3e90ae84	0.28258145
4	0x3d1b870f	0.0379706
5	0x3e17f815	0.1484073
6	0xbe9906c0	-0.29887962
7	0x3e30ef20	0.17278719
8	0x3e766ae9	0.2406422
9	0x3d9fe45c	0.07807228
10	0xbd926011	-0.071472295
11	0x3d8f15eb	0.069866024
12	0x3dfa402f	0.12219273
13	0xbf874fd4	-1.0571237
14	0x3dee899b	0.1164734
15	0xbdc2a638	-0.0950436
16	0xbe6a1a4c	-0.22861594
17	0xbea0ddde	-0.3141927
18	0xbd8ca7db	-0.068679534
19	0xbd8990c5	-0.06717066
20	0x3e6ecb72	0.23319796
21	0x3e5be2b1	0.21473195
22	0xbe218ff7	-0.15777574
23	0x3c0ed026	0.008716619
24	0xbdc10126	-0.09424047
25	0x3e78868c	0.24270076
26	0x3e46d624	0.19417626
27	0x3ce1f643	0.027583247
28	0x3eb4b80e	0.35296673
29	0x3dbe0f91	0.09280313
30	0x3e5813f8	0.21101367
31	0x3e155c48	0.14585984
32	0x3ef73b28	0.4828732
33	0xbd809964	-0.06279257
34	0x3ed01a1f	0.4064493
35	0xbe3a7cbc	-0.18211645
36	0x3e4d3285	0.20038803
37	0x3c9f9acd	0.019482994
38	0xbd3077e4	-0.043083087
39	0x3e28054e	0.16408274
40	0x3e530852	0.20608643
41	0xbddffefe	-0.10937308
42	0x3fd7ea3b	1.6868356
43	0x3e01c8b5	0.1267422
44	0x3ee9a341	0.45632365
45	0x3e53dac5	0.20688923
46	0xbc90c032	-0.01766977
47	0x3eaf824e	0.34279102
48	0xbe86995a	-0.26288873
49	0x3b3661d6	0.002782931
50	0x3e5cc869	0.21560825
51	0xbea40ddf	-0.32041833
52	0xbda68698	-0.081311405
53	0x3d9d95fe	0.07694624
54	0x3ccdd8d7	0.025127811
55	0xbc70ef34	-0.014705468
56	0x3e762423	0.24037223
57	0x3d580c7c	0.05274628
58	0x3ea03ff1	0.31298783
59	0x3e2987a7	0.16555654
60	0x3e588981	0.21146204
61	0x3d6e02c6	0.058108114
62	0x3eae6561	0.3406172
63	0x3e873fb0	0.26415777
64	0x3e02f272	0.12787798
65	0xbc029f2c	-0.00797252
66	0xbe827597	-0.2548034
67	0xbd5da836	-0.054115497
68	0x3d72fdff	0.05932426
69	0xbe447650	-0.19185758
70	0x3e5eb513	0.21748762
71	0x3eae6384	0.340603
72	0x3de99f73	0.11407366
73	0x3df303b1	0.118659385
74	0x3d88673f	0.06660318
75	0x3cfc6701	0.030810835
76	0x3e10813f	0.14111803
77	0x3e356756	0.17715201
78	0xba850bc4	-0.0010150601
79	0x3c8908d4	0.016727842
80	0x3e7ac85e	0.24490497
81	0xbc45562c	-0.012044471
82	0x3e09e465	0.13466032
83	0x3dd38e40	0.103298664
84	0xbd68c4c0	-0.05682826
85	0xbe421012	-0.18951443
86	0xbe15f7d4	-0.1464532
87	0x3e31c9d6	0.1736215
88	0xbe113df9	-0.14183797
89	0x3df5d1c6	0.12002902
90	0x3d411aac	0.047144577
91	0x3d3ab1b0	0.045579612
92	0x3dee54d0	0.116372705
93	0x3e2ed5ad	0.17073698
94	0x3e2d5380	0.16926384
95	0x3e9c9079	0.30578974
96	0xbeaa44ac	-0.33255517
97	0xbdd8793c	-0.105699986
98	0x3e3ef0cb	0.18646543
99	0xbdcb9ff7	-0.0994262
100	0xbdff88b6	-0.124772474
101	0x3e8af871	0.2714267
102	0x3e39d05a	0.18145886
103	0x3e23fd33	0.16014557
104	0xbdbd1b5c	-0.09233734
105	0x3e1ed903	0.15512471
106	0x3db3d0f1	0.08780087
107	0x3edc9b32	0.43087155
108	0xbbb41c32	-0.005496525
109	0x3ec30e70	0.38096952
110	0xbe0c19c9	-0.13681711
111	0x3e96b4cc	0.29434812
112	0x3dcbb546	0.099466845
113	0x3e17c96f	0.14822935
114	0xbea150d3	-0.31506976
115	0x3e24ce08	0.1609422
116	0x3e68f1cc	0.22748488
117	0xbd8ee299	-0.06976814
118	0xbf15fd89	-0.5858999
119	0x3e761476	0.24031243
120	0x3e8660b0	0.26245642
121	0x3c454e32	0.012042569
122	0xbe497df4	-0.19676954
123	0xbe971a50	-0.29512262
124	0xbecbe6a5	-0.39824405
125	0x3e23307c	0.15936464
126	0xbdb09242	-0.086216465
127	0x3eaa6f3d	0.33287993
128	0xbe312f71	-0.17303254
129	0xbd93a44e	-0.07209073
130	0x3f22f99e	0.63662136
131	0xbe4ed744	-0.20199305
132	0xbe1b585b	-0.15170424
133	0xbe5142f5	-0.20435698
134	0x3e1da63a	0.15395442
135	0xbcfd01af	-0.030884592
136	0xbdf5d0d6	-0.12002723
137	0x3f2ab4fa	0.666824
138	0xbeaf7af6	-0.342735
139	0xbeffbb71	-0.49947694
140	0xbcd7e732	-0.02635536
141	0xbf95dcfe	-1.1708066
142	0xbde40b54	-0.11134973
143	0xbf85579c	-1.0417361
144	0xbeda1007	-0.42590353
145	0xbeb44bb1	-0.35213998
146	0xbe67b734	-0.2262848
147	0x3ed35692	0.41276985
148	0xbe6af32b	-0.22944324
149	0x3e10f8c0	0.1415739
150	0xbefcd71c	-0.49382865
151	0xbede4baa	-0.43417102
152	0x3e2d89cd	0.16947098
153	0xbeed129c	-0.4630326
154	0xbecf901c	-0.40539634
155	0xbdeb6188	-0.11493212
156	0xbd74b2e9	-0.059740935
157	0xbe53e2b3	-0.20691948
158	0xbe8ca37e	-0.27468485
159	0xbe6fc13a	-0.23413554
160	0xbf13618a	-0.5757071
161	0xbc638674	-0.013887037
162	0x3e851318	0.2599113
163	0xbe445fdb	-0.19177191
164	0xbe4ecd04	-0.20195395
165	0xbdf56d60	-0.11983752
166	0xbed83834	-0.4223038
167	0xbe11aaeb	-0.14225356
168	0x3ddb0972	0.10695161
169	0xbf168f50	-0.5881243
170	0xbfac9bf6	-1.3485096
171	0xbf1b389e	-0.60633266
172	0xbeccab24	-0.3997432
173	0xbedfe907	-0.43732473
174	0x3e6047ea	0.21902433
175	0xbe06c62c	-0.13161534
176	0xbea71f63	-0.32641134
177	0xbd68cfd6	-0.056838833
178	0x3ec74a28	0.38923764
179	0xbf3283a8	-0.6973214
180	0xbe6fcd29	-0.23418106
181	0x3cfef9ab	0.03112491
182	0xbe83c6ae	-0.25737518
183	0xbe736b9f	-0.23771523
184	0xbecb2533	-0.39676818
185	0xbeddc6f2	-0.43315846
186	0xbda5aaed	-0.08089242
187	0xbe09045a	-0.13380566
188	0xbe6b5178	-0.22980297
189	0xbe3f2bb2	-0.18669012
190	0x3df6dbd2	0.12053646
191	0x3f45b9a8	0.77236414
192	0xbcb9df91	-0.022689613
193	0x3fb472a6	1.4097488
194	0xbf3b0b93	-0.73064536
195	0xbe8ff592	-0.28117043
196	0xbf3114a5	-0.69172126
197	0x3f2960ab	0.6616313
198	0xbe0c542e	-0.13703987
199	0x4002bc94	2.04276
200	0x3e7b972b	0.24569385
201	0x3dbc4f9b	0.09194871
202	0xbd42a509	-0.04752067
203	0xbf161be0	-0.58636284
204	0xbe865c33	-0.26242217
205	0xbecebd07	-0.4037859
206	0xbece289d	-0.4026536
207	0x3c472994	0.012155909
208	0xbbf0689c	-0.007336689
209	0x3de3d7f5	0.11125175
210	0xbdf1ef40	-0.118132114
211	0xbe9ac13b	-0.30225548
212	0xbf3e7c0a	-0.7440802
213	0x3f3e28d5	0.74281055
214	0xbeeca6c7	-0.4622099
215	0xbe9ef7e5	-0.31048504
216	0xbe40a180	-0.18811607
217	0x3de0ba04	0.1097298
218	0x3eed9bbf	0.46407887
219	0xbe777592	-0.24165943
220	0xbe892d09	-0.26792172
221	0xbdb7e292	-0.08978762
222	0x3f060276	0.52347505
223	0xbe85fbb1	-0.26168588
224	0xbedf04fc	-0.4355849
225	0x3da4cfa7	0.08047419
226	0xbdfcb7c4	-0.12339738
227	0xbdf76d1c	-0.12081358
228	0xbe2f56b4	-0.17122918
229	0xbde4e092	-0.11175646
230	0xbdd68f56	-0.10476558
231	0xbd1aa058	-0.037750572
232	0xbbbf83c4	-0.005844565
233	0x3e3f225b	0.1866545
234	0x3f1fc37e	0.6240767
235	0xbdc5fbea	-0.096671894
236	0xbf150240	-0.5820656
237	0x3da611de	0.08108877
238	0xbebf2f26	-0.3734066
239	0x3d71b122	0.059006818
240	0xbea860ad	-0.32886258
241	0xbebc4f3a	-0.36779195
242	0xbebb36c5	-0.36565223
243	0xbe49102b	-0.19635074
244	0xbdc89afc	-0.09795186
245	0xbef6cd1b	-0.48203358
246	0x40182ca1	2.377724
247	0x3e1de7b6	0.15420422
248	0xbf03d68a	-0.51499236
249	0xbd0b33c3	-0.03398491
250	0xbe9bc4a3	-0.3042346
251	0xbec3e7c0	-0.3826275
252	0xbec89277	-0.39174244
253	0x3e309377	0.17243753
254	0xbedcea24	-0.43147385
255	0xbe9301e9	-0.28712395

fc.bias f4 [5]
0	0x3e97c132	0.29639584
1	0xbf90a090	-1.1299
2	0x3f435ef2	0.7631675
3	0x3ecf1710	0.40447283
4	0xbeaa5368	-0.3326676
